ML/models/synthnav-model-0.pth (torch, 802559 bytes, 11 tensors)

encoder.0.weight f4 [32, 1, 3, 3]
00000000: 6499 d73d 2266 94bd 6e1c df3c 53a7 0f3e
00000010: e4b2 90be 5507 65be f864 88be 0dac 94be
00000020: f892 973e 651d fcbd bd25 443e b7a8 783e
00000030: 43fc ffbd fc95 9e3e fc5b 87bd 58eb 69be
00000040: ce0d 213c 5f64 67be 0b32 d03b d592 e13b
00000050: 53b2 99bb df0a 5bbb 7512 483e dc59 023e
00000060: 011d a13e f65f 783c 3b2c 97be 674c bbbe
00000070: 0fda c6bd 75fc 983e 9a80 173e 2a13 3dbd
00000080: 5dd8 99bd 8c40 3abe 2555 943e 1cfc fbbc
00000090: 7be6 853d d8a2 acbd c1ac 873e 4655 aabe
000000a0: baad 1fbe 98c2 2fbe beac 803e 08a5 23bd
000000b0: 45a7 6abe 6c11 453e af9e 8d3e e6b6 76be
000000c0: 7e8f 42bb fafb cf3d f421 a4be 84e2 9ebe
000000d0: 1716 043e 7ef6 563d 77ce 77bd 27fe 43be
000000e0: 44dd b13d 271b 40be af49 143e 8613 673b
000000f0: 7d8f a93d 906f 8c3e fb3e f7bd 1909 103e
00000100: 6a45 893e 35c6 a63e 6e4c 47bc 5e8e 65bd
00000110: fe93 903c 1243 9abe a3b2 7ebe 050e 473e
00000120: 0356 98be 949b 8bbe 4c05 8cbe 6872 963e
00000130: 6b80 2ebe 2f04 7d3e 4e35 63be 3e59 273d
00000140: 9a65 d23a e7ee b43d a581 b13d fb80 8dbe
00000150: 3e85 be3c 4803 983e 7f0a 7a3e 368a 85be
00000160: 3628 393e 6d66 b1be 48b6 c73d 17e7 a33e
00000170: d3f5 473e 32cd fbbd a6e6 8dbe 4c76 193e
00000180: 0d3c 2a3e c04d 0abd bc4e 993e b7ad a2bd
00000190: 5601 873e a96e 4dbe 7d77 9d3e b853 2d3d
000001a0: 9ef2 d5bd f259 d2bc 9574 703e 162d 1c3e
000001b0: e272 cbbc f5ba 29be ebb9 b13d 4789 c5bd
000001c0: 2b92 66be 4957 673e 24b0 253e 20d1 3e3c
000001d0: 3117 a53d a405 2c3e 7b05 703e a142 f83d
000001e0: 1bc6 7ebe 0ab1 863e 93c3 ce3d 960c 6f3e
000001f0: 87f1 aebd 3307 87be 58ca 4cbe 7376 4abd
00000200: 2093 973e 3f1b 3b3e 4358 afbe 2918 69be
00000210: d133 283e 09f3 04be d111 2c3d 30eb 9b3e
00000220: 8516 76be b75b f5bd da5c 603e 601e 48bd
00000230: 794d 193e 3f57 033e 78b5 19be eec7 73bc
00000240: cb39 bd3d 2ec2 823e f476 46be 9034 0bbe
00000250: 4924 06be 98fc 7e3e 2d90 b2bd 1f4f aa3e
00000260: 872d 763e d5d9 743d f167 303e 0f5c d23c
00000270: 3901 ea3d df86 44be e4a1 f1bd e1fd 4f3e
00000280: 9212 d63d 00a9 45be 368e d5bd 4baf 2cbe
00000290: b5d3 8d3e bb4b c7bd 8a83 893e 3323 343e
000002a0: 2649 213e 0646 81be 30d1 a1be c0d2 9b3e
000002b0: 1e7e 5c3e b42c 82be 2b03 b43e c00c 98be
000002c0: e709 c73d 6af3 66be 38fb 5ebe 92cd 8ebe
000002d0: 2427 823e 97f3 2e3e ba3e c2bc ede8 70be
000002e0: 9f2a 0a3d 7b26 cb3d ae85 3bbe 1107 b4bd
000002f0: 9cde 0b3e ce47 ac3e 36d1 433e 48c5 12bc
00000300: 4383 f83d 2d73 7c3e a813 ad3e 3c91 ad3e
00000310: 6ace 613e ca89 193e dd30 2d3e 05bc 7e3e
00000320: b54e 913e 8381 85be a08c ad3e 100d 883d
00000330: 4751 8dbc b010 bf3d f0f9 56bd 5f35 343e
00000340: 2dde 763e 479c 01be 9d1b 9b3e e482 3d3e
00000350: 96c5 fe3c ff42 ac3e 034b 99be 0aa9 d7bd
00000360: 326c 853d 888d 333e 0826 b13e 6ac9 143e
00000370: 5b75 9b3e 1ac0 013e abbe e43d c3c4 7a3e
00000380: 7c51 f5bc d0e0 2dbe 8775 9c3e 044f 9c3d
00000390: 4c0c b63e 8939 85be 52c7 37bd e81c a6be
000003a0: acce e2bd 686b 0fbe 8439 59be 6b45 20bd
000003b0: 9587 b33e 24ee 0d3e 6254 acbe ff20 20be
000003c0: 0540 21be ceaa cd3d d76d 63be d04e 4d3d
000003d0: 56b0 0bbe e841 9e3e 94cb 56be 5507 6a3d
000003e0: 1e97 1b3e 1b01 aabe a6ef adbd ee1a 4f3d
000003f0: bb95 613e af59 88be 6896 c8bc 09e8 8b3d
0.10527304 -0.07246043 0.027235236 0.14028673 -0.28261483 -0.22366078 -0.26639533 -0.29037514
0.29604316 -0.12310294 0.19155021 0.2428311 -0.12499287 0.30973804 -0.066093415 -0.22843683
0.009829951 -0.22596882 0.006353622 0.006883959 -0.0046904474 -0.0033423228 0.19538291 0.12729591
0.3146744 0.015159598 -0.29525933 -0.36581728 -0.0970956 0.2988011 0.14795151 -0.046160854
-0.07511971 -0.18188685 0.2897121 -0.030759864 0.06538101 -0.084294975 0.26498988 -0.33268183
-0.15593615 -0.17164075 0.25131792 -0.039952308 -0.22915371 0.19244927 0.27660128 -0.24093208
-0.0029687579 0.101554826 -0.32057154 -0.31032193 0.12899052 0.052481167 -0.060499635 -0.1913992
0.08684781 -0.18760358 0.14481233 0.003525944 0.08279321 0.27428865 -0.120725594 0.1406597
0.2681077 0.32573095 -0.012164218 -0.056043975 0.017648693 -0.30129296 -0.24872832 0.19438942
-0.29753122 -0.27267134 -0.2734779 0.2938416 -0.17041175 0.24708627 -0.22188303 0.040856592
0.0016052008 0.088346295 0.08667306 -0.27637467 0.023256894 0.29690003 0.24418066 -0.2608201
0.18081746 -0.34648457 0.09751564 0.32012245 0.19527368 -0.12294997 -0.27715033 0.14986533
0.1662447 -0.033765554 0.29942882 -0.0794329 0.26368207 -0.20061745 0.30755225 0.04231617
-0.10446666 -0.025677655 0.23481973 0.15251574 -0.024835054 -0.16575225 0.08678039 -0.09645324
-0.22516696 0.2259189 0.16180474 0.011646539 0.08061064 0.16799027 0.2343959 0.121220835
-0.24880259 0.26306945 0.100958966 0.23344645 -0.085421614 -0.2637268 -0.19999063 -0.04942937
0.29604435 0.18272112 -0.34247026 -0.22763123 0.16426016 -0.12983336 0.04200918 0.3045287
-0.24032028 -0.11980384 0.2191042 -0.048857093 0.1497096 0.1282625 -0.15010631 -0.01487921
0.09239539 0.25538772 -0.19381315 -0.1359427 -0.13099779 0.24901044 -0.087189056 0.3326349
0.24040805 0.059778053 0.1722715 0.025678663 0.114260145 -0.19192074 -0.11798456 0.20311691
0.10452761 -0.1930275 -0.10427515 -0.16863744 0.27700582 -0.09731241 0.2685817 0.17591552
0.1575056 -0.25248736 -0.3160491 0.30434227 0.21532485 -0.2542473 0.35158667 -0.29697227
0.097186856 -0.22553793 -0.2177552 -0.27891213 0.25420487 0.1708511 -0.023711551 -0.23526354
0.033732053 0.09919449 -0.18312714 -0.0879041 0.13659137 0.33648533 0.19122776 -0.008958168
0.12134411 0.24653311 0.3380406 0.33899868 0.22051397 0.14993969 0.16913171 0.24876411
0.2838036 -0.26075372 0.3389635 0.066431165 -0.01725067 0.09329355 -0.052484453 0.17598484
0.24108191 -0.12657271 0.30294505 0.18506962 0.031100076 0.33644864 -0.29940042 -0.105302885
0.06514777 0.17534459 0.34599328 0.14529958 0.30362973 0.12670937 0.111691795 0.24489121
-0.029946081 -0.1698029 0.30558416 0.076322585 0.35556257 -0.26020458 -0.04486782 -0.3244393
-0.11074576 -0.14005816 -0.21213347 -0.039128702 0.35064378 0.13860375 -0.3365813 -0.15637587
-0.15747078 0.10042344 -0.2220987 0.05012399 -0.13641486 0.30909657 -0.20976096 0.0571359
0.15194365 -0.33203968 -0.08492975 0.05056279 0.22029774 -0.26630923 -0.024485782 0.068313666

encoder.0.bias f4 [32]
00000000: e9d6 bc3e ecf4 42bb 3544 d33c 39a1 38bc
00000010: 654a 46be 960b 303e 274a e83d 8825 7d3c
00000020: 7a92 6fbd 0d05 3a3e fd2c 3abe 2eb7 84be
00000030: 89a7 b73e 6465 c8bb 26d1 473e 1a2d 823e
00000040: c266 b93d 7cb0 32be ddd4 aa3d 9e4d adbc
00000050: 978c a2be 6331 e7be 6a11 a83d ffab dbbd
00000060: d8c1 69be e4f5 1abe 9690 dd3e fb4f 473e
00000070: b734 d6bc 566a 70be bf0a 853e 8bdd 643e
0.36882713 -0.0029748036 0.02578936 -0.011268907 -0.19364317 0.1719192 0.113422684 0.015450843
-0.0584893 0.18165989 -0.18181224 -0.25921005 0.35870007 -0.0061156023 0.19513378 0.25425035
0.090528026 -0.17450136 0.08341382 -0.021155175 -0.31747887 -0.45154867 0.082064465 -0.10726165
-0.22827852 -0.15132862 0.43274373 0.19464104 -0.026148183 -0.23478064 0.2598476 0.22350137

encoder.2.weight f4 [64, 32, 3, 3]
00000000: 91b4 be3d fbfa 8f3c 0afd 9539 de57 193c
00000010: 9cd3 f03c 0fc4 c7bc df96 b4bb 63e2 433d
00000020: 6194 efbb 0638 8dbd 8c1b 09bc 0f56 033d
00000030: ea6e 8e3d 15f7 bf3c 4a30 07bd 6d5c 78bc
00000040: 1e3f 803c cdb9 62bb fe9f 013d 0097 92bc
00000050: 0637 02bd 83e0 79bd 715f bc3c a949 603c
00000060: 8f0d 35bc 9e23 c9bb bb87 323c 5547 213d
00000070: b358 e73c f96a 24bc 35ee 973d 4cdc a83c
00000080: 749c 8b3d 4bf6 11bd 811e bc3c 0995 f3bc
00000090: 5c73 543c 313a 953b a25d 0ebd c3ac 4a3c
000000a0: 213f 683d d265 6ebc 68b0 573b 217e bcbc
000000b0: c954 47bd f76a cb3c d34c 8c3b 4235 00bd
000000c0: d6a3 053d 602a 38bc de84 913d a3ea 2e3d
000000d0: abf2 eebc 5c41 453c 4713 3b3d 614c 7a3d
000000e0: 2a02 8f3c 1788 3f3c 5b66 27bd 3cbc f33c
000000f0: 4d1c b43c 6ee6 13bd da99 0cbd a19a f0bc
00000100: c370 263c 4ea8 babd 4df1 7bbd 57be 473d
00000110: 6b88 22bd cc2b babc 8e61 b43c 37c3 a4bd
00000120: 2a70 173d c1a6 143d 6d1c 6b3d eebd 66bd
00000130: d7e9 bb3c 5e44 dbbb e659 aebb b61b 163c
00000140: 7205 f2bc 5483 d6bc e3fb 983c 1411 893d
00000150: 87e2 923b fe85 0c3b 0503 76bc 5198 e43c
00000160: 9a3c 9d39 4500 443d 6d53 53bd 2fa7 25bd
00000170: f659 e03c ee2b 50bc 7b99 4b3c 1cec 0b3d
00000180: 532c 043d aa7a 993b ccb0 88bd ad85 2d3d
00000190: aa64 123d 89da 403d 0d86 5b3d ece5 2dbd
000001a0: 6c2c 71bd 917e 05bd 6d6c 6fbd 145f 003d
000001b0: ce9e 373d b2e5 0bbd 2d53 003d b8b3 583d
000001c0: 0674 9a3d df45 593b eb4d ab3c ed60 833d
000001d0: 3d69 dfbc f75b 4dbd a81b 6cbd 1289 e1bb
000001e0: 3dfb 99bc c5fe 0c3c ba62 80bd 9394 763d
000001f0: f996 84bd 178a 95bb 0b0e 1abc 707b 9a3c
00000200: 4c15 fdbc 3953 0f3d e1ed 343d ede7 6d3d
00000210: e56d 27bd e088 f7bc 9c48 29bd a161 763c
00000220: 6b8c 193d 9ecb 38bb 7751 3f3b b878 9c3c
00000230: 2748 0bbd ebe3 ee3c a459 c83c be48 713d
00000240: dcc7 0ebd e060 08bd d83b 83bd c4e2 823d
00000250: c10b 1fbd 6f52 c9bc dcb5 0fbd 992a b3bc
00000260: 4ece 4c3c 29bd 2b3d 0a06 9d3c 1267 4b3d
00000270: de8b 813a 1b48 1eba 60bc 153d 1d82 d8bb
00000280: 471d bbbc 294d f23b 5269 693c b350 38bd
00000290: f0e0 853c c7f7 8a3d a36d 293d a1ce de3c
000002a0: 4ee4 913d afbd 26bd 0a8d 12bc 346b 0d3d
000002b0: a85d 11bd c474 9b3c c133 60bd ded3 ecba
000002c0: b965 2bbb f9c8 6e3b 4909 473c 7376 e93c
000002d0: 9960 3ebc 3879 72bd c009 9abc f8f5 d93c
000002e0: f3c2 363d 660e a5bc 9064 33bd 3510 fb3c
000002f0: cf78 15bb 6f12 16bd 4fc2 afbd d580 eabc
00000300: 1870 5a3c bd33 85bd 5431 2ebd 44ae 1abd
00000310: 85a2 76bd b154 69bd e1eb 6fbd 720c 0f3d
00000320: b020 34b8 0249 143d 7073 69bd 15a9 023d
00000330: ee17 643d 1636 313c 648e f43b aff5 1f3c
00000340: 00c8 cd3c c924 6cbc 825d eb3c 02c6 9dbc
00000350: e212 213d 5f5d 5cbc e180 0f3c a769 813d
00000360: 7033 9abd 9018 7cbd e107 d43c 040a 25bd
00000370: 0cec 90bd 1870 3ebd 7951 30bc 56cf a5bc
00000380: fcb5 cfbd b1ff 5c3d cf9b 5bbc 46f0 223d
00000390: fbf7 1bbc ec80 20bd 727f 88bc 7fc4 3abd
000003a0: 485f 843d a437 0e3d 858f 003d 6c05 13bd
000003b0: ad1a 9bbb e3cf bd3d 7d9b 3abc 0046 4e3d
000003c0: b24e 4dbc 9991 353d 1ebd 38bc 27a5 3f3d
000003d0: 4aaf f03c 8d0a 053d 2bfe 6d3d 0ad6 03bd
000003e0: 225c 383c 2e29 003c 10d2 48bd 0f59 7ebd
000003f0: 6af9 353d 4f87 de3c 8226 883d e226 babc
0.09311784 0.017575732 0.00028608023 0.009359328 0.029397778 -0.02438548 -0.0055111493 0.04782332
-0.0073113893 -0.06895451 -0.008368384 0.032064494 0.06954749 0.023433248 -0.033005036 -0.015158755
0.015655097 -0.003459561 0.03164672 -0.017894268 -0.031790756 -0.061005127 0.022994729 0.013689437
-0.011050596 -0.006138279 0.0108966185 0.03937467 0.028240537 -0.01003527 0.07418481 0.020612858
0.068169504 -0.035635274 0.022963764 -0.029734151 0.012966957 0.004554056 -0.034757264 0.012370291
0.05670083 -0.014550643 0.0032911543 -0.023009362 -0.04866484 0.024831278 0.004281619 -0.03130079
0.03262695 -0.011240572 0.071054205 0.042704236 -0.029168447 0.012039509 0.04567268 0.061107997
0.017457087 0.011690161 -0.0408691 0.029752843 0.021986151 -0.036108427 -0.03432641 -0.029370608
0.01015872 -0.09114133 -0.06150942 0.048765507 -0.03968088 -0.022725962 0.022019174 -0.08045047
0.036972202 0.03629184 0.057400156 -0.056333475 0.022938652 -0.0066914996 -0.0053207753 0.00916188
-0.029543612 -0.026185669 0.018674796 0.066927105 0.0044825706 0.002144217 -0.015015368 0.027904661
0.00029990525 0.04785182 -0.051593233 -0.04044264 0.027386647 -0.012705786 0.012426729 0.03416072
0.032268833 0.004683812 -0.06674346 0.04236381 0.035740532 0.04708341 0.053594638 -0.0424556
-0.058880255 -0.032591406 -0.058453012 0.031340674 0.044829182 -0.0341546 0.031329323 0.05290577
0.07541661 0.0033153219 0.020911178 0.064149715 -0.027271861 -0.050136533 -0.057643563 -0.006882795
-0.018796558 0.008605664 -0.062688306 0.060200285 -0.06474108 -0.0045635807 -0.009402762 0.018857688
-0.030893944 0.034991477 0.04417217 0.05808251 -0.040876288 -0.030216634 -0.04132901 0.015037925
0.03748743 -0.0028197537 0.0029192844 0.019100532 -0.034004357 0.029161414 0.024456806 0.058907263
-0.03485857 -0.033295512 -0.06407899 0.06390908 -0.03882957 -0.02457544 -0.035085544 -0.021870898
0.012500359 0.041928444 0.019167919 0.049658842 0.0009883603 -0.0006037966 0.0365566 -0.0066073076
-0.022841109 0.007394452 0.014246302 -0.044998836 0.01634261 0.06785541 0.041364323 0.027198138
0.07123624 -0.04070824 -0.008944759 0.034526065 -0.03548971 0.018976577 -0.054736856 -0.0018068512
-0.002615316 0.0036435707 0.01214821 0.028498864 -0.01161971 -0.059197634 -0.018803477 0.026606545
0.04461951 -0.020148467 -0.043797076 0.030647377 -0.0022807603 -0.036638673 -0.08581983 -0.028625885
0.013332389 -0.06504009 -0.04252751 -0.03776385 -0.060213584 -0.056965534 -0.05857456 0.03492398
-4.2945787e-05 0.03620244 -0.056994855 0.03189953 0.055686884 0.010816118 0.0074632633 0.009763165
0.025119781 -0.014413067 0.028731111 -0.019259457 0.03932465 -0.013449996 0.0087587545 0.0631898
-0.07529342 -0.061546862 0.025882663 -0.040292755 -0.07076272 -0.04649362 -0.010761612 -0.020240467
-0.10142133 0.053954784 -0.013403847 0.039779924 -0.009519572 -0.03918545 -0.016662333 -0.04559755
0.06463486 0.03472103 0.03138687 -0.035893843 -0.0047334046 0.09268167 -0.01138961 0.050359726
-0.012530969 0.044328306 -0.011275558 0.04678836 0.02938046 0.032480765 0.05810372 -0.032186545
0.011252435 0.007822318 -0.049028456 -0.06209665 0.044427313 0.02716413 0.0664797 -0.022723619

encoder.2.bias f4 [64]
00000000: 14ca cd3d 160d a1bb dcc3 073d 7b99 cd3c
00000010: e634 02bc aae3 d83b 78f4 033c 3494 d53b
00000020: fead c5bc dab0 d8bc 7f0d 6b3d 354c 41bd
00000030: 741b 043d 053c 713d 6ed4 173d cfa6 173c
00000040: dabd 043d 3350 16bd a58a 193d ad4a febc
00000050: 479f 893c b37d 9f3d f802 da3b 4aad 733d
00000060: 40ac ad3c f0be 6fbd b3ff 613d f6cb 97bc
00000070: 3d23 45bd 8e36 b2bb b087 26bd 1306 3a3c
00000080: e4ba 57bd 9e5a be3d 083c 973c c4ed b53b
00000090: 4eb5 173d 70c6 333d 4197 03bd 215c c43a
000000a0: ffd8 8abc a611 e0ba 3031 133d 1181 e23a
000000b0: 476e 653c 0c8b edbc aa3f a8bc 4ab5 4c3c
000000c0: 5243 81bc 99bb 99bd f5e2 723d a32a 493d
000000d0: 6098 613b 0c03 063c acd5 823d fa85 fc3b
000000e0: fad9 5abd 1515 61bd 1b74 043d 46ca 13bd
000000f0: 9728 933c eafc 8fbd eb22 be39 0fff b23d
0.10048309 -0.00491489 0.03314577 0.0250976 -0.007947182 0.0066189365 0.008053891 0.0065179113
-0.024130818 -0.026451517 0.057385918 -0.047191817 0.032252744 0.05889513 0.037067823 0.009256079
0.03240762 -0.036697578 0.037485737 -0.031041468 0.016799582 0.07787647 0.006653186 0.059491433
0.0212003 -0.0585317 0.055175494 -0.018529873 -0.04812931 -0.0054386323 -0.040656745 0.011353987
-0.052668467 0.092946276 0.018461242 0.0055520255 0.03703814 0.043890417 -0.03212667 0.001498107
-0.016949175 -0.0017095103 0.03593558 0.0017280896 0.014003343 -0.028996967 -0.02053817 0.012494395
-0.015779171 -0.075064845 0.059298474 0.049112927 0.0034423098 0.008179437 0.06388411 0.007706401
-0.053430535 -0.054951746 0.03233729 -0.036081575 0.01796369 -0.070306614 0.0003626564 0.08740055

encoder.5.weight f4 [128, 64, 3, 3]
00000000: 9b1b 1b3d 5f45 213d 3ad4 78bc 2233 963c
00000010: b589 e0bc 49a2 ffbc efa3 08bd 89fc b73c
00000020: 9f66 27bd ff73 f2bc a19e 333c 79a9 1abd
00000030: 841e 1fbd 7dff 91bb 3c87 843c 519b 0d3d
00000040: db3d 0bbd 2db7 393b 0f19 f6bc b7a8 1bbd
00000050: 01ff 21bd b138 d2bc d731 debc a2b7 453b
00000060: d7d6 b43c c2c7 013d 4aac caba c508 c33c
00000070: 4944 6dbc 38b2 f93c 9b62 233d 2136 ce3b
00000080: 8c4a 0a3d 5e9f 9f3c 35f8 02bd 2b83 023d
00000090: 6977 133d 036f 003d 23fb 2c3d a7cb c13b
000000a0: c21d c43c 2c92 d83c 0714 173d 09a8 2e3d
000000b0: ae7e 8d3b 8009 b23c ae5c 4f3c b418 66bc
000000c0: 2483 4fbc e37f 23bd 583e 873b 3741 a3bc
000000d0: b3ec bb3b 430b 09bc 7ae6 19bd 9528 0e3d
000000e0: 8908 1d3d ad8d 853a 4361 253d 399e 14bc
000000f0: 0c86 83bc 57c6 b4bc f534 8dbc 581b 093d
00000100: bf44 09bd 8521 bc3c a048 dbbc 75c4 913c
00000110: 467a 103d 9ead 073d 6fc8 05bd 550e ef3c
00000120: 0514 c6b9 9f60 26bd cdce d9bb f781 3abc
00000130: 2f84 903c 2ad6 893c 62c6 a9bb 9fb6 563b
00000140: 6323 073d 801e 0ebd 618a 20bb d40d af3c
00000150: 4bee 6b3a 2472 6c3b a94a 90bc 6099 e13a
00000160: 527a 13bc 6be6 70bc f156 3d3c 241f 14bd
00000170: d444 18bd 9bcf 61bc 08af d9bc 49ad e8bb
00000180: 1e82 38bc aa9e 6c3c c487 073c 6e41 ffbc
00000190: ab15 6cbc a666 56bc 763a a33c 53de 923c
000001a0: abc8 cd3c 0c5f ccbc 7324 b83b 10c3 08bd
000001b0: 1cd9 0c3d c535 8cbc 4137 663c e2dc 86bc
000001c0: f9ea f3bc 7f54 193a 131a 063c 9ff7 d23b
000001d0: d43d e73a 4703 663b 5e02 273c 8579 a4bb
000001e0: d591 1a3d fcfb de39 020c a3bc 5daf b13c
000001f0: 5397 8cbb b0fe 14bd 82fe d4bc e478 b73c
00000200: 019a 11bd 0e4a 0f3d 6167 7bbc 438e d8bc
00000210: 9788 323d 4638 85bc 2f18 003d d223 ca3b
00000220: f39e 6abc c239 4dbc f935 f93c 40d7 d93c
00000230: af0a c3bc d6a6 febc ec2d dbbc fcae adbc
00000240: 5504 13bd 5280 0f3d abae cb3c 2d5b c63b
00000250: 608a e5bb 015a 033b bbb4 073d cc21 4bbc
00000260: a436 a53c 904f 20bc c585 21bd 9834 de3c
00000270: 0c57 d33b 93aa 97bc b263 253d bcd6 cc3c
00000280: 91e7 8a3c 1958 8fbc 903d 1abd 8a9d eabb
00000290: 1365 293d b786 873c ca1a 513c 5f16 99bc
000002a0: 6d4e ae3c 056b 463c 5dc7 d53c ac82 e3bc
000002b0: 5d72 4a3c f892 9dbc 3548 05bd 7b7d 503c
000002c0: d38c 063d c90c 3f3c bce0 083c 9b2e 24bd
000002d0: 706b e83c e7ad a53c 2970 d63b 79e6 4f3c
000002e0: 9b2c 243d dadf 62bc edb1 12bb 0e1b eebb
000002f0: 1dfa 08bc c69a 263d 1452 1fbd 3244 ef3c
00000300: 2396 8dbc ce6c eb3c 95da 1fbd 1f86 c83c
00000310: 3ad1 30bb 3ff6 7ebc df24 cc3c 3181 25bd
00000320: 44dc b7bb 21da 8c3c 8103 e9bc 5657 de3c
00000330: 08c5 bfbc ff17 00bc ba30 f83c ddd1 a5bb
00000340: f7c5 593c 5ec7 d9bc a48a 303c 9d97 00bd
00000350: 5f8b 12bc 35bb ca3c a0ff 94ba 979d 263d
00000360: 1851 033d 6fe7 813c 8a60 c43c 80ef a7b8
00000370: 13f0 933c 517a 273d 137b 333c c0e2 5d3c
00000380: f816 a3bc 109e c0bc 3557 80bb 8483 1e3d
00000390: 6493 2d3d c7c5 a3bc 73c3 d9bc f8bc e13c
000003a0: cf14 b33c 6f21 963c c977 6c3c a2fa 49bc
000003b0: 9db5 acbc daea 69bb 2ed2 133d f8a4 03bd
000003c0: a9cf c0bc a409 f83c 26d4 d03c 183a ebbc
000003d0: f9ef 4638 675f 8bbc d490 5a3b 9e76 be3c
000003e0: 32a2 27bd f720 223d ff78 c7bc 60f9 23bd
000003f0: 1836 babc f585 163d 0506 2abd 537b 533a
0.037868124 0.039372798 -0.0151873175 0.018334929 -0.027409414 -0.031205313 -0.033359464 0.022459285
-0.04086935 -0.029596327 0.010963113 -0.037759278 -0.03884746 -0.0044555054 0.016177766 0.03457195
-0.033994537 0.002833794 -0.030041246 -0.038002696 -0.03954983 -0.025661798 -0.027123375 0.0030169268
0.0220751 0.031684645 -0.0015462723 0.023807893 -0.0144816125 0.03048049 0.03988896 0.0062930738
0.0337625 0.019485172 -0.03197499 0.031863373 0.03600255 0.03135587 0.04223169 0.00591417
0.02393997 0.026436888 0.036884334 0.04264072 0.00431808 0.021733046 0.012656374 -0.014043976
-0.012665544 -0.039916884 0.004127305 -0.019928558 0.005735004 -0.008364501 -0.037573315 0.03470667
0.038338218 0.0010189317 0.04037596 -0.009070926 -0.01605513 -0.022067232 -0.017237166 0.033473343
-0.033512827 0.022965202 -0.026768029 0.017793873 0.03527286 0.03312456 -0.03266185 0.029181639
-0.0003778042 -0.04061949 -0.006646967 -0.011383525 0.017641155 0.016825754 -0.00518112 0.003276266
0.03299273 -0.034697056 -0.0024496543 0.021368898 0.0009000047 0.0036078775 -0.017613726 0.0017211847
-0.009001331 -0.014703373 0.011556373 -0.03616251 -0.037175015 -0.013782407 -0.02657272 -0.0071007353
-0.011261491 0.014442125 0.008272115 -0.031159129 -0.014409463 -0.013085997 0.019925337 0.017928278
0.0251201 -0.024947666 0.0056195795 -0.03338915 0.03438674 -0.017115483 0.0140512595 -0.016462747
-0.02977513 0.0005849078 0.0081849275 0.00643821 0.0017642328 0.0035097168 0.0101934355 -0.005019369
0.037736733 0.00042530883 -0.019903187 0.021690065 -0.0042905 -0.0363757 -0.026000265 0.022396512
-0.03554726 0.034982733 -0.015344472 -0.026435023 0.043587293 -0.016262185 0.031273063 0.006168821
-0.014320123 -0.012525978 0.030421244 0.026591897 -0.023808805 -0.031085413 -0.026755296 -0.021201603
-0.035892803 0.035034485 0.024863562 0.0060533495 -0.007005021 0.002004266 0.033131342 -0.0123981945
0.020167656 -0.009784594 -0.039434213 0.027124688 0.006449586 -0.018513953 0.04037828 0.025004737
0.016956123 -0.017498063 -0.037656367 -0.0071598934 0.041356158 0.01654373 0.012762735 -0.018687425
0.02127763 0.012110476 0.02609604 -0.02777227 0.012356368 -0.01923512 -0.032539565 0.012725229
0.032849144 0.011660763 0.008354362 -0.04008351 0.028371543 0.020224525 0.0065441323 0.012689226
0.0400816 -0.013847316 -0.0022383884 -0.0072664088 -0.008360413 0.040674947 -0.038896635 0.029207323
-0.017283505 0.028738406 -0.039026815 0.024478016 -0.0026980177 -0.015561639 0.024919925 -0.04040641
-0.0056109745 0.017193856 -0.028444054 0.027141254 -0.023409382 -0.007818221 0.030296672 -0.005060418
0.013291827 -0.026584323 0.010775242 -0.03139459 -0.0089443615 0.02474747 -0.0011367686 0.040677633
0.03205976 0.015857426 0.023971815 -8.007791e-05 0.018058812 0.040888134 0.010954636 0.013542831
-0.019908413 -0.02351287 -0.003916646 0.03869964 0.04237689 -0.019991769 -0.026582455 0.027555928
0.021860508 0.01832649 0.014432856 -0.012327822 -0.021082694 -0.003569296 0.036089115 -0.03213975
-0.02353652 0.030278035 0.025491785 -0.028714225 4.743037e-05 -0.017013265 0.0033350484 0.02324992
-0.040926166 0.03958222 -0.024349688 -0.040032744 -0.022730872 0.036748845 -0.041509647 0.0008067388

encoder.5.bias f4 [128]
00000000: 1ce4 cdbc 059f 2a3d 6b6f d03c f0ff 1a3d
00000010: 2804 433b afce 07bd 99b1 9e3c 2cd3 01bb
00000020: 63d8 553d f9d9 21bd 3511 0d3d a1d3 c0bc
00000030: ffb3 1a3d 68a2 d1bc 69b8 543d 8727 16bd
00000040: d580 a3bc 33d6 163b 640a 99bb 92e1 de3c
00000050: c0c8 a0bc c183 613c ae77 38bd bbfe 413d
00000060: ad64 9e3c 1d6b a93d 4497 0e3d e390 453d
00000070: 3414 febb 8433 bcbc 0ea1 20bc 57b0 033d
00000080: 06b4 6e3c 8dbb 6abc 6ca7 22bb dd59 27ba
00000090: 3367 653d 6fca b23d bf4a 24bd 5bfa 4e3d
000000a0: c173 36bc feb7 353c dacf 123c 8e7e f93c
000000b0: 934a dabc e2e5 fbbc f10c 9d3d 9b02 4f3d
000000c0: eef4 473d 230d a03d 1871 18bd 5247 873c
000000d0: 389f 4b3d 1c4a 18bc e8b1 bfb9 eaf1 b03c
000000e0: b522 0c3d 6931 a4bc fa1e 2c3c 1070 803c
000000f0: 7174 4d3d 021f 1a3d 2ecb 953d 1b50 1c3d
00000100: d6db 14bd b701 033d bbb8 ac3c e4d4 e03b
00000110: f30e 253c 0b03 073d 21dd e83c 4d3a 243d
00000120: af9f 293d a311 1b3d 9899 f33c 6d98 003c
00000130: 8ffc 2c3d dae2 033d 32c9 933c 87c1 2a3d
00000140: 6788 7e3d 491d 593d 5c2a 0abc 313c 2f3c
00000150: 2279 253d f4e3 5fbb d926 58bc ea61 4b3b
00000160: 0cab ae3d a0bd a73a b9b2 823b 8bf5 19bb
00000170: 6c11 843c 039a 793d 11ad 1bbd aeb8 4c3d
00000180: 6448 45bc 3b26 cc3b 1e54 6b3d 4aff 6e3d
00000190: 2364 1f3d 1b36 263d 38b7 003d 7fd0 01bd
000001a0: 6beb ebbc a408 8a3c 30f6 1a3c cd6e 333d
000001b0: 32ec 983c 2031 053c 2280 9d3c b977 c6bc
000001c0: 78c4 3b3d 55a7 103d 9cfd d33c 1845 493d
000001d0: 6a6f ef3b 5f6c 8fbc 1b61 bf3c 643b 3c3d
000001e0: 0c4c 4a3d a9cb e3bb bbe7 153a 0899 2c3d
000001f0: 67b5 eb3c b44c be3b cf40 483d 9481 be3c
-0.025133185 0.04165556 0.025443753 0.037841737 0.0029757116 -0.033156093 0.019371795 -0.0019809706
0.052208316 -0.039514516 0.034440238 -0.023538413 0.037769314 -0.025590137 0.05193368 -0.03665879
-0.019958893 0.0023015856 -0.004670428 0.02720717 -0.019626975 0.013764323 -0.04503601 0.04736207
0.019335115 0.08272383 0.034812227 0.048233878 -0.0077538732 -0.022973783 -0.009804023 0.032150593
0.014569288 -0.014326942 -0.002481903 -0.0006383935 0.05600662 0.087300174 -0.040110346 0.050531726
-0.011135996 0.01109123 0.0089606885 0.030455854 -0.026646888 -0.030749265 0.07668484 0.050539594
0.048817568 0.07815006 -0.03721723 0.0165135 0.04971239 -0.009295013 -0.0003656291 0.021599729
0.034212787 -0.020043092 0.010505432 0.015678436 0.050159875 0.037627228 0.07314144 0.038162332
-0.036342464 0.031984057 0.02108418 0.006861316 0.010074365 0.032961886 0.028425755 0.040094662
0.04141205 0.037858617 0.029736325 0.007848841 0.042233046 0.032198764 0.018040273 0.04168847
0.062141802 0.053006444 -0.008432951 0.010695503 0.040398724 -0.003416297 -0.013192856 0.0031033703
0.08528718 0.0012797602 0.0039885906 -0.0023492302 0.016121589 0.060937893 -0.038006846 0.04998081
-0.012041185 0.0062301434 0.057453267 0.05834893 0.038913857 0.040578943 0.03142473 -0.031692978
-0.02879878 0.016849823 0.00945811 0.04380684 0.018667314 0.008129388 0.019226138 -0.02422701
0.045841664 0.03531583 0.025877766 0.04913816 0.0073069828 -0.01750773 0.023361733 0.045955077
0.04938893 -0.0069517684 0.00057184295 0.04213813 0.028773023 0.0058074836 0.04888993 0.023255147

decoder.0.weight f4 [64, 128, 3, 3]
00000000: 6534 173b 86a0 bf3b 5b69 dfbc cebb 7fbb
00000010: e128 35bc 2e17 29bc e3c0 ca3c e563 a23c
00000020: 0be9 88bc ad84 d1bb 774d aebc 4b79 ac3c
00000030: 02c4 c6bc e542 91bb 5547 db3b 7f58 663c
00000040: f397 fa3c 7368 9c3c ee62 e9bc 83f6 d73c
00000050: ddf8 a4bc 8eaf babb 59b6 92bc a531 16bc
00000060: 7531 b3bc 7a01 e6bc 5707 1fbc 8775 413c
00000070: 5ac1 e33c 67b3 09bc 31bc 10bc ffc1 a2ba
00000080: 13cc fabb b18e e3bc 2c45 d4bc eca5 d4b8
00000090: 6e01 3d3c a8e9 3f3c dcad d03c e975 1bbc
000000a0: ee47 5a39 2a35 f73b 8f1f 993a 142f 83bc
000000b0: e082 8ebc 98b2 a6bc 4d50 87bb f036 dbbc
000000c0: f798 49bc cc94 3c3b 7601 68bc 937a 573c
000000d0: eb52 d3bc 7a3c 553b 3744 673c 144e ef3c
000000e0: b35d 953b 98e3 8ebc 1827 923c 993b 63bc
000000f0: 3abf b03c 4c44 3b3b 93dd 143c 3cca fdba
00000100: d36e cebb 7c08 ed3c 4bf8 ec3c 14ee 63bc
00000110: f8eb 1c3c c928 a8bc 3cd7 6dba 092c bd3b
00000120: 282c e53c b648 aabc 6470 fd3c bc9a c3bc
00000130: 8374 d8bc 8787 dcbc 425c 833c 89c4 59bc
00000140: 9015 6ebc 8819 00bc 6a2d e9bb be58 38bc
00000150: fef8 683c ca93 403b 8f30 d03c 2c78 bcbc
00000160: 37fc c9bc 0bcc bd3c 3a05 953c 98fc dabc
00000170: 5695 72bc 040c d43c ad6c b4bc 3985 a9bb
00000180: 3498 b73c d200 aebc 3244 8bbc c54e b03c
00000190: 3329 cb3b 4b3b 8dbc 6023 943b fc82 183c
000001a0: 8163 063c f3e4 b1bc 8829 c6bc 600c 95bc
000001b0: 09be 963c 5890 2e3c 3ab7 95bc a42e a0bc
000001c0: 6dc4 a1bb 9fdb b73c 46f3 89bb c1be d43c
000001d0: 9316 07bc cbcd 973c 17fb e9bc aa09 da3b
000001e0: 1742 8f3c 437f cb3c 398c edb9 60cf a3bb
000001f0: 602f bf3c d88b 0cbc fb87 99bc 943f 793c
00000200: ec47 e6bc 2960 aabb ac88 5e3c 278f 7a3c
00000210: 2d0f a7bc 9067 d13c 6f6e ccbb 03fa 6cbc
00000220: 7dc3 dd3c 9729 8abb 5163 193c 6fd5 3fbc
00000230: 2582 f03b c8a6 94bc 162e 22bc 2866 db3c
00000240: fb5c af3a 6bb2 2cbc cd3c aabb 4a7c 6938
00000250: cd54 8f3c ce9d 68bb c56b ea3c caaa acbc
00000260: 4941 143c 6fac 37bc d2fc ca3c 17d6 d43c
00000270: 3f12 0c3c 7b16 e4bc 7aa4 c8bc b8dd 8fbc
00000280: f206 e3bc 8eb0 dd3c 285d 263c 2bfe 1cbc
00000290: c881 a53c 8980 683c 6090 d53c e671 ea3c
000002a0: 3514 59bc 2fb6 50bc 1b16 6bbc 99d3 8e3b
000002b0: c911 f6bc 5a9a adbc ae4a e53c 3b93 44bc
000002c0: ecaf a73c 6a8a acba 033f 3e3c d57b 963c
000002d0: cc17 e2bc c7d4 8bbc af5e f9bc a822 a2ba
000002e0: db9d d03c d2ba c4bb e224 37bc 7c61 283c
000002f0: caef 6f3c d0b2 d6ba 000b a1bc e803 c4bc
00000300: 426c 8abc 9d20 07bc 4849 64bc 95c9 e4bb
00000310: 22ff 42bb 8551 6c3c b565 3f3b 4cfc 5bbc
00000320: 9c19 b73c 4eb2 95bc aca2 bfbc a561 a3bc
00000330: 9987 d5bb 1be2 8e3c 2a08 c53c 7265 c738
00000340: a49e 5dbc 8e03 02bc 9052 74bc 653f 77bc
00000350: 490d 9a3c b41a 9cbc 84b9 073c d34f 9abc
00000360: d574 7538 ac57 babc b2a9 50bc 751c db3c
00000370: 0164 9fba a313 e53c 2505 ee3b 60fc fabb
00000380: 9fed 7e3c 3d8a 89bb f0f4 593c 5e73 b9bc
00000390: 727a 093c f881 3fbc a99c a23c c7f0 ecba
000003a0: 5eb1 993b a127 06bd 28c1 603c 6212 763c
000003b0: 4337 493c 68d6 c73b 8af6 02bd fd2b d1bb
000003c0: c3f3 e13b bc57 ddbc 6850 123c 4837 f9bc
000003d0: e1c6 d8ba 3fe0 ddbc 9885 d5ba 67a0 84bc
000003e0: f27f b53c c562 9c3b f5c8 4dbc 2ed4 3d3c
000003f0: 8e14 fa3b a59a f2bb d035 88bb de66 8bbc
0.0023072 0.0058479933 -0.027271917 -0.0039021852 -0.01105711 -0.010320468 0.024750179 0.019823024
-0.016712686 -0.00639399 -0.021277172 0.02105393 -0.024263386 -0.0044330233 0.006691853 0.014059185
0.030590033 0.019092774 -0.028489556 0.026362663 -0.020138199 -0.0056971973 -0.017909216 -0.00916711
-0.021874169 -0.028076876 -0.00970634 0.011807806 0.027802158 -0.008404589 -0.008833931 -0.0012417434
-0.007653722 -0.027778002 -0.02591189 -0.00010139853 0.011535985 0.011713423 0.025473528 -0.009488561
0.00020816896 0.0075441794 0.0011682379 -0.01601366 -0.01739639 -0.020348832 -0.0041294456 -0.026759595
-0.012304536 0.0028775213 -0.014160505 0.013151783 -0.025796374 0.0032537268 0.014115385 0.029212035
0.004558289 -0.01744251 0.017840907 -0.01386919 0.021575559 0.0028574644 0.009086031 -0.0019362639
-0.0062998324 0.02893471 0.028926989 -0.013911743 0.009577744 -0.02052726 -0.0009072905 0.0057730717
0.027975157 -0.020786624 0.030937381 -0.023877494 -0.026422745 -0.026920093 0.016035203 -0.013291487
-0.014531508 -0.007818587 -0.0071160095 -0.011251627 0.014219521 0.0029384964 0.02541378 -0.023006521
-0.024656398 0.023168584 0.018190969 -0.026731774 -0.014806112 0.025884636 -0.022024477 -0.005173352
0.022411443 -0.021240626 -0.017000291 0.021521935 0.0061999797 -0.017240187 0.0045208186 0.009308573
0.0082024345 -0.021715617 -0.024189726 -0.018194377 0.018401163 0.010654531 -0.018275846 -0.01955349
-0.004936746 0.02244359 -0.0042099087 0.025969865 -0.008245128 0.018530747 -0.028562112 0.006653984
0.017487569 0.024840957 -0.00045308637 -0.0049990863 0.02333802 -0.008578263 -0.018741598 0.015212912
-0.028110467 -0.0051994515 0.01358239 0.015292919 -0.020392979 0.025562078 -0.0062387506 -0.014463904
0.027070755 -0.0042163837 0.009362058 -0.011708601 0.007339733 -0.018145934 -0.009898683 0.02678211
0.0013379151 -0.010540585 -0.0051952363 5.5667282e-05 0.01749649 -0.003549445 0.028615842 -0.021077532
0.009048768 -0.011210545 0.024778757 0.025980992 0.008549272 -0.02784275 -0.024492491 -0.017561778
-0.027713273 0.027061727 0.010154046 -0.009582083 0.020203486 0.014190801 0.02606982 0.028618764
-0.013249447 -0.012738748 -0.014348532 0.0043587205 -0.030037777 -0.021191765 0.027989712 -0.011997993
0.020469628 -0.0013163809 0.011611703 0.018369595 -0.027599238 -0.017069234 -0.030440656 -0.0012369948
0.025465896 -0.006003716 -0.011178227 0.010277148 0.0146445725 -0.0016380195 -0.019658566 -0.023927644
-0.016897324 -0.008247522 -0.013933487 -0.0069820383 -0.0029754122 0.014423733 0.002920491 -0.0134268515
0.022351079 -0.018273499 -0.023392998 -0.019944021 -0.0065164086 0.0174418 0.024051744 9.507955e-05
-0.013526592 -0.007935418 -0.014912263 -0.015090798 0.018805163 -0.019055702 0.008283976 -0.018836891
5.852136e-05 -0.022746883 -0.012735771 0.026746968 -0.0012160541 0.027963465 0.007263797 -0.00765948
0.015559583 -0.0041973875 0.013303027 -0.02263802 0.00839101 -0.011688702 0.019850092 -0.0018077128
0.0046903333 -0.032752637 0.013717927 0.015019031 0.012281242 0.0060985573 -0.0319734 -0.0063834176
0.0068955137 -0.027019374 0.008930303 -0.030421868 -0.0016538763 -0.027084468 -0.0016290424 -0.016189767
0.022155736 0.0047725164 -0.012560119 0.011586232 0.007631845 -0.007403689 -0.0041568056 -0.017016824

decoder.0.bias f4 [64]
00000000: abfd b43c 8570 be3c e89f 063d 4764 a63d
00000010: f5ca 383e 70fd b03d 031c 823c 5b18 453e
00000020: 97ce ee3d a7c8 ef3d c9eb 01bd 31df 883b
00000030: f78e 0d3d 909f f93c cdce 30bb 1307 f13d
00000040: 4c6a 88ba 001e 2abc 0f23 fc3a 75b0 0fbd
00000050: b838 f43d 4c9a 9f3b 5460 993d c6d7 c33c
00000060: fbad 0abd 7929 233e e0cc 953d 7d64 7c3d
00000070: f7d7 443c a315 1b3a b0ed c83d d122 a2bc
00000080: 9d55 e43d df59 a43c 6e78 8c3d 6998 18bc
00000090: 887a 083c 1820 863d 9dc1 b43d 8e65 a2bb
000000a0: 8190 a23d 2b94 ab3c 1192 a73c af07 26bb
000000b0: e62d 383d c1c5 4a3d fe6b 3e3d cac2 053b
000000c0: cfc0 1dbc 31f0 c33c 033a a33c 1efe 46bc
000000d0: 2400 7a3d c891 ea3d 9f35 a6bb ee3b 243e
000000e0: 8166 933d 6679 713d 1723 a33d c6cb 34bd
000000f0: 1d86 d43d 8fa1 f8bc 0d18 ed3d ee55 233c
0.022093615 0.023247013 0.032867342 0.08124595 0.18046172 0.08642089 0.015882498 0.19247572
0.11660498 0.11708193 -0.031719003 0.004176997 0.03456017 0.030471593 -0.0026978732 0.117689274
-0.0010407655 -0.010383129 0.0019236522 -0.035080392 0.11924881 0.0048706885 0.07489076 0.0239066
-0.033857327 0.1593379 0.073144674 0.06161927 0.012014381 0.0005916005 0.0981096 -0.019791992
0.11149142 0.020062385 0.06858908 -0.009313681 0.008329995 0.0654909 0.08825991 -0.004955954
0.07937718 0.020944675 0.020455392 -0.002533417 0.044965647 0.049505 0.046489708 0.0020410293
-0.009628489 0.023918243 0.019925123 -0.012145547 0.06103529 0.11453587 -0.00507231 0.16038486
0.071972854 0.058953665 0.07965677 -0.044139646 0.103771426 -0.030350475 0.11576853 0.009969218

decoder.2.weight f4 [64, 32, 4, 4]
00000000: 72dd 49bb 198e cbbc c99e 18bd b1ed bd3c
00000010: 9443 12bd 22ad 073d af7b b3bc b9a9 dfbc
00000020: e652 1f3d fdd3 243a 6576 bd3c f11c c93b
00000030: 332a debc 80f5 083c cdaf 05bd 3f52 993c
00000040: e6d4 0ebd 8ac4 29bc 48f1 28bc 9fc2 e73c
00000050: 6173 d1bc 8209 093d ada3 86ba 916a ff3c
00000060: d858 32bc 9cf4 243d 45fd 97bc 492c f7bc
00000070: 7214 e43c 9497 fabc a725 16bd 32fc 1dbd
00000080: c727 4abd d886 153c 6cfc 62bb 8d34 4c3b
00000090: c766 e5bc c511 b2bc 4b7b 623b df61 06bd
000000a0: 407a e4bc 81fa 74bd 2d18 d7bb 32ce 7d3c
000000b0: 4606 a6bc c047 2ebc a1a0 babc 000d 973a
000000c0: 5b5e 12bd f81a 25bd 448a d8b9 a5b6 03bd
000000d0: e087 1fbd 6fee cfbc d0fd a03c a67a 203d
000000e0: eb9c c1bc e0c6 11bb 2798 b0ba 0ee0 b83c
000000f0: 5ce9 283d 847e 1c3d f2d3 c73c cf56 66bc
00000100: cc24 c3bb cad9 acbc 6949 c3bb bd4b 103c
00000110: 166c abbc aade bc3c ef16 98bc 2a26 f23c
00000120: b7ea e6bc 4bdd 863b 7c5a e93b fa21 80bc
00000130: b807 2ebd 3094 8bbb 43a5 863b 5afc afbc
00000140: c33e 883c cfc9 babc 51f0 c9bc 1ab6 9d3c
00000150: 15a5 88bc 05d7 bcbc 708d 07bb 9168 0dbc
00000160: c4c2 aabb e2b4 5fbc f770 093c 933b e7bc
00000170: af34 debc b915 0d3d 9daf d3bc 1d68 bdbc
00000180: ba41 f2bc 0682 22bd e255 70bd 6a4a 93bc
00000190: b495 98bc ddf2 bebc 6592 343c 03ec 2a3c
000001a0: fa42 d8bb 3930 9abd c483 48ba 52ab cdbc
000001b0: 6aaa 2f3d d3df 96ba b51d 3d3c 276e 6f3c
000001c0: e140 62bc 639a b8bb a24f 013d 3b31 09bc
000001d0: d857 133d 6f40 b33c 634f 0a3d 9d5b 643c
000001e0: 86da 0bbd 423a 603c eee9 08bd f4ac c73c
000001f0: 7e83 973c b434 30bd 0561 0bbc 37c5 1dbd
00000200: 6b72 1abc ed41 dcbc 37fb b2bc 9de0 82bc
00000210: 00e1 e4bc f748 2c3c bf4a 133a 3f78 0ebd
00000220: 88ee c23c 9978 c8bc e6bd c8bc 05a5 ddbc
00000230: 34d0 79bc d1b1 4ebd fc9d 1dbd b882 11bc
00000240: d16a 49bd 25f0 9e3b 0566 8cbb df7a 4dbd
00000250: 6578 803d 5554 7b3b 3e71 563d 4bd2 f9bc
00000260: 856e 433b c26b 80bd 1a00 8c3c 9c78 22bd
00000270: 4596 5c3c 1c02 53bd 0d7b 593d 528b abbb
00000280: 0ca0 05bd a42d 153c 5fe7 b636 6e4c 71bb
00000290: 50a9 18bd 7784 ed3c 0667 8abc 631f 4dbc
000002a0: deb3 0c3d f9bd 0fbd 1841 0ebc 3322 b0bc
000002b0: 5027 cd3c 4dec d23c 8130 823c d265 8c3c
000002c0: cbe4 fdbc 7642 62bc 8b22 5abc 9109 593c
000002d0: 89ba e13b 5775 96bc 885e 043d e605 ef3b
000002e0: 2df5 0fbc 560e d1bb 647d b03c 6d67 1b3d
000002f0: a8f2 26bd d60f bf3c 7fb1 43bc 7211 2abd
00000300: e3f3 86ba 6c60 c5bc 23a5 ebbc 7c5f 33bd
00000310: 85da 2abd d2b2 3cbd 25d0 a5bc 472b 893c
00000320: cce9 dabc 6e75 a53c 8860 c6bc 4d06 e0bc
00000330: a42f 4fbd aa29 4cbc 6592 a93c afa3 a8bb
00000340: e44b 0f3d 570e 253d 1c28 0e3d 25d8 bc3c
00000350: 3dbb 8b3c ac5f 8e3b 3891 de3c 15e0 273d
00000360: 87d7 fd3c 3d75 143c fcc2 13bd 14a4 6e3c
00000370: de60 1abd dbd6 103d 0d89 a03c 573d 233d
00000380: 4225 043c 783c 9f3b 8dbf 03bc 62e1 d13c
00000390: 8062 6bba 9077 01bd 0feb 82bc 90ae f2bb
000003a0: 8ed0 c7bc 8c8d 003c 0b37 803c 12cc 73bc
000003b0: 5580 243d 87c5 26bd dd51 babc 605c a33a
000003c0: 5e82 f13b 9007 cdbc 3ee3 143d eba3 2e3c
000003d0: 6299 ba3c d0c6 31bd 1e35 b73c 44a8 46bc
000003e0: 1cb1 ff3c c7e4 28bd f23f 113d 5d2a 0e3d
000003f0: e34c 88bb 9d62 733c 3399 053c bc39 4abc
-0.0030802158 -0.02484803 -0.037260804 0.02318463 -0.03570898 0.033124097 -0.021909563 -0.02730261
0.038897417 0.0006287692 0.023127744 0.0061374833 -0.027119732 0.008359313 -0.03263836 0.018715976
-0.034871005 -0.0103618 -0.010311432 0.028291045 -0.025567712 0.033456333 -0.0010272168 0.031178745
-0.01088544 0.04027234 -0.018553386 -0.030172484 0.02784178 -0.030589856 -0.036657 -0.03857059
-0.04935434 0.009126388 -0.0034635318 0.0031159252 -0.02800311 -0.021736989 0.0034558352 -0.03280818
-0.027890325 -0.05980921 -0.0065641613 0.015491055 -0.020266663 -0.010637224 -0.022781672 0.001152426
-0.035734516 -0.040308923 -0.00041301746 -0.032156605 -0.03894794 -0.025382249 0.019652277 0.039179467
-0.023634395 -0.0022243783 -0.0013473079 0.022567775 0.041238174 0.038206592 0.024393056 -0.014058783
-0.0059553143 -0.021099944 -0.005959679 0.00880712 -0.020925563 0.023055393 -0.018565623 0.029559214
-0.028188093 0.0041157356 0.0071213823 -0.015641201 -0.04248783 -0.0042596087 0.004109056 -0.021482635
0.01663149 -0.022801308 -0.024650725 0.019251872 -0.01668028 -0.023051748 -0.0020683669 -0.008630888
-0.005211206 -0.013653966 0.008388749 -0.02822665 -0.02712473 0.034444544 -0.025840575 -0.023120934
-0.029572356 -0.03967478 -0.058675654 -0.01797982 -0.018626072 -0.023309166 0.011021231 0.010432246
-0.006599781 -0.07528729 -0.0007649029 -0.025106106 0.04288713 -0.0011510797 0.011542727 0.014613665
-0.013809414 -0.0056336387 0.031570084 -0.008373554 0.035972446 0.02188131 0.033767115 0.013937858
-0.034143947 0.013685765 -0.033426218 0.024374463 0.018495318 -0.04301901 -0.008507018 -0.038518157
-0.009426693 -0.026886905 -0.021848304 -0.015976245 -0.02793932 0.010515443 0.0005618743 -0.034782644
0.023795381 -0.024471568 -0.024504613 -0.027056227 -0.015247393 -0.050462548 -0.038480744 -0.008881263
-0.049174134 0.004850405 -0.0042846226 -0.050166007 0.062729634 0.0038349826 0.05235409 -0.030495783
0.0029820513 -0.06270553 0.017089892 -0.039665803 0.013463561 -0.051515684 0.053095866 -0.005235114
-0.032623336 0.00910512 5.450958e-06 -0.0036819237 -0.037270844 0.028993828 -0.016894829 -0.01251969
0.034351222 -0.03509328 -0.008682512 -0.021500682 0.02504316 0.025747443 0.01589227 0.017138395
-0.030992886 -0.013809791 -0.0133139 0.01324691 0.006888692 -0.018366499 0.032316715 0.0072944043
-0.008786482 -0.006379883 0.021544166 0.03794043 -0.04075876 0.02332298 -0.011944174 -0.041520543
-0.0010296073 -0.02409383 -0.028765267 -0.043792233 -0.041712303 -0.046068974 -0.020240853 0.016744269
-0.026722811 0.020197596 -0.024215952 -0.027346754 -0.050582543 -0.012461105 0.02069969 -0.0051464657
0.034984484 0.04029688 0.03470622 0.023052284 0.017057056 0.004344901 0.027168855 0.040985186
0.03098656 0.009061155 -0.036074623 0.014565486 -0.037690036 0.035361152 0.0195966 0.03985342
0.008065524 0.0048595034 -0.008041275 0.025620166 -0.0008979216 -0.031608164 -0.015981225 -0.0074060634
-0.024391439 0.007846247 0.015651247 -0.014880197 0.04016145 -0.04071572 -0.022744114 0.0012463443
0.0073702773 -0.02502802 0.036349528 0.010659198 0.022778217 -0.043402493 0.022364195 -0.012125079
0.031212382 -0.041233804 0.035461374 0.03470837 -0.0041595562 0.014855054 0.008154201 -0.0123428665

decoder.2.bias f4 [32]
00000000: 7a3d a93c ecef c3bd 366e b83e 323a 50bd
00000010: 6d79 ee3d 2405 27bd 14a2 b03e b2f5 97bc
00000020: 2366 2e3e 9d0b 7e3e 2866 173e a8cc b93d
00000030: 0b83 853e d065 07bd 0fa4 03be 7dc7 0fbd
00000040: 4fb6 ef3e 77dd b03e 834b 813d dc19 74bc
00000050: dc1b e53d 97e9 58bd b28b b63d b318 10be
00000060: 89dc 013d db45 e2bc c41a 0f3d 4ab0 0dbe
00000070: 9604 a93d adbd dc3d d1c7 cf3d 1c81 873e
0.020659197 -0.09567246 0.36021584 -0.05083675 0.11644254 -0.040776387 0.34498656 -0.018549774
0.1703115 0.24809118 0.14785063 0.09072238 0.2607654 -0.03305608 -0.12855552 -0.035102356
0.46818778 0.34543964 0.06313231 -0.0148987435 0.111869544 -0.052957144 0.089133635 -0.14071922
0.03170446 -0.0276212 0.034937635 -0.1383678 0.08252828 0.10778365 0.10145534 0.2646569

decoder.4.weight f4 [1, 32, 3, 3]
00000000: 92f8 0c3d 2469 4fbc 3558 b4bb d4be 0c3d
00000010: 58b0 6cbd 458e f73a 5c3f 8a3d 3873 88bb
00000020: 6d10 0fbc a9b1 bd3c 11e8 d3bc 46eb a53c
00000030: 610d 41bd dbe5 873d 3b32 dd3c c5b2 713d
00000040: daea 48bd dc1c 213d c77b c9bd 0b75 aa3c
00000050: 37b0 c3bb 6921 913c f5b2 003f 9dee 113e
00000060: 228a 41be 4b34 8fbd 5f4b 9fbd 2a89 cd3c
00000070: 078f 143c 398c 033d df46 55bd ee9e 393c
00000080: 07b7 04bd 4e42 48bd 1bf0 4e3c e6c5 90bd
00000090: d58b 54bd b4e9 303d aec4 b53c f590 a9bd
000000a0: 98ad 883d 81a5 113e b37a e9bc a672 24bd
000000b0: 7f86 3c3d 70aa 573d 0d97 c83c 14e1 12bd
000000c0: e428 3b3c 8726 1fbd 9ff5 bb3c f5a7 37bb
000000d0: 5d4a 48bd 9694 96bc daca 1ebd 458a 7fbb
000000e0: 7146 183d 459f f5bb 54bf c83e b272 813e
000000f0: f3fe 4d3b 1e66 f03d ddf1 9e3d 2eca 683d
00000100: 6aad a03c 49b4 a9bb 6f95 813d 72cf 8bbd
00000110: 6c27 9abd dd27 9a3d 5c88 31bc 83e1 82bc
00000120: 4d12 b8bd 773d ef3b f312 4f3d 661c f2bd
00000130: 8a90 6d3e 845e 1e3e dd88 c3bd 7b84 0f3d
00000140: ce9d 2c3a ae08 db3d a8b9 2f3e 3c20 e33d
00000150: 4de2 973e 9677 f93e 72b8 643e cf29 7c3e
00000160: 4829 e43e 724d 603e 4adb cebc 45d2 7c3b
00000170: 1892 b03d 94ea 6dbd 05df c9bd ad94 ebbc
00000180: 1bb5 d83d 40c9 9f3b adf9 773d 76c1 27bd
00000190: 8ec2 26bd c202 91bc 2b39 65bc 16ef 9bbc
000001a0: 2f95 f0bc bcb2 e33c 2a7b 953d aec8 353d
000001b0: 17fd ed3d 0772 023e 46b8 95bd de95 453e
000001c0: 345c 5f3e dcf0 7c3c cc40 bb3c e403 bf3c
000001d0: 02c1 113c 86ec 023d f317 04bc 016c 803c
000001e0: 53a6 d7bb ef89 eebc 48c2 24bd 6843 f43c
000001f0: 1f42 693c 0196 46bb 0763 51bd 6120 14bd
00000200: c788 e1bc 6a89 93bd 6ce8 28bd 6d3d a8bd
00000210: 2b34 3f3d eca3 0f3a 04b6 473c 1574 3f3d
00000220: f824 f8bc c046 9a3b f89f 273d e05d 29bd
00000230: 24ee 18bd c7f8 e53c 730c 3ebd 79b9 a5bc
00000240: c23b 813d 71ad 8d3e cbe1 0a3e 5721 b73d
00000250: a485 c83e a474 293e 0249 1fbc ef50 1d3d
00000260: 732b f63a 60bf 17bd 6b94 4b3b 3e49 42be
00000270: f8ed ce3d b0a1 f33e bea9 7abd 10a4 d53a
00000280: 49de ec3d cf5c a6bd 7f0d 883d 9bde 823d
00000290: 48ee 32bc ecff 583c 696e f5bb 815c 75bd
000002a0: 3705 133d a2ad 12bd 553d 94bd 0d4c 29bc
000002b0: dd98 64bc b8c8 be3c b32b 1d3d af3b a3bc
000002c0: c7d9 c9bc 77b0 523d cb5c f03c cac1 43bd
000002d0: c9f1 1d3d bbc8 183d 4ea4 17bc c2b8 3b3e
000002e0: 3b11 b93c 942c b6bd ec7a a63d 90b6 e9bc
000002f0: a186 b5bd 76bd 4d3d 37ac 8c3c 47b5 293d
00000300: 6975 0b3d c07d 463d 0903 413d 91ac cabc
00000310: b293 02bd 2162 86bd 6740 133d 9b8b 8bbd
00000320: dd32 8e3d 69cf c03d e0ba c9bd f20c 333c
00000330: 151f 7b3d 0998 52bc ac0f 1abb 165a 33bd
00000340: 51d4 29bc ba4c 8cbc a335 60bd 8775 f3bc
00000350: 785d c9bb 597b febc 4319 73bd a37c 55bc
00000360: cde2 0cbd 75d8 b13c decc 0cbc ca04 45bd
00000370: b857 9a3c cbc0 d7b9 d6e7 6c3d 2212 603d
00000380: 780d 8d3d 2253 c3bc 8b1c ecbc 0f52 733c
00000390: e1d3 07bd df61 823b 06e9 1d3d 216c e7bc
000003a0: 41bf ba3c 70fd 003c 15d2 3a3c a59d acbb
000003b0: cf77 91bd 145e fbbc 73fa ab3c a0d0 ff3b
000003c0: 6e70 803d bc0c a23d cf92 5d3c 3c6d c2bd
000003d0: 5647 0cbd 00e6 c1bd 2b12 02bd 12eb 55bb
000003e0: 4c8c 18bd 3bba 3ebd 83d7 773c 3748 36bc
000003f0: 1405 7e3d b28f 273d 1fc8 023d 716b a33d
0.034416743 -0.012659345 -0.005503679 0.034361675 -0.057785362 0.0018887004 0.06750366 -0.004164126
-0.008731944 0.023156004 -0.025867494 0.020253789 -0.0471319 0.06635638 0.02700149 0.05900838
-0.049052097 0.039334163 -0.09838062 0.020807764 -0.005971934 0.017716127 0.50273067 0.1425118
-0.1890035 -0.06992396 -0.07778048 0.025089819 0.0090673035 0.03211615 -0.05206954 0.011329396
-0.03240111 -0.048891358 0.012630488 -0.07068996 -0.051891167 0.043191627 0.02218851 -0.082796015
0.066737354 0.14223291 -0.02850089 -0.0401484 0.046026703 0.052652776 0.02448609 -0.035859182
0.011423323 -0.038855102 0.02294427 -0.0028023694 -0.048899043 -0.018381398 -0.038767673 -0.0038992327
0.037176553 -0.007495793 0.39208472 0.25282818 0.003143248 0.11738227 0.077609755 0.05683344
0.01961394 -0.0051789624 0.0632733 -0.068266764 -0.075270504 0.075271346 -0.010835733 -0.015976673
-0.089878656 0.0073010284 0.05055518 -0.11821823 0.23199669 0.15465742 -0.09547589 0.035038453
0.0006584794 0.10695015 0.17160666 0.110901326 0.2966484 0.4872405 0.22335985 0.24625324
0.44562745 0.21904543 -0.02525105 0.003857748 0.08621615 -0.05808504 -0.09856991 -0.028757418
0.10581418 0.004876286 0.060540844 -0.040955983 -0.040712886 -0.01770151 -0.013990681 -0.019034903
-0.029368011 0.027795188 0.07298882 0.044380836 0.11620539 0.1273881 -0.07310538 0.19295451
0.21812516 0.015438285 0.022858046 0.023317285 0.008896114 0.031963848 -0.008062351 0.0156765
-0.0065811067 -0.029118506 -0.040224344 0.029817298 0.014236956 -0.0030301812 -0.05111983 -0.03616369
-0.02753104 -0.07203944 -0.04123728 -0.08214841 0.04668061 0.00054794434 0.012189392 0.046741564
-0.030291066 0.004708141 0.040924042 -0.04134929 -0.037336484 0.028072728 -0.04639859 -0.020230042
0.06310226 0.27671388 0.13562696 0.08941906 0.3916446 0.16548401 -0.009721996 0.038407262
0.001878126 -0.037047744 0.0031063806 -0.18973252 0.10103983 0.47584295 -0.061197035 0.0016299505
0.11565835 -0.081231706 0.06643199 0.06390115 -0.0109210685 0.01324461 -0.0074899686 -0.05990267
0.035893645 -0.03581012 -0.07238261 -0.010333073 -0.013952461 0.02328907 0.038371753 -0.01992592
-0.024639977 0.05143782 0.029341122 -0.047792234 0.038560662 0.037300806 -0.009255482 0.18332198
0.022591224 -0.08895221 0.08128914 -0.028529435 -0.08863569 0.050229512 0.017171962 0.041432645
0.034047518 0.04845977 0.047122035 -0.02474049 -0.031879134 -0.06561685 0.03595009 -0.06813737
0.06943295 0.0941456 -0.09850097 0.010928379 0.06130894 -0.012853631 -0.0023507876 -0.043787085
-0.010365562 -0.01712643 -0.054738652 -0.029719127 -0.0061451755 -0.031064676 -0.059350263 -0.013030204
-0.03439598 0.02170966 -0.008593766 -0.04810027 0.018840656 -0.00041151638 0.057838283 0.054704793
0.068873346 -0.023843352 -0.028822204 0.014851107 -0.033161048 0.0039789523 0.038552307 -0.028249802
0.022796275 0.007872924 0.0114026265 -0.005267816 -0.0710293 -0.030684508 0.020993447 0.0078068525
0.06271444 0.07912585 0.013523771 -0.09493491 -0.03424772 -0.09467697 -0.031755608 -0.0032641334
-0.037243173 -0.046564322 0.015127066 -0.011125616 0.06201656 0.040908523 0.03192913 0.07979477
