ML/models/synthnav-model-0.pth (torch, 802559 bytes, 11 tensors)

encoder.0.weight f4 [32, 1, 3, 3]
0	0xbe6ccec5	-0.23125751
1	0x3e9e22d8	0.3088596
2	0xbe8b7dd4	-0.27244437
3	0x3e961cae	0.29318756
4	0x3d817890	0.063218236
5	0xbe9bf9c7	-0.30464002
6	0xbe6b5868	-0.22982943
7	0xbdbecdb1	-0.09316576
8	0x3ea4d38e	0.32192653
9	0x3e415c4e	0.18882868
10	0x3ea718d4	0.3263613
11	0xbe1e7e5c	-0.1547789
12	0x3e993766	0.29925078
13	0xbb2c41c4	-0.0026284317
14	0xbdd5f11f	-0.10446381
15	0xbdda95be	-0.10673092
16	0x3dabe0c7	0.08392482
17	0x3e0724e9	0.13197674
18	0x3e163a96	0.14670786
19	0xbdcdb461	-0.1004417
20	0x3e8e38a8	0.277776
21	0x3e3d7fd8	0.185058
22	0x3e8bfe1d	0.2734231
23	0x3e59a80c	0.21255511
24	0x3dd08964	0.10182455
25	0x3e65c84d	0.2243969
26	0xbe6ecf49	-0.2332126
27	0x3e578014	0.21044952
28	0xbb4c3788	-0.003116103
29	0xbd09a1df	-0.033601638
30	0x3d661d62	0.056180365
31	0xbd225030	-0.039627254
32	0xbe74edd1	-0.23918845
33	0xbe84ebfb	-0.2596129
34	0x3e0facbe	0.1403074
35	0xbebc69b1	-0.36799386
36	0x3de9d478	0.11417478
37	0x3e066161	0.13123085
38	0x3e7bc81c	0.24588054
39	0xbea3707e	-0.31921762
40	0x3e90c174	0.28272593
41	0xbe433612	-0.19063595
42	0xbbcec9d8	-0.0063106827
43	0x3d65c7c0	0.0560987
44	0xbda19218	-0.07889193
45	0x3ba7ed74	0.005124742
46	0xbe5907de	-0.21194407
47	0x3c421ad8	0.01184722
48	0x3e914b6e	0.2837786
49	0xbea56997	-0.3230712
50	0xbe7b7543	-0.2455645
51	0xbe385888	-0.18002522
52	0x3e940226	0.2890789
53	0x3d8f539c	0.06998369
54	0x3e8535e9	0.26017693
55	0x3d2e0fdf	0.042495605
56	0x3d624493	0.05524118
57	0xbe336143	-0.17517571
58	0xbbe4badd	-0.0069802837
59	0xbd23f41c	-0.040027723
60	0xbe9af8b7	-0.3026788
61	0x3e9479bf	0.28999135
62	0x3d6365d8	0.055517048
63	0xbea6a912	-0.32550865
64	0x3e6206a2	0.22072843
65	0xbe5f967b	-0.21834747
66	0xbd597393	-0.053088736
67	0x3da682ac	0.081303924
68	0xbe71e325	-0.23621805
69	0x3e79f56a	0.24410024
70	0xbe8a1395	-0.26968065
71	0x3e0bc54b	0.1364948
72	0xbe1d433e	-0.15357682
73	0x3e1c693a	0.15274516
74	0xbabd3dc5	-0.0014437964
75	0xbe9ff80c	-0.31243932
76	0x3cdf0d64	0.027228065
77	0xbe817c70	-0.2529025
78	0xbe7480c0	-0.23877239
79	0x3e74993c	0.2388658
80	0xbe5ed846	-0.2176219
81	0x3e38d150	0.18048596
82	0xbe8828f3	-0.26593742
83	0xbd9d5cad	-0.07683692
84	0xbda0a388	-0.07843691
85	0xbe88ae9f	-0.26695725
86	0x3e87a463	0.26492605
87	0x3e283b91	0.16428973
88	0x3dfb5a51	0.12273086
89	0x3c63f6b0	0.013913795
90	0xbdce4d26	-0.10073309
91	0x3df492f5	0.11942092
92	0x3e723f68	0.23657
93	0x3c98e9b4	0.018666126
94	0x3c83055a	0.015993763
95	0xbcb6dc00	-0.022321701
96	0x3ea38276	0.3193547
97	0xbea624f8	-0.3245008
98	0xbc276a31	-0.010218189
99	0xbdb21248	-0.08694893
100	0x3e423f98	0.18969572
101	0xbea0790f	-0.3134236
102	0xbe2663a0	-0.16248941
103	0xbe4bd100	-0.19903946
104	0x3e83510c	0.2564777
105	0x3e6be73b	0.23037426
106	0x3e25cd0b	0.16191499
107	0xbe938952	-0.28815705
108	0x3e401cb8	0.18760955
109	0x3e7bc112	0.24585369
110	0x3e532595	0.20619805
111	0xbe1c5a2b	-0.15268771
112	0xbd9723fb	-0.073799096
113	0x3e9bfe71	0.3046756
114	0xbe624d21	-0.22099735
115	0xbdd40991	-0.10353387
116	0x3e964a49	0.2935355
117	0x3ea36964	0.31916344
118	0xbea7b87d	-0.3275794
119	0xbe17ab9d	-0.14811559
120	0x3d316a4a	0.043314256
121	0x3e996d6f	0.29966304
122	0xbe9ea38a	-0.30984145
123	0xbe26a24f	-0.16272853
124	0x3df3b4f9	0.11899752
125	0xbe5a0204	-0.21289831
126	0x3e607aea	0.21921888
127	0x3e87829b	0.26466832
128	0x3e4f58b0	0.20248675
129	0xbe40c1ef	-0.1882398
130	0xbe5350c2	-0.20636275
131	0xbd6d7464	-0.057972327
132	0xbbd64100	-0.0065385103
133	0xbdae4740	-0.085096836
134	0xbe6a5b76	-0.22886452
135	0xbd6d1406	-0.057880424
136	0xbe88cd11	-0.26718953
137	0xbe854045	-0.26025596
138	0x3d69bd8e	0.05706554
139	0x3d436248	0.04770115
140	0xbe2298a5	-0.15878542
141	0x3cb8bfc7	0.022552384
142	0xbe87da84	-0.26533902
143	0x3ea03599	0.31290892
144	0xbd2e6579	-0.04257724
145	0x3da177d0	0.078841805
146	0xbd2355c8	-0.03987673
147	0xbd49d82b	-0.04927842
148	0xbdf1caee	-0.11806284
149	0xbce560f3	-0.02800033
150	0x3da0bdcd	0.078487016
151	0xbdb11726	-0.08646993
152	0x3e6d71a7	0.23187886
153	0x3e621105	0.22076805
154	0x3e516fa9	0.20452751
155	0x3e761f48	0.2403537
156	0x3dfcb9d2	0.1234013
157	0xbdc483ef	-0.09595477
158	0x3e64ffb4	0.22363168
159	0x3e2b8be4	0.16752583
160	0xbe70855b	-0.23488371
161	0x3e24693d	0.1605577
162	0xbe87f648	-0.26555085
163	0x3dffb3d5	0.12485472
164	0xbe8b410e	-0.2719807
165	0x3da5e047	0.08099418
166	0xbd56c021	-0.052429322
167	0x3e05de7c	0.13073152
168	0xbe7210fe	-0.23639295
169	0xbdb7afe4	-0.08969095
170	0x3e734a2c	0.23758763
171	0xbe12e65e	-0.1434569
172	0x3e7b4b5f	0.2454047
173	0xbdbbbc81	-0.09166814
174	0xbda4b630	-0.08042562
175	0x3d76f167	0.060288813
176	0xbe0c9a18	-0.13730657
177	0xbe1fdf8a	-0.15612617
178	0x3d483675	0.04888006
179	0xbe2d49ca	-0.1692268
180	0xbdf1218b	-0.11773976
181	0xbdb73fbc	-0.08947703
182	0x3e52a2cc	0.20569915
183	0x3e5a4a5c	0.21317428
184	0x3e8f6691	0.2800794
185	0x3e457121	0.19281437
186	0xbe5bdc4d	-0.21470757
187	0x3d897b01	0.06712914
188	0xbd4a3c68	-0.049374014
189	0x3eadf284	0.33974087
190	0xbd3d2322	-0.046176083
191	0x3e69b004	0.22821051
192	0x3da451ed	0.080234386
193	0x3e525eb8	0.20543945
194	0x3e09fcb5	0.13475306
195	0xbddd129a	-0.107945636
196	0x3ea329ef	0.3186793
197	0x3d8b3082	0.067963615
198	0x3dd4b803	0.1038666
199	0x3e878fa2	0.2647677
200	0x3e982e62	0.29722887
201	0x3e99c33a	0.3003176
202	0x3e1bab4d	0.15202065
203	0xbe555b47	-0.20835601
204	0xbcf82ab3	-0.030293798
205	0xbe96115b	-0.29310116
206	0xbe9aa3cf	-0.302031
207	0x3d44c76c	0.048041746
208	0xbd4cf527	-0.050038483
209	0xbe26c58e	-0.16286299
210	0x3cb37f08	0.02191116
211	0xbe31b62c	-0.1735465
212	0xbc31ba02	-0.01084757
213	0x3ea58222	0.32325846
214	0xbe4d1884	-0.20028883
215	0xbe688f1c	-0.22710842
216	0xbe3af3b8	-0.18257034
217	0x3e6dc347	0.23219024
218	0x3e9cb9e4	0.30610573
219	0xbd9db884	-0.07701209
220	0xbea8c675	-0.3296391
221	0xbe45c943	-0.19315057
222	0x3e1edebe	0.15514657
223	0x3d4d1cbb	0.050076228
224	0xbe453031	-0.19256665
225	0x3e691404	0.22761542
226	0x3d86d3e7	0.06583386
227	0xbd269402	-0.040668495
228	0x3e23b080	0.15985298
229	0x3e9f2715	0.31084505
230	0x3c3c835d	0.011505929
231	0x3ea6346e	0.32461876
232	0x3e505285	0.20343979
233	0x3e08b0a2	0.1334863
234	0xbe358622	-0.17726949
235	0x3e82af5e	0.2552442
236	0x3ea27222	0.317277
237	0x3e878529	0.2646878
238	0xbe741c31	-0.23838879
239	0x3ea24dcd	0.31699982
240	0x3e04889d	0.12942739
241	0xbcd3d6b9	-0.025859224
242	0x3e9d33fc	0.30703723
243	0xbc77cf65	-0.01512513
244	0x3d63970f	0.055563983
245	0x3db6d40b	0.08927163
246	0x3e807f79	0.25097254
247	0xbdd9ad4e	-0.10628758
248	0xbc884215	-0.016633073
249	0x3e8b4306	0.27199572
250	0xbb5a3de0	-0.003330104
251	0xbea8992e	-0.32929367
252	0x3de47909	0.11155898
253	0x3dc58d54	0.09646097
254	0x3dd3b4d5	0.10337225
255	0x3e282e43	0.16423897

encoder.0.bias f4 [32]
0	0xbd141647	-0.036154058
1	0xbea216f7	-0.31658146
2	0xbe009dfa	-0.12560263
3	0x3ef026dc	0.46904647
4	0xbe4c8caf	-0.19975542
5	0xbe812820	-0.25225925
6	0xbd0975d0	-0.03355962
7	0x3d6c7a96	0.057734095
8	0xbe8b2f97	-0.27184746
9	0x3dc43cd6	0.09581916
10	0xbc96fdd2	-0.018431578
11	0xbe97c46f	-0.29642054
12	0x3e5c5826	0.21518001
13	0xbe80f0ee	-0.25183815
14	0xbd76ae51	-0.060224835
15	0x3e6e0f95	0.23248132
16	0x3ea60251	0.32423642
17	0xbe723855	-0.23654301
18	0x3c2ee2a3	0.010674152
19	0x3eaf31f8	0.3421781
20	0x3e11005d	0.14160295
21	0xbe69024a	-0.2275478
22	0xbdc1712c	-0.09445414
23	0x3c318ae9	0.010836341
24	0x3c8fa6d4	0.017535605
25	0xbe853536	-0.2601716
26	0xbe6eb633	-0.23311691
27	0xbe5ef843	-0.21774392
28	0x3e8161ae	0.25269836
29	0x3beba255	0.0071909823
30	0xbd9ece7c	-0.077542275
31	0xbe52ca86	-0.20585069

encoder.2.weight f4 [64, 32, 3, 3]
0	0xbd6904e5	-0.056889433
1	0xbcecd84b	-0.02891173
2	0xbcd781b8	-0.026306972
3	0x3cd8ffbe	0.026489135
4	0xb98151d2	-0.00024665758
5	0x3d3e84c0	0.04651332
6	0xbc89257f	-0.016741512
7	0x3b9e6008	0.004833225
8	0x3c93edcb	0.018057724
9	0x3d3577c4	0.04430367
10	0xbcf36270	-0.029710025
11	0xbc2d1df1	-0.010566221
12	0xbbdfd2cb	-0.0068305484
13	0x3d68f27a	0.05687187
14	0xbd1c27d5	-0.038123924
15	0xbd5b42d1	-0.053530518
16	0xbd0b10df	-0.033951636
17	0x3c8468f8	0.016163334
18	0xbc3a1891	-0.011358396
19	0x3b6eede3	0.003645771
20	0xba110dcc	-0.0005533367
21	0xbd33bdee	-0.043882303
22	0x3d85b6b9	0.06528992
23	0x3d63ffc2	0.05566383
24	0xbc98512b	-0.018593391
25	0x3c9ac4d1	0.018892678
26	0xbd0f8527	-0.035039093
27	0xbc27a8d5	-0.010233124
28	0xbb1fbba3	-0.0024373315
29	0xbce97ee1	-0.028502883
30	0x3d115848	0.035484582
31	0x3c2c0ae7	0.010500646
32	0x3d42d856	0.047569595
33	0x3d54f486	0.05199101
34	0x3bbf78d9	0.0058432636
35	0x3c9c453f	0.019075988
36	0x3be8ad74	0.0071007553
37	0xbd00960a	-0.03139309
38	0x3b8f53ac	0.004373988
39	0x3d08fa2f	0.03344172
40	0x3d051991	0.032495085
41	0xbd50f731	-0.05101699
42	0xbba1a46e	-0.0049329316
43	0x3d55b7f4	0.052177384
44	0xbbd12f17	-0.0063837874
45	0x3bc6cfdb	0.006067259
46	0xbd502983	-0.05082084
47	0xbd5caf97	-0.053878393
48	0xbd27609c	-0.04086362
49	0x3c304cf4	0.010760535
50	0xbd067eb7	-0.03283569
51	0x3d32cc8a	0.043652095
52	0x3cc86ce5	0.024465987
53	0xbd5dce19	-0.05415163
54	0x3ce4487d	0.027866596
55	0x3d555b3b	0.052088957
56	0x3d458892	0.048225947
57	0x3d6543ea	0.05597297
58	0xbc88113c	-0.01660978
59	0xbbb84f6b	-0.0056247017
60	0x3d6c5633	0.057699393
61	0x3cf1646a	0.029466826
62	0xbd107dc2	-0.035276182
63	0xbd484230	-0.048891246
64	0xbccfd56e	-0.025370326
65	0x3c77ccec	0.015124541
66	0x3d1aedee	0.037824564
67	0xbd152257	-0.036409702
68	0x3d40f5a3	0.047109257
69	0xbb970801	-0.0046091084
70	0xbd1e887e	-0.038704388
71	0xbc99157c	-0.018687002
72	0xbcf109e0	-0.029423654
73	0xbac9865b	-0.0015375124
74	0xbd3b58aa	-0.045738854
75	0xbcb4df12	-0.022079024
76	0xbd238c83	-0.039928924
77	0xbd23cc2c	-0.039989635
78	0x3c09b08b	0.0084039075
79	0xbc5103dd	-0.012757269
80	0x3d1aec14	0.037822798
81	0xbcd0d640	-0.025492787
82	0x3ccba1bf	0.0248574
83	0xbd1a3d78	-0.037656277
84	0xbc202cf6	-0.0097763445
85	0xbb305001	-0.0026903155
86	0xbd29bec0	-0.04144168
87	0x3be46a58	0.006970685
88	0x3d646fe3	0.055770766
89	0xbc17e6ce	-0.009271337
90	0x3d077124	0.033066884
91	0xbcf4770c	-0.029841922
92	0xbc2e0d95	-0.010623355
93	0x3d50046d	0.05078547
94	0x3d288263	0.04113997
95	0x3d334c22	0.043773778
96	0x3d57f971	0.05272812
97	0x3d5e8aef	0.054331716
98	0x3d686687	0.056738403
99	0xbcbd19d4	-0.023083605
100	0x3cf19c9f	0.029493628
101	0xbcc02fdd	-0.023460323
102	0xbc824d68	-0.01590605
103	0xbd140380	-0.03613615
104	0x3bf4b58a	0.00746793
105	0xbb901cdc	-0.0043979716
106	0x3d36b607	0.04460719
107	0xbc8ea465	-0.017412374
108	0xbbeda96d	-0.007252863
109	0xb9d24067	-0.00040102305
110	0x3d5a6da9	0.053327236
111	0x3d4fbccc	0.05071716
112	0x3ca519cb	0.0201539
113	0xbd4c668e	-0.04990249
114	0xbc8803dd	-0.016603405
115	0x3d1e606b	0.03866617
116	0x3cd41697	0.025889678
117	0x3d4795a7	0.048726704
118	0x3b297ad8	0.0025860574
119	0x3c61fc55	0.013793071
120	0x3d116a54	0.035501793
121	0x3d42f3d2	0.047595806
122	0xbb493844	-0.0030703703
123	0xbc795176	-0.015217176
124	0x3d54c152	0.051942177
125	0xbca55d8f	-0.020186214
126	0xbd0cb06a	-0.03434793
127	0x3d04a740	0.032386065
128	0x3d1ef905	0.038811702
129	0x3c842e9e	0.01613551
130	0x3cdf0c12	0.027227435
131	0x3c0af38a	0.008480916
132	0xbd29af2d	-0.041426826
133	0x3d3b4af1	0.045725767
134	0x3be5af40	0.007009417
135	0xbcb1b2a0	-0.02169162
136	0x3d1ef6ab	0.03880946
137	0xbd02bbbf	-0.03191733
138	0xbd307a51	-0.0430854
139	0x3d046cf5	0.032330472
140	0xbd57f8ee	-0.052727632
141	0xbd5010f6	-0.050797425
142	0x3cf56ee1	0.029960098
143	0xbd2f92b6	-0.042864524
144	0xbc085f58	-0.008323513
145	0x3d64dbe3	0.055873763
146	0xbd26d32c	-0.040728733
147	0x3d3da9c9	0.046304498
148	0x3b2ea4ce	0.0026648524
149	0x3c68b4d5	0.01420327
150	0x3ce90e1d	0.028449113
151	0x3d06e474	0.032932714
152	0x3ce6d1b2	0.028176162
153	0xbd05f408	-0.03270343
154	0xbc885b71	-0.016645165
155	0xb9fe4cc3	-0.00048503847
156	0xbd02610b	-0.03183083
157	0x3c93efe8	0.018058732
158	0xbbc57ac1	-0.0060265963
159	0xbc855862	-0.016277496
160	0xbc69a000	-0.014259338
161	0x3cec10d6	0.028816622
162	0x3be0082e	0.0068369126
163	0xbd534991	-0.05158383
164	0x3c943acf	0.018094448
165	0x3d356a1f	0.044290658
166	0xbcd22a76	-0.025655013
167	0xbce4f697	-0.027949614
168	0x3b648e10	0.0034874715
169	0x3c4f2756	0.012643656
170	0x3c58a582	0.013223054
171	0xbc9268e1	-0.017872276
172	0x3bcae9ad	0.006192407
173	0x3d20514e	0.03914004
174	0xbc922465	-0.01783962
175	0x3d229efd	0.039702404
176	0xbac8e12f	-0.0015325899
177	0xbd635b2a	-0.055506863
178	0x3cabf1a5	0.020989249
179	0x3c95af54	0.01827208
180	0xbc5c672e	-0.013452334
181	0x3d290cba	0.041271903
182	0x3cdd6e1a	0.02703004
183	0xbc9c4499	-0.019075679
184	0xbc910ffc	-0.017707817
185	0xbd3baee9	-0.045821104
186	0x3c7ce7eb	0.015436153
187	0x3c186d9a	0.009303475
188	0x3d0cb90c	0.034356162
189	0x3d50c09e	0.050964944
190	0x3d0ca25d	0.03433453
191	0xbd29f371	-0.04149193
192	0xba61c0b9	-0.0008611787
193	0x3d301430	0.042988002
194	0xbc264d32	-0.010150241
195	0x3cdc5f5d	0.026900942
196	0x3d06ce9b	0.032911878
197	0xbd3fa30a	-0.046786346
198	0x3c52193c	0.012823399
199	0x3a691542	0.0008891412
200	0x3cb5f2b5	0.022210458
201	0x3d05fab4	0.032709792
202	0x3c99a9ce	0.018757727
203	0x3cb15a38	0.021649465
204	0xbb8814c9	-0.0041528684
205	0x3bfb4603	0.007668258
206	0xbab66a95	-0.0013917262
207	0x38f09ac4	0.00011472919
208	0xbd5fa4eb	-0.054600637
209	0xbcf1c35d	-0.029512102
210	0x3cc477b5	0.023982862
211	0x3d3a7b9a	0.045528032
212	0xbd018cbb	-0.03162835
213	0xbcf797c0	-0.030223727
214	0x3d5099fd	0.050928105
215	0xbd6fdf41	-0.05856252
216	0xbce4f3dd	-0.027948314
217	0x3d20cd9e	0.03925859
218	0xbb9c5403	-0.004770757
219	0xbd3d8ad6	-0.046274982
220	0xbca5b8b6	-0.020229679
221	0x3a49a723	0.0007692447
222	0x3ce4cafc	0.027928822
223	0x3b780673	0.003784564
224	0xbb9e88b3	-0.004838073
225	0x3d01a2cb	0.031649392
226	0xbce6fb23	-0.028195923
227	0x3be822b5	0.0070842155
228	0xbd1b6a59	-0.037943218
229	0xbcefafec	-0.02925869
230	0x3b01763e	0.0019754316
231	0x3d620627	0.05518165
232	0x3d28dd9e	0.041226976
233	0x3c62ce34	0.013843108
234	0x3d012de7	0.031537917
235	0xbd1b9f05	-0.03799345
236	0x3d0595f7	0.03261372
237	0xbced9be7	-0.029005004
238	0xbc642735	-0.013925363
239	0x3d5daeaa	0.05412165
240	0x3d3b6862	0.045753844
241	0x3beb9687	0.007189575
242	0xbc4fd137	-0.012684158
243	0x3d6215dd	0.05519663
244	0xbccab062	-0.024742309
245	0xbbe4c79b	-0.0069818026
246	0x3d4edd7f	0.050504204
247	0xbc8e762e	-0.017390337
248	0xbcef6261	-0.029221715
249	0x3d0ef252	0.034899063
250	0xbd25f81a	-0.04051981
251	0x3cb71f53	0.022353804
252	0x3cf5c039	0.029998885
253	0xb92b2513	-0.00016321642
254	0x3d661f94	0.05618246
255	0x3d45d399	0.0482975

encoder.2.bias f4 [64]
0	0xbd3e1798	-0.04640922
1	0x3bd1eb58	0.006406229
2	0xbd0fba08	-0.035089523
3	0x3d2f7c59	0.042843197
4	0xbd8b2ab1	-0.06795252
5	0x3c9c646e	0.019090857
6	0x3cc683f9	0.024232851
7	0x3d070119	0.03296003
8	0xbbd6ec62	-0.0065589407
9	0x3cafd982	0.02146602
10	0x3dd65672	0.10465707
11	0xbc7d16e3	-0.015447351
12	0xbc6c59fb	-0.01442575
13	0xbc7c6a53	-0.015406209
14	0x3d52c19b	0.051454168
15	0x3daf45ec	0.085582584
16	0x3d31afa5	0.0433804
17	0xbbb698ec	-0.005572429
18	0x3e0aea1b	0.13565867
19	0x3bcb92ca	0.006212567
20	0xb96dd33e	-0.00022680775
21	0x3c62b041	0.0138359675
22	0xbd2d14e7	-0.042256262
23	0xbd1d9a5c	-0.038477287
24	0x3d3244a9	0.04352251
25	0xbd93281b	-0.07185384
26	0xbd33c383	-0.043887626
27	0xbd1f3c9e	-0.03887617
28	0xbd180f55	-0.037123997
29	0x3d52567c	0.05135201
30	0x3b29ec16	0.0025928072
31	0xbbf6cc9b	-0.007531715
32	0xbd29d51b	-0.041463
33	0x3c3122c0	0.010811508
34	0xbc322531	-0.010873125
35	0xbbc6021b	-0.0060427315
36	0x3ba8688d	0.0051394165
37	0xbd838507	-0.06421857
38	0x3d2b0c7f	0.041759964
39	0xbd4b6b73	-0.04966302
40	0x3db8f90a	0.090318754
41	0x3dc3f55a	0.095682815
42	0xbcf2cfde	-0.029640134
43	0xbce9cf72	-0.0285413
44	0xbdee809c	-0.11645624
45	0xbd0cc995	-0.03437193
46	0xbd596f66	-0.053084753
47	0x3d0779e1	0.033075217
48	0xbd58ca43	-0.052927267
49	0xbcd9ff51	-0.026611002
50	0x3cc1e20f	0.023667363
51	0x3d6172e0	0.055041194
52	0x3cd459f8	0.025921807
53	0x3d4924f5	0.04910751
54	0xbd0ddd8c	-0.03463511
55	0x3c047385	0.008084183
56	0xbc53e022	-0.012931855
57	0xbbe8f645	-0.0071094357
58	0x3d315c8a	0.043301143
59	0x3d279f5b	0.040923458
60	0xbce01864	-0.02735538
61	0x3d793036	0.060836993
62	0xbc7dbc08	-0.015486725
63	0x39bf7066	0.00036514102

encoder.5.weight f4 [128, 64, 3, 3]
0	0xbd032eae	-0.03202694
1	0xbc20e086	-0.009819156
2	0xbd13a46b	-0.036045473
3	0x3d0a3be9	0.03374854
4	0xbcf77594	-0.030207433
5	0x3cc8c110	0.024506122
6	0xbcbb48ce	-0.022861864
7	0xbc51f957	-0.012815795
8	0x3c78ea73	0.015192616
9	0xbca6d826	-0.02036674
10	0xbd20386a	-0.0391163
11	0xbc553184	-0.013012294
12	0x3cd3b891	0.025844844
13	0xbd1d523b	-0.0384085
14	0x3c0ea6d6	0.008706769
15	0xbc4420a1	-0.01197067
16	0xbd267a99	-0.040644262
17	0x3ca3a882	0.019977812
18	0xba7a1395	-0.0009539661
19	0xbcb0b460	-0.021570385
20	0x3d131c90	0.03591591
21	0xbd1a13d3	-0.037616562
22	0xbc3f4ab6	-0.011675527
23	0x3caa5361	0.020791711
24	0xbb3947cd	-0.0028271556
25	0x3d04e490	0.032444537
26	0xbd0bef90	-0.03416401
27	0xbc16aafb	-0.009196038
28	0xbc3ee546	-0.011651343
29	0xbc7c36aa	-0.015393892
30	0x3d07d8b6	0.033165656
31	0x3c9b063c	0.018923871
32	0xbc86d6cf	-0.01645985
33	0x3bf9979e	0.007616951
34	0xbc18922a	-0.009312192
35	0x3b6de1d6	0.0036297939
36	0x3d251950	0.040307343
37	0x3cdb326f	0.026757447
38	0x3d05320d	0.032518435
39	0x395ecf74	0.00021248852
40	0xbc0a678c	-0.008447539
41	0xbc82fb5a	-0.015988994
42	0x3cd4299f	0.025898753
43	0xba1bf595	-0.00059493753
44	0xbcc2b509	-0.023767965
45	0xbc449556	-0.011998495
46	0xbd1d24f9	-0.038365338
47	0x3cc04e8b	0.023474952
48	0xbbf51390	-0.0074791387
49	0x3c088e1e	0.008334665
50	0xbc02c11b	-0.00798061
51	0x3c598758	0.013276897
52	0x3d26cd32	0.040723033
53	0x3caf5e10	0.021407157
54	0x3aa2bc31	0.0012415705
55	0x3d157da0	0.03649676
56	0xbd0d97e2	-0.034568675
57	0xbd056f49	-0.032576833
58	0xbd126439	-0.03574011
59	0x3bd76241	0.006572992
60	0xbc24a41d	-0.010048893
61	0xbb2bb921	-0.0026202875
62	0x3d07fa8f	0.033197936
63	0xbca9447a	-0.020662535
64	0x3cabe1af	0.020981638
65	0xbce79309	-0.028268354
66	0x3c80a341	0.015702846
67	0xbcd67287	-0.026177658
68	0x3d125cff	0.03573322
69	0xbce998e9	-0.028515296
70	0x3b0c1c07	0.002137901
71	0x3d1bb68a	0.03801588
72	0x3d144f3b	0.036208373
73	0x3c605acf	0.013693525
74	0xbc9db531	-0.019251438
75	0xbc177f0a	-0.009246597
76	0xbd223362	-0.039599784
77	0xbcad290d	-0.021137739
78	0x3ca1a6bf	0.019732831
79	0x3ce46d04	0.027884014
80	0x3cefda16	0.029278796
81	0x3ce325d0	0.027727991
82	0xbc567070	-0.013088331
83	0xbd177a0e	-0.036981635
84	0xbc61ad9f	-0.013774305
85	0x3d0aa792	0.033851214
86	0x3ca33b7c	0.019925825
87	0x3b5c3517	0.003360098
88	0x3d12b579	0.035817597
89	0xbcb79ce3	-0.022413677
90	0xbcc25df2	-0.023726437
91	0xbbde76c4	-0.0067890603
92	0xbcee6b99	-0.029104041
93	0x3d0a55fe	0.033773415
94	0xbc291885	-0.010320787
95	0xbc57a222	-0.013161214
96	0x3d0d8dc5	0.03455903
97	0x3c2ce10d	0.010551703
98	0x3a44a76d	0.0007501755
99	0x3bd69a63	0.006549166
100	0x3c53d9c2	0.0129303355
101	0x3d146bb5	0.03623553
102	0xbbe86c45	-0.007092985
103	0x3cd910fe	0.02649736
104	0x3c99eaf9	0.018788802
105	0xbd054822	-0.032539494
106	0xbd29c90c	-0.0414515
107	0x3d244010	0.040100157
108	0xbb9646f7	-0.0045860964
109	0xbce51ceb	-0.02796789
110	0xbcd02b30	-0.025411218
111	0xbd017497	-0.03160533
112	0xbc1a954a	-0.009435007
113	0xbd19f621	-0.037588242
114	0xbd0a2fcb	-0.033736985
115	0x3cedbfa2	0.029022042
116	0xbcda7de3	-0.026671356
117	0x3cae0c8f	0.021246223
118	0xbcae1821	-0.02125174
119	0xbc39b5d2	-0.011334853
120	0xbb9269f3	-0.0044681965
121	0xbc1697f1	-0.009191499
122	0x3cc0857b	0.023501148
123	0xbd20ecdd	-0.03928839
124	0xbb99ef79	-0.004697737
125	0xbc9d324d	-0.019189024
126	0xbad07250	-0.0015903208
127	0xbd14c4ad	-0.036320377
128	0xb99ac6ab	-0.00029521188
129	0xbac18f2e	-0.0014767402
130	0xbc71128c	-0.014713895
131	0xbc36b9b4	-0.0111526735
132	0x3b7cc3ae	0.0038568783
133	0xbcd49b3e	-0.025952931
134	0x3b6c103d	0.003602042
135	0xbcd43071	-0.025902005
136	0xbd19b8be	-0.0375297
137	0x3ccfbd3a	0.025358785
138	0xbbd22e01	-0.0064141755
139	0xbd0ae51c	-0.033909902
140	0x3cce7a10	0.025204688
141	0x3bc2b5d8	0.0059420876
142	0xbd22060e	-0.039556555
143	0x3cd838dc	0.0263943
144	0xbd094153	-0.033509564
145	0x3cafd36c	0.021463118
146	0xbd150328	-0.036379963
147	0x3c4e8f36	0.012607386
148	0xbc978ac2	-0.018498782
149	0x3d062ee0	0.032759547
150	0xbc88c223	-0.016694134
151	0x3bdae5b8	0.0066802166
152	0x3ccb8a4c	0.024846219
153	0x3cd4ea6a	0.025990684
154	0xbc9974c3	-0.018732434
155	0xbcf3f582	-0.029780153
156	0xbc96dace	-0.018414881
157	0x3ba6a4ef	0.0050855796
158	0xbb6b8e6f	-0.0035943051
159	0xbc92517a	-0.017861117
160	0xbc8a62b0	-0.016892761
161	0xbc8695a4	-0.016428776
162	0x3cca7276	0.024712782
163	0x3c8f891f	0.01752144
164	0x3cf3abc8	0.029744998
165	0xbcc4a8a7	-0.024006201
166	0x3cb1e0de	0.02171367
167	0x3c07db5a	0.008292044
168	0x3ce94834	0.028476812
169	0x3d01dff6	0.031707726
170	0xbcd27865	-0.025692174
171	0xbd146989	-0.03623346
172	0xbc88b16d	-0.016686166
173	0x3c5e012d	0.013550085
174	0xbb85e1ab	-0.0040857396
175	0xbd03dd13	-0.032193255
176	0xbd04da13	-0.032434534
177	0x3c694e7b	0.014239903
178	0x3d04d466	0.03242912
179	0x3c633302	0.013867142
180	0x3d21d37c	0.039508328
181	0x3c9f36dd	0.01943534
182	0x3c89de34	0.016829588
183	0x3b7babe8	0.0038402025
184	0xbd110996	-0.035409532
185	0x3d02a38b	0.031894248
186	0x3cbcaeb5	0.023032526
187	0x3d28456f	0.041081842
188	0xbc044952	-0.008074122
189	0x3d17a971	0.037026826
190	0xbce7115f	-0.028206525
191	0x3ae2ef73	0.0017313793
192	0xbc1ef0b0	-0.009700939
193	0xbcbb8edb	-0.022895267
194	0xbcbc0743	-0.022952681
195	0xbd29cdba	-0.04145596
196	0xbb65272b	-0.0034965973
197	0xbca23a32	-0.01980314
198	0xbcb334e8	-0.021875814
199	0xbc8296d3	-0.01594106
200	0xbd1be9bd	-0.038064707
201	0xbd26ade8	-0.040693194
202	0x3bf3c3b6	0.007439102
203	0x3cf98979	0.03046106
204	0x3c7ef937	0.015562347
205	0xbd2849be	-0.04108595
206	0x3cfa0760	0.030521095
207	0x3d10d037	0.03535482
208	0x3d275e49	0.0408614
209	0xbb37876e	-0.0028004306
210	0x3cfeb71c	0.031093173
211	0x3c58f8a2	0.013242872
212	0xbcb51c8a	-0.022108335
213	0xbd23bed0	-0.039976895
214	0x3d1356e2	0.03597153
215	0xbbcd7327	-0.0062698307
216	0xbc10ed54	-0.008845646
217	0xbb009c00	-0.0019624233
218	0xbce68085	-0.028137455
219	0xbd2b26e4	-0.041785136
220	0xbd20893c	-0.039193377
221	0x3c4eb4e0	0.012616366
222	0xbcd54428	-0.026033476
223	0xbc895d1c	-0.01676803
224	0xbaea80ec	-0.0017891205
225	0x3c74157f	0.014897703
226	0x3d15d4f8	0.036580056
227	0xbc782094	-0.015144486
228	0x3c3d0555	0.011536916
229	0xbcafc1ec	-0.021454774
230	0xbc2993d3	-0.010350185
231	0x3cf10680	0.029422045
232	0x3c0b112b	0.00848798
233	0xbc1b79a9	-0.009489455
234	0x3a8c32d4	0.00106963
235	0x3c2bb1f2	0.010479437
236	0x3d249bcc	0.040187642
237	0xbb1121fe	-0.0022145505
238	0x3d0c0432	0.03418369
239	0x3c6510e7	0.013981081
240	0x3d12faa6	0.03588357
241	0xbaccb336	-0.0015617374
242	0xbc53f6c9	-0.012937256
243	0x3b5ee482	0.0034010713
244	0x3c313c13	0.0108175455
245	0x3c5f5b0e	0.013632549
246	0xba33fc3e	-0.0006865895
247	0xbc348aa9	-0.011019387
248	0xbbc6c904	-0.0060664434
249	0x3ce36a26	0.027760576
250	0xbbc543cc	-0.006020045
251	0xbca25ad5	-0.019818703
252	0xbb847d10	-0.004043229
253	0x3b29c5aa	0.002590517
254	0x3d06ffb1	0.03295869
255	0xbbfa1f83	-0.007633151

encoder.5.bias f4 [128]
0	0xbc06370f	-0.008191838
1	0x3d13171a	0.035910703
2	0x3d105f87	0.035247352
3	0xbcbe45fa	-0.023226727
4	0x3c18a05c	0.009315576
5	0x3c5afb56	0.013365587
6	0x3cfc407b	0.030792465
7	0xbcb8aca6	-0.022543263
8	0x3c0e0d11	0.008670107
9	0x3bb8b6b5	0.0056370148
10	0xbb91dee4	-0.0044516195
11	0x3d28c9c0	0.04120803
12	0x3cb319c3	0.02186287
13	0xbc0b8207	-0.008514888
14	0x3c911d52	0.017714176
15	0xbcd8e8ae	-0.026478138
16	0x3c88bee6	0.01669259
17	0xbd0b9856	-0.034080826
18	0x3d520edc	0.051283702
19	0x3cb8012a	0.022461493
20	0x3cb73ef0	0.022368878
21	0xbd1b7ddb	-0.037961822
22	0x3c21093a	0.00982886
23	0xbcdeb815	-0.027187387
24	0x3cc9fa2d	0.024655426
25	0x3bcf2af6	0.00632226
26	0xbcb50b5f	-0.022100149
27	0xbb4f19a1	-0.003160097
28	0x3c326ffe	0.010890959
29	0x3c166383	0.009178999
30	0xbd059d8f	-0.032620963
31	0x3d26f65d	0.040762294
32	0x3c5d9ab9	0.013525658
33	0xbd2027b7	-0.039100375
34	0x3cb738a5	0.022365877
35	0xbbf8a251	-0.007587709
36	0x3c8f677f	0.017505405
37	0xbcf8f7c0	-0.030391574
38	0x3bbb55aa	0.005716999
39	0xbb36c227	-0.002788672
40	0x3c7f182a	0.015569726
41	0x3ce1c0d3	0.027557766
42	0xbc3f6695	-0.011682172
43	0x3c4a6e7c	0.012355443
44	0xbc4319bc	-0.011907991
45	0xbcb7cd52	-0.022436772
46	0x3cd55306	0.026040565
47	0x3d5799ab	0.052636784
48	0x3a8f3fa1	0.0010928997
49	0x3d3b6cf4	0.045758203
50	0x3c9a3840	0.01882565
51	0x3d017392	0.031604357
52	0xbcb01b36	-0.02149735
53	0xbcca8465	-0.024721334
54	0x3ce5042f	0.027956096
55	0x3c5ce72b	0.013482849
56	0x3c39f5ea	0.011350134
57	0x3cb1846f	0.021669595
58	0xbb8045aa	-0.0039145546
59	0xbc8fd7f7	-0.017559035
60	0x3ca63541	0.020289065
61	0x3d29c3e6	0.04144659
62	0xba806f51	-0.00097988
63	0x3d8fa603	0.07014086
64	0x3ce442cc	0.027863882
65	0xbb802f6c	-0.003911903
66	0x3ba7174a	0.005099212
67	0x3c95b528	0.018274859
68	0xbc8aa837	-0.016925914
69	0x3ae21ecf	0.0017251613
70	0x3d63b7dd	0.055595268
71	0x3c80e173	0.015732503
72	0x3d59064f	0.052984532
73	0xbd0737e6	-0.033012293
74	0xbc8c8c05	-0.01715661
75	0x3b83b356	0.0040191812
76	0x3cf10458	0.029421017
77	0x3d800ca1	0.06252409
78	0x3d6f1cb0	0.058376968
79	0xbce95c33	-0.028486347
80	0x3d278eff	0.040907856
81	0xbd040267	-0.032228854
82	0x3cbf485c	0.023349933
83	0xbc2e8336	-0.0106514
84	0x3c81bc11	0.015836747
85	0xbafedd83	-0.0019444678
86	0xbc8fd892	-0.017559323
87	0xbccd8539	-0.02508794
88	0x3b885671	0.0041606952
89	0x3d023339	0.03178713
90	0x3d02ad54	0.03190358
91	0xbcf5ff5b	-0.03002899
92	0xbd268a9f	-0.040659543
93	0x3c4408ef	0.011965021
94	0xbcd8049f	-0.026369391
95	0x3d0642e5	0.03277864
96	0x3d23dba7	0.0400044
97	0xbd055b51	-0.03255779
98	0xbcbe2099	-0.023208903
99	0xbc7d0964	-0.015444133
100	0x3d068414	0.032840803
101	0x3bc654da	0.0060525956
102	0xbc7d5433	-0.015461969
103	0xbacf9292	-0.0015836528
104	0x3d13d6b0	0.036093414
105	0x3c811f81	0.015762093
106	0x3c8d152e	0.017222013
107	0x3be2ff5a	0.006927413
108	0x3d33d310	0.043902457
109	0x3d15497f	0.036447044
110	0xbc2ba502	-0.010476353
111	0x3ccce072	0.025009368
112	0xbb7dbd85	-0.0038717699
113	0xbb0ea3ca	-0.0021765106
114	0x3c936951	0.017994555
115	0xbadd2373	-0.0016871527
116	0xbd08e8ff	-0.033425327
117	0x3ccebe3d	0.025237197
118	0x3d6f7ee5	0.058470625
119	0x3d8add85	0.06780533
120	0xbc8ef43c	-0.017450444
121	0x3d1ca364	0.03824176
122	0xbc7ada16	-0.015310785
123	0xbccc4aec	-0.02493807
124	0xbb78e77f	-0.003797978
125	0x3d0865fa	0.033300377
126	0xbd0f1f1a	-0.03494177
127	0xbc252ebf	-0.010081946

decoder.0.weight f4 [64, 128, 3, 3]
0	0x3c9aa925	0.018879483
1	0xbc957a18	-0.018246695
2	0xbbcad183	-0.0061895265
3	0xbc96da69	-0.018414693
4	0x3cdd0c95	0.026983539
5	0xbca68641	-0.02032769
6	0xbc2da3be	-0.010598121
7	0xbb366052	-0.0027828407
8	0x3c807f76	0.015685778
9	0xbc647428	-0.013943709
10	0x3c8be518	0.017077014
11	0x3ba61444	0.005068334
12	0x3c7303ab	0.0148324175
13	0x3c1f5e1c	0.009727027
14	0xbbf0c096	-0.007347177
15	0xbc891f01	-0.016738417
16	0x3c967ec7	0.018370999
17	0x3cb57b07	0.02215339
18	0xbc296c91	-0.010340826
19	0x3cac4aa3	0.021031683
20	0x3c405f92	0.011741536
21	0x3c487580	0.012235045
22	0x3ce0017e	0.027344462
23	0x3cbbf36d	0.022943223
24	0x3c31c961	0.010851235
25	0xbb3cc581	-0.0028804245
26	0xbb55931a	-0.00325889
27	0xbc55f026	-0.013057744
28	0x3a15d93b	0.0005716269
29	0x3be224a3	0.00690134
30	0x3c55dafc	0.013052698
31	0xbc79dbec	-0.015250187
32	0x3c58312e	0.013195319
33	0xbba42270	-0.005008988
34	0x3c08176b	0.0083063645
35	0x3c2317bf	0.009954392
36	0xbcdc92a6	-0.026925396
37	0x3cac29a3	0.021015948
38	0x3baf31fd	0.0053465352
39	0x3cdfa34f	0.027299551
40	0xbc7d3119	-0.0154536
41	0xbcc46d1a	-0.023977805
42	0x3ced273e	0.028949376
43	0x3ce1e251	0.027573736
44	0xbcbb0405	-0.022829065
45	0x3ce272de	0.027642664
46	0x3c0a1b59	0.008429372
47	0xbbdee61f	-0.006802335
48	0x3c9194e2	0.017771188
49	0xbc76d160	-0.015064567
50	0x3c3148e0	0.010820597
51	0x3b0d1115	0.0021525074
52	0xbc9cb260	-0.019128025
53	0xb9550732	-0.00020315943
54	0x3cb2aca2	0.021810833
55	0x3ccae9da	0.024769712
56	0x3c76d60e	0.015065683
57	0xbcdc1e3d	-0.026869887
58	0x3c0bef19	0.008540892
59	0xbc80e5b7	-0.015734537
60	0xbc5afdae	-0.013366146
61	0x3c72ea4b	0.014826368
62	0xbca01375	-0.019540528
63	0xbcc11976	-0.023571711
64	0xbcbcd0f0	-0.023048848
65	0xbc72ddea	-0.014823416
66	0xbc94a593	-0.018145358
67	0xbc29e901	-0.010370494
68	0xbc18c211	-0.009323613
69	0xbc0325b0	-0.008004591
70	0xbcc26b9e	-0.023732956
71	0xbc9e6385	-0.019334564
72	0xbcd3b0bb	-0.025841108
73	0xbca123c2	-0.019670371
74	0xb8ba39a4	-8.8799075e-05
75	0xbc2982cc	-0.010346126
76	0xbaff4f06	-0.0019478507
77	0x39e793f5	0.0004416999
78	0x3cdeac1e	0.027181681
79	0xbc371147	-0.011173553
80	0xbcbea795	-0.023273269
81	0xbce9cb46	-0.028539311
82	0x3c56e397	0.013115785
83	0x3c56ebcd	0.013117743
84	0xbbf4dcd1	-0.0074726124
85	0xbb003f63	-0.0019569031
86	0xbc166140	-0.00917846
87	0xbc8efa0e	-0.01745322
88	0xbccf1ccf	-0.025282292
89	0x3bdfe89a	0.006833148
90	0x3be988e7	0.0071269157
91	0x3cb1281b	0.02162557
92	0x394d173d	0.0001955898
93	0xbc8f420c	-0.017487548
94	0x3b80997a	0.003924546
95	0xbcad0cbc	-0.021124236
96	0x3c7e0e70	0.015506372
97	0xbcbd1359	-0.023080515
98	0xbc475c6f	-0.012168034
99	0xbc901f97	-0.017593188
100	0x3bdf0f21	0.0068072234
101	0xbca94e36	-0.020667177
102	0xbbbd6483	-0.005779804
103	0xbc44bc84	-0.012007836
104	0xbba04aa1	-0.004891709
105	0x3c8bdf52	0.01707426
106	0x3bcfe37f	0.0063442583
107	0xbc0b51fe	-0.008503435
108	0xbceff23c	-0.029290311
109	0xbc7b46cc	-0.0153367035
110	0xbc2ed8c2	-0.010671796
111	0xbce2e55d	-0.02769726
112	0x3ce02d00	0.027365208
113	0x3bb49181	0.0055105095
114	0xbbeeddb8	-0.0072896145
115	0xbca66e18	-0.020316169
116	0x3c9da2ef	0.019242732
117	0x3ca6c61d	0.02035814
118	0x3c61ef8f	0.013790025
119	0x3c8595a3	0.016306704
120	0x3b53c3e7	0.0032312812
121	0xbcf2bef2	-0.029632065
122	0xbcd54c23	-0.026037281
123	0xbcd71cc5	-0.026258836
124	0x3a11cfdd	0.0005562285
125	0x3caf7aab	0.021420797
126	0xbc92d718	-0.01792483
127	0xbcd5cfd8	-0.026100084
128	0x3c872dd6	0.016501348
129	0x3cf03591	0.029322417
130	0x3c3056ce	0.010762883
131	0xbb74d372	-0.0037357477
132	0x3ca15ac5	0.019696603
133	0xbc85172f	-0.016246406
134	0x3cef8925	0.0292402
135	0x3cb10055	0.021606604
136	0x3b49ee1c	0.003081209
137	0x3c749f28	0.014930524
138	0x3c0baf7c	0.008525725
139	0x3c70b0be	0.014690576
140	0x3be0ffce	0.006866432
141	0x3cada14d	0.021195078
142	0x3cfc7e50	0.03082195
143	0xbca060c9	-0.0195774
144	0x3a72ed68	0.00092669437
145	0x3c97cbfa	0.01852988
146	0x3ab4a927	0.0013783321
147	0x3ca6e398	0.020372197
148	0x3be34c2f	0.006936572
149	0x3cb21519	0.021738576
150	0xbcb2023d	-0.021729583
151	0x3cd11475	0.02552245
152	0x3cbde1e2	0.023178998
153	0x3c836fba	0.016044486
154	0xbc803e6e	-0.015654769
155	0xbcd466fc	-0.025928013
156	0xbc3d61e8	-0.011558987
157	0xbbf3c22a	-0.0074389176
158	0xbc858ee3	-0.016303485
159	0x3cc11581	0.023569824
160	0xbcc1878c	-0.023624204
161	0x3b2a5800	0.0025992393
162	0xbcd6759c	-0.026179127
163	0xbbc07259	-0.0058730063
164	0x3ca9be07	0.020720495
165	0xbabd19fd	-0.0014427301
166	0x3cfcc384	0.030854948
167	0xbc85f2d4	-0.016351141
168	0xbcb67a35	-0.02227507
169	0x3cb47493	0.022028243
170	0xbc0c0e1d	-0.008548287
171	0x3c839cc5	0.016065964
172	0xbac40306	-0.0014954514
173	0x3ce8e60f	0.028430013
174	0x3c3ab166	0.011394834
175	0x3cc29442	0.023752335
176	0x3cc74601	0.024325373
177	0x3c448096	0.011993548
178	0xbc0bd0ea	-0.008533696
179	0x3caa058e	0.020754602
180	0xbb0f1faf	-0.0021838953
181	0x3bc5036b	0.0060123703
182	0x3bf66d83	0.007520379
183	0xbc091392	-0.008366482
184	0xbcdd852b	-0.027041038
185	0xbc9c44ea	-0.01907583
186	0x3c88a083	0.0166781
187	0x3ccdfbe2	0.025144521
188	0x3c2c9b6d	0.010535103
189	0xbcf01520	-0.029306948
190	0xbc9ff262	-0.019524757
191	0xbb559091	-0.003258739
192	0xbbc0f72d	-0.0058888406
193	0x3c8910cd	0.016731644
194	0xbc58e9e6	-0.0132393595
195	0xbcd64ff5	-0.026161173
196	0xbc872529	-0.016497212
197	0x3c4af652	0.012387829
198	0x3aa58999	0.0012629508
199	0xbccf6241	-0.025315406
200	0x3b2b552d	0.0026143298
201	0xbcc2b4da	-0.023767877
202	0xbbe089eb	-0.0068523786
203	0xbcc1cdf9	-0.023657786
204	0x3ce37741	0.027766826
205	0xbb71e212	-0.003690843
206	0x3c678404	0.014130596
207	0x3a8d19d5	0.0010765145
208	0x384581b8	4.708927e-05
209	0x3c853cb2	0.016264293
210	0xb8905dfc	-6.883961e-05
211	0x3c10d9da	0.008841002
212	0x3bb12d85	0.0054070377
213	0xbbf84dfb	-0.0075776554
214	0xbc432411	-0.011910454
215	0x3ce851e5	0.028359363
216	0x3cd8e3f4	0.026475884
217	0xbc94649d	-0.018114382
218	0xbb0749aa	-0.0020643272
219	0x3c57a666	0.013162231
220	0x3c26858b	0.010163675
221	0xbcd860a9	-0.026413279
222	0x3caa3ac5	0.020779977
223	0xbb53f29f	-0.0032340658
224	0x3b8460f6	0.004039879
225	0xbc81bb52	-0.015836392
226	0x3cb65548	0.022257462
227	0x3bc2f44c	0.0059495326
228	0x3c0f4310	0.008744016
229	0x3b7607e0	0.0037541315
230	0xbc3e446b	-0.011612992
231	0x3c5deb58	0.01354488
232	0x3c4f46c5	0.01265115
233	0xbc5bf4dd	-0.013425079
234	0x3cbee57e	0.02330279
235	0xbabfebf0	-0.0014642458
236	0x3bf2e159	0.0074121174
237	0x3c7b2f3a	0.015331084
238	0x3b571058	0.0032816138
239	0x3bfc46c7	0.007698867
240	0xbc9e3133	-0.01931057
241	0x3c077e5e	0.008269874
242	0x3cc6eb02	0.024281982
243	0x3c8759b4	0.016522266
244	0x3c38bdb9	0.011275702
245	0x3b532b0e	0.0032221708
246	0x3a301462	0.00067169045
247	0x3c9224c2	0.017839793
248	0x3c1a0f82	0.009403111
249	0xbbfdb166	-0.007742095
250	0xbb9a70d0	-0.0047131553
251	0xbb6d7cff	-0.0036237834
252	0x3c16b770	0.009199008
253	0x3ca1f4ae	0.019769993
254	0x3c744be7	0.014910675
255	0xbce9ad44	-0.028525002

decoder.0.bias f4 [64]
0	0x3d41625d	0.047212947
1	0xbc81a17b	-0.01582407
2	0x3d682544	0.056676164
3	0x3cfcb7e2	0.0308494
4	0xbd03672d	-0.032080818
5	0xbb8fb780	-0.0043858886
6	0xbc6f212a	-0.014595309
7	0xbd03f367	-0.03221455
8	0x3b3f124a	0.0029155188
9	0x3dd0a4d9	0.10187692
10	0x3de06880	0.10957432
11	0x3c713a39	0.014723354
12	0x3c9fe1eb	0.019516906
13	0x3d22d4f3	0.039753865
14	0x3d590210	0.052980483
15	0x3c869a9b	0.016431144
16	0xbca64737	-0.02029763
17	0xbaa5ea43	-0.0012658316
18	0x3d5c45f5	0.053777654
19	0xbd26a550	-0.040684998
20	0x3dfd3180	0.12362957
21	0x3ca472a5	0.020074198
22	0x3d074471	0.033024255
23	0xbc5cb345	-0.013470476
24	0x3d42c013	0.047546457
25	0x3d6fc7c5	0.058540124
26	0xbcb5736a	-0.02214976
27	0x3c84c1f3	0.016205763
28	0x3cb2ce1b	0.021826794
29	0xbabee6ea	-0.0014564667
30	0x3b5804e5	0.0032961902
31	0x3d0b54da	0.034016468
32	0x3d8a7ad8	0.06761712
33	0x3bdd8bd5	0.006761054
34	0x3ca27a19	0.019833611
35	0xbc22a22f	-0.009926363
36	0x3b9981db	0.0046846694
37	0xbc41173b	-0.011785324
38	0x3e035ebb	0.12829106
39	0xbb542895	-0.0032372822
40	0x3b9abf39	0.0047225025
41	0xbd0935f8	-0.033498734
42	0x3dec3d43	0.11535122
43	0xbd1d44ab	-0.038395565
44	0x3cd14720	0.02554661
45	0x3da547c1	0.080703266
46	0x3d838a63	0.064228795
47	0xbc7bba20	-0.0153642
48	0x3d1653cd	0.036701012
49	0xbccf261e	-0.02528673
50	0x3c906184	0.017624624
51	0xbc9fb6ce	-0.019496348
52	0xbc745be6	-0.014914488
53	0x3d046e3b	0.032331686
54	0x3b56a7ba	0.0032753781
55	0xbbf92956	-0.0076038046
56	0xba8697fd	-0.0010268685
57	0x3d3046e4	0.043036357
58	0x3d6d1bc0	0.057887793
59	0xbbb311b7	-0.0054647583
60	0xbd326690	-0.043554842
61	0xbb62d172	-0.0034609702
62	0xbab9411e	-0.0014133786
63	0x3d8f7395	0.070044674

decoder.2.weight f4 [64, 32, 4, 4]
0	0x3d1e7ebf	0.038695093
1	0x3bb10f69	0.0054034484
2	0xbc81c31f	-0.015840111
3	0xbd2d8b8b	-0.042369407
4	0xbcc9b8f7	-0.02462433
5	0x3c8acbaa	0.016942818
6	0xbc34b473	-0.011029351
7	0xbc9d59ef	-0.019207923
8	0x3c959caa	0.01826318
9	0xbd2f8dc7	-0.04285982
10	0xbd037724	-0.032096043
11	0x3ce269ef	0.027638404
12	0xbd2cec34	-0.04221745
13	0x3cc4d0ef	0.024025409
14	0xbc02627a	-0.007958049
15	0xbd078ecb	-0.033095162
16	0xbd0ed3ce	-0.03486996
17	0xbcff9794	-0.031200208
18	0xbbfea7c5	-0.0077714645
19	0x3cf86660	0.030322254
20	0x3d001a50	0.031275094
21	0xbb7c4fba	-0.003849967
22	0xbd2a01e1	-0.041505698
23	0x3cb597f5	0.022167185
24	0x3d26842e	0.0406534
25	0xbcc5dd0d	-0.024153257
26	0x3c8dba8d	0.017300868
27	0x3d267818	0.040641874
28	0xbcb66db4	-0.022269107
29	0x3d0c61df	0.034273025
30	0xbd22908a	-0.039688624
31	0x3d0859d8	0.033288807
32	0x3cc63a39	0.024197685
33	0x3d09554e	0.03352862
34	0xbac5e9bc	-0.0015099565
35	0xbd0b6f8f	-0.034041937
36	0xbc879799	-0.01655178
37	0xbc92364b	-0.017848155
38	0xbc81e184	-0.015854605
39	0xbcca9381	-0.024728538
40	0x3c73f965	0.014891003
41	0x3d1d0e1a	0.038343526
42	0x3cf31dd1	0.029677304
43	0x3c93dda4	0.018050022
44	0xbcd332b3	-0.025781011
45	0x3c693388	0.014233477
46	0x3ca38c5d	0.019964391
47	0xbd2b4b65	-0.04181995
48	0x3cdc8d67	0.026922895
49	0xbbead550	-0.007166542
50	0x3d1d2a25	0.03837027
51	0xbcfe5383	-0.03104568
52	0x3ccb065e	0.02478331
53	0x3d34ae02	0.04411126
54	0x3d142f3d	0.036177862
55	0xbbd3c596	-0.006462763
56	0xbcfedc81	-0.031111004
57	0x3d07f613	0.03319366
58	0x3c10ef80	0.008846164
59	0x3c31151a	0.010808254
60	0xbcb98282	-0.022645239
61	0x3cc4b0a9	0.02401002
62	0x3d23e10c	0.040009543
63	0xbc3b0c56	-0.011416515
64	0x3ba63ba9	0.00507303
65	0xbacf7331	-0.0015827176
66	0x3caf0462	0.021364395
67	0x3cdaf766	0.026729297
68	0xbd1fdab5	-0.039026935
69	0x3bae4e68	0.0053194053
70	0xbcd42266	-0.025895309
71	0x3d27cf8f	0.040969428
72	0xbc4742f0	-0.012161955
73	0x3cc8b85a	0.024501968
74	0xbc640b1f	-0.013918667
75	0x3b8a22f0	0.0042155907
76	0x3bce3935	0.0062934407
77	0xbd173c6e	-0.036922865
78	0xba8e2b1a	-0.0010846586
79	0x3c25777a	0.010099286
80	0x3d283e87	0.041075256
81	0x3cc69333	0.024240112
82	0xbd1bd023	-0.03804029
83	0xbc569a09	-0.013098248
84	0xbd2a37e5	-0.04155721
85	0xbbf6ebb0	-0.0075354204
86	0xba8cdda8	-0.0010747211
87	0x3cf05b15	0.029340306
88	0x3c9d45c7	0.019198311
89	0xbd0ba051	-0.034088437
90	0x3c9a9b7e	0.018872973
91	0x3bc7ddaa	0.0060994225
92	0x3b86cd57	0.004113834
93	0xbd16dd19	-0.03683195
94	0x3cc8c03b	0.024505725
95	0xbd05816d	-0.032594133
96	0xbd2f464b	-0.042791646
97	0xbd08377a	-0.03325603
98	0x3d21acb3	0.03947134
99	0xbd330297	-0.04370364
100	0xbc156441	-0.009118141
101	0xb92dd222	-0.00016576846
102	0xbd1431c7	-0.036180284
103	0x3c3780b5	0.01120012
104	0x3ca4764c	0.02007594
105	0xbcd108b3	-0.025516843
106	0x3be1f3b7	0.006895508
107	0xba527108	-0.0008027707
108	0xbc2293f7	-0.009922973
109	0x3cf715b4	0.030161716
110	0x3c3c3a09	0.011488446
111	0x3cef69d2	0.029225264
112	0x3d01be97	0.0316759
113	0x3d1ef9a2	0.038812287
114	0x3c21ae57	0.009868226
115	0x3d2cf265	0.042223353
116	0x3d16ff2b	0.03686444
117	0xbd2ce415	-0.042209703
118	0xbd0d7b99	-0.0345417
119	0x3cf26ee5	0.029593894
120	0x3cd83dd1	0.026396664
121	0x3d0fbd2b	0.035092514
122	0xbc4dffd8	-0.012573205
123	0xbd20faf9	-0.039301846
124	0xbd2e5893	-0.04256494
125	0x3c254ee3	0.010089609
126	0x3c3fe488	0.011712201
127	0x3cd36078	0.025802836
128	0x3c20805c	0.009796228
129	0xbcafafb7	-0.021446092
130	0xbcca3f8f	-0.02468851
131	0xbd2a57d5	-0.04158767
132	0x3beaac7e	0.007161676
133	0x3c2c7a26	0.010527169
134	0x3c9492b0	0.018136352
135	0xbc7b8329	-0.015351095
136	0xbd2db913	-0.04241283
137	0x3aaa9137	0.0013013248
138	0xbbdda4ab	-0.0067640147
139	0x3d2a7487	0.041615035
140	0x3d0416f4	0.032248452
141	0xbc6a0f1e	-0.014285831
142	0xbd09a81b	-0.033607583
143	0xbc812421	-0.015764298
144	0x3c7ce01e	0.015434293
145	0x3cd775a5	0.026301214
146	0x3cc1372e	0.023585882
147	0xbcf67da4	-0.030089207
148	0x3c9f0ce1	0.01941532
149	0xbc16cbf7	-0.009203902
150	0xbc8a431d	-0.016877705
151	0x3c95a55a	0.018267322
152	0xbc9225a4	-0.017840214
153	0x394a9f0c	0.00019323471
154	0x3c61fa04	0.0137925185
155	0x3c41c507	0.01182676
156	0x3cb5b8a1	0.022182764
157	0xbce5e5a4	-0.028063603
158	0xbd31b0d3	-0.043381523
159	0x3d1683e2	0.036746867
160	0xba96b456	-0.0011497836
161	0xbd133b41	-0.03594518
162	0xbd2ae3c9	-0.04172114
163	0xbc2f70a2	-0.010708006
164	0xbd365788	-0.04451707
165	0x3c3b18f2	0.011419522
166	0xbd01857c	-0.03162144
167	0xbc6bc5d5	-0.014390429
168	0xba8c143b	-0.0010687181
169	0xbca11e32	-0.019667719
170	0xbd1623bd	-0.036655176
171	0x3cdf9491	0.027292522
172	0xbbc11d55	-0.005893389
173	0xbca1397b	-0.01968073
174	0x3cefa497	0.029253287
175	0xbb024b88	-0.0019881446
176	0xbd094581	-0.03351355
177	0xbc7ca02d	-0.015419048
178	0xbd1542fa	-0.036440827
179	0x3b7d25d1	0.0038627277
180	0x3c2f5afa	0.010702843
181	0x3d440800	0.047859192
182	0xbc11dd47	-0.008902854
183	0x3d27397c	0.040826306
184	0x3d0d0b87	0.03443482
185	0x3ceea2e1	0.029130401
186	0xbd07177c	-0.03298138
187	0xbd247bfa	-0.040157296
188	0xbc987e72	-0.018614981
189	0x3d3e9d7c	0.046536908
190	0xbc66c099	-0.014084005
191	0xbc7b2e11	-0.015330807
192	0xbd2c7270	-0.042101324
193	0xbcff1399	-0.031137275
194	0xbd04ab95	-0.032390196
195	0xbd0bed65	-0.034161944
196	0x3c8ed358	0.01743476
197	0xbc228d39	-0.009921365
198	0xbc5b50da	-0.013385976
199	0x3ca87fad	0.020568693
200	0x3b7c44ca	0.003849315
201	0xbb7b458e	-0.0038341018
202	0x3c9cb950	0.019131333
203	0xbd133f94	-0.035949305
204	0xbb8e077f	-0.0043343897
205	0x3c6b2426	0.01435188
206	0xbce7a1e5	-0.02827544
207	0x3c67ac13	0.014140147
208	0x3d20605c	0.039154395
209	0xbc5b6b78	-0.013392322
210	0x3d2f7eb7	0.042845454
211	0xbd2c1ce9	-0.04201976
212	0xbd040836	-0.032234393
213	0xbc4e0616	-0.012574693
214	0x3b1aaa88	0.002360018
215	0x3cd77f3e	0.026305791
216	0x3d23a8ec	0.03995602
217	0x3c054cdf	0.008136003
218	0xbd16fa64	-0.036859885
219	0xbc3a8211	-0.011383549
220	0xbba68483	-0.0050817146
221	0xbcad3b64	-0.021146484
222	0xbbe922e0	-0.007114753
223	0xbd125817	-0.03572854
224	0x3c7ce93f	0.01543647
225	0xbd1a7f95	-0.037719328
226	0xbbae1555	-0.0053126016
227	0x3c8e604a	0.017379899
228	0xbbfe6b23	-0.0077642365
229	0x3d01b066	0.031662367
230	0xbd34c303	-0.04413129
231	0x3aabad51	0.0013097917
232	0x3d285afe	0.041102402
233	0x3caa95ec	0.020823441
234	0x3c7ed3fd	0.015553472
235	0xbc1725f7	-0.00922536
236	0x3c80967c	0.015696757
237	0x3b55c31e	0.003261752
238	0xbd2c0e37	-0.042005744
239	0x3cae3f50	0.021270424
240	0xbcea58aa	-0.028606731
241	0xbb5d5abc	-0.0033776006
242	0x3c648461	0.013947577
243	0x3d0c52ec	0.034258768
244	0x3c99722c	0.0187312
245	0x3d25d1ea	0.040483393
246	0xbbfab639	-0.007651117
247	0xbcffbe0f	-0.031218557
248	0x3d07c315	0.03314503
249	0x3d1d435c	0.038394317
250	0xb9a8b35a	-0.00032177084
251	0x3c6d8955	0.014498075
252	0x3d260224	0.040529385
253	0x3bbc132d	0.0057395906
254	0x3c39f278	0.011349313
255	0x3d18ef81	0.037337784

decoder.2.bias f4 [32]
0	0xbc2bd62d	-0.010488075
1	0xbb32d0ad	-0.0027285025
2	0xbaccd07d	-0.0015626099
3	0x3ecc048d	0.39847222
4	0xbd0c6ce7	-0.034283545
5	0xbc49f0cd	-0.012325478
6	0xbbf78002	-0.0075531015
7	0xba94df0b	-0.0011357976
8	0xbc429f0e	-0.011878742
9	0xbc559c5d	-0.013037768
10	0xbc05d023	-0.008167299
11	0x3e38fb34	0.18064576
12	0x3e73ad26	0.2379652
13	0xbae5e95a	-0.0017540858
14	0xbdb3f755	-0.08787409
15	0xbc8ec9ac	-0.017430149
16	0xbc979fcf	-0.01850882
17	0xbcaf454c	-0.021395348
18	0xbc75f661	-0.015012355
19	0x3dcd7561	0.10032154
20	0xbc93c4b6	-0.018038135
21	0x371fcf44	9.525396e-06
22	0xbea71de1	-0.32639983
23	0xbb958759	-0.004563254
24	0xbc856c33	-0.016286945
25	0xbe1f406d	-0.1555192
26	0x3e66e0f8	0.22546756
27	0xbb2f6af0	-0.002676662
28	0xbd3847c9	-0.044990335
29	0x3e108a71	0.14115311
30	0xbbb45328	-0.005503077
31	0xbc68c1bc	-0.014206346

decoder.4.weight f4 [1, 32, 3, 3]
0	0x3c8de870	0.017322749
1	0x3c82f234	0.015984632
2	0xbcffaecc	-0.03121128
3	0xbc56d84b	-0.013113092
4	0x3d5b5b8f	0.053554114
5	0x3c7b7993	0.01534881
6	0x3d205048	0.039139062
7	0xbc301fb2	-0.010749744
8	0xbcd9208d	-0.02650478
9	0x3c9eaf4b	0.019370696
10	0x3cf8deab	0.030379614
11	0xbc1196ae	-0.0088860225
12	0x3ce8e6de	0.028430399
13	0x3cb4bc65	0.02206249
14	0x3d37ad3d	0.044842947
15	0xbd92d060	-0.071686506
16	0xbd0b1cd5	-0.033963043
17	0x3c1442fc	0.009049173
18	0xbc8ad2b5	-0.016946176
19	0xbc8832ac	-0.016625725
20	0xbd38da33	-0.045129966
21	0x3bd6f438	0.006559875
22	0x3d0cbea2	0.03436149
23	0x3d26a47e	0.040684216
24	0x3ca8cf4f	0.020606665
25	0x3d2b06dc	0.04175459
26	0xbd5900d9	-0.052979324
27	0x3d76a424	0.06021513
28	0xbe5f19cb	-0.21787183
29	0x3d244fef	0.040115293
30	0xbe81e2e9	-0.2536843
31	0xbf055f08	-0.5209813
32	0xbe192c17	-0.14958225
33	0x3c844e16	0.016150516
34	0xbe25c164	-0.16187054
35	0x3d331545	0.043721456
36	0xbd04c56f	-0.03241485
37	0x3d3494ec	0.044087335
38	0x3d2c2e69	0.042036448
39	0xbd67c7d2	-0.056587048
40	0x3c5dba18	0.013533138
41	0x3d094f9a	0.03352318
42	0xbca7e6b8	-0.020495757
43	0xbd68a24b	-0.0567954
44	0x3d20d4c3	0.039265405
45	0x3cdcb967	0.026943875
46	0xbc6094d7	-0.013707361
47	0xbcf89297	-0.030343337
48	0xbcc19808	-0.023632064
49	0x3af52666	0.001870346
50	0x3d44fbc6	0.048091672
51	0xbca017bd	-0.01954257
52	0x3bc09e06	0.005878213
53	0x3d0f170d	0.034934092
54	0xbd3964ce	-0.04526215
55	0x3d54f90e	0.05199533
56	0xbcd783e4	-0.026308008
57	0xbd361549	-0.044453893
58	0x3d86768e	0.06565581
59	0x3c96da7c	0.018414728
60	0x3d301e82	0.042997845
61	0xbb63099c	-0.0034643179
62	0xbd71e56c	-0.059056684
63	0xbda48b6a	-0.080344036
64	0xbb5725e5	-0.0032828983
65	0x3d11e8b7	0.035622325
66	0xbd0093fa	-0.03139112
67	0x3b6abd55	0.0035818417
68	0x3bee852b	0.0072790585
69	0x3cd3e2dc	0.02586501
70	0x3d22dffe	0.039764397
71	0x3c38e032	0.011283921
72	0xbcb9cb9c	-0.022680096
73	0x3d0b4f73	0.034011316
74	0xbd8fa3ff	-0.07013702
75	0x3d3ac4c1	0.045597795
76	0xbbc670c1	-0.006055922
77	0xbb3643bc	-0.002781137
78	0xbc47b35e	-0.012188761
79	0xbb99386f	-0.004675917
80	0x3d2d4c7f	0.04230928
81	0x3a0c7e74	0.0005359419
82	0xbc858981	-0.016300919
83	0x3b029157	0.0019923055
84	0xbd09718b	-0.03355555
85	0x3d34567b	0.044027787
86	0xbc8afd77	-0.016966565
87	0x3cdb4bf1	0.02676961
88	0x3ca041ac	0.019562565
89	0xbceac2cc	-0.02865734
90	0x3d0b0ace	0.03394585
91	0xbd4f37b6	-0.05059024
92	0xba99a4b6	-0.0011722061
93	0x3cdbdf02	0.026839737
94	0x3d494ee6	0.04914751
95	0xbc5de21e	-0.01354268
96	0x3d59f803	0.053215038
97	0xbc8fbd9a	-0.017546464
98	0xbd2a58bd	-0.041588534
99	0x3dc544a9	0.096322365
100	0xbdcf06e0	-0.10108733
101	0x3d1f95b0	0.038961112
102	0xbd91db64	-0.071219236
103	0xbe354039	-0.1770028
104	0xbe173216	-0.147652
105	0xbab32873	-0.0013668671
106	0xbddafddf	-0.10692953
107	0xbd34d16e	-0.04414504
108	0xbc61f010	-0.0137901455
109	0xbd44d69a	-0.048056222
110	0x3c073776	0.008252969
111	0xbe48b305	-0.1959954
112	0xbea25a53	-0.31709537
113	0xbdd312f2	-0.10306348
114	0xbcc92617	-0.024554295
115	0xbd854dcd	-0.0650898
116	0x3d99d0b6	0.075105116
117	0x3be68706	0.007035139
118	0x3cb67ac9	0.022275345
119	0x3ba67516	0.0050798757
120	0x3d2eb885	0.04265644
121	0x3cd97347	0.026544226
122	0xbc88300d	-0.016624475
123	0xba7a17dd	-0.0009540299
124	0xbc003989	-0.007826217
125	0xbd72dc8b	-0.059292357
126	0xbbea1eab	-0.007144769
127	0x3ca41323	0.020028656
128	0xbca0d340	-0.019631982
129	0xbceb9fb8	-0.028762683
130	0xbd40a0d8	-0.047028393
131	0xbc52d395	-0.012867828
132	0xbb4f2278	-0.0031606238
133	0x3c0ec6d7	0.008714399
134	0xbd1dc2e8	-0.038515955
135	0xbca8f514	-0.020624675
136	0x3c5da4ac	0.01352803
137	0xba3fadac	-0.0007311951
138	0xbc25bb84	-0.010115508
139	0x3d1af669	0.03783265
140	0xbc2d7ea4	-0.0105892755
141	0x3cccb486	0.024988424
142	0x3d103d62	0.03521479
143	0x3cd740ad	0.026275957
144	0xbbcc73bf	-0.006239384
145	0x3c3b9810	0.011449829
146	0xbd205680	-0.039144993
147	0x3d2d6f0b	0.042342227
148	0xbc71b365	-0.014752244
149	0x3d2adec8	0.041716367
150	0x3cd52924	0.026020594
151	0xbd3ff15d	-0.04686104
152	0x3c9f41ca	0.01944055
153	0xbd59da95	-0.05318697
154	0x3b543133	0.0032377958
155	0xbd6e5482	-0.05818606
156	0x3d346c9b	0.044048887
157	0xbd0feac9	-0.035136018
158	0xbb9b37db	-0.004736883
159	0x3d7b9ccc	0.06142883
160	0x3c41a487	0.0118190115
161	0x3d5bc8ca	0.053658284
162	0x3caef4bc	0.021356933
163	0xbd633ae9	-0.055476103
164	0x3c291958	0.010320984
165	0x3cadfca6	0.021238636
166	0x3d4bd9b7	0.049768176
167	0x3d2a531e	0.041583173
168	0x3c58ddd6	0.013236484
169	0xbca74580	-0.020418882
170	0xbd149fc9	-0.036285195
171	0x3d61d9bf	0.0551393
172	0xbdf643c0	-0.12024641
173	0xbce03f62	-0.027373973
174	0xbd3690db	-0.04457174
175	0xbe19cc37	-0.15019308
176	0xbd9717d2	-0.0737759
177	0x3d225809	0.039634738
178	0x3be0f312	0.0068649137
179	0x3d11dc38	0.035610408
180	0x3be55e01	0.0069997315
181	0x3d33a39d	0.043857206
182	0x3b8d1cd5	0.0043064156
183	0x3cee1616	0.029063266
184	0x3cb49459	0.022043394
185	0xbc84c864	-0.016208835
186	0xbd4e3d43	-0.050351392
187	0x3d3ad2ff	0.045611378
188	0xbd48e786	-0.049048923
189	0x3b9845b9	0.0046469835
190	0x3d724b90	0.059154093
191	0xbcf1c8ad	-0.029514635
192	0x3d2ac8b7	0.041695323
193	0xbc03bc4c	-0.008040499
194	0xbd000239	-0.03125212
195	0xbc5118bf	-0.012762248
196	0x3c8f0700	0.017459393
197	0xbd0320a0	-0.032013535
198	0xbce081c8	-0.027405635
199	0x3d4ebe8c	0.05047469
200	0xbd35b304	-0.044360176
201	0xbd25f294	-0.040514544
202	0xbc84f9ca	-0.01623239
203	0x3c3be5cc	0.011468362
204	0xbd25352d	-0.040333916
205	0xbc32d69b	-0.010915424
206	0x3ceac6c7	0.028659238
207	0xbca20481	-0.019777538
208	0x3ca052cb	0.019570729
209	0xbc4fa139	-0.012672716
210	0xbb921473	-0.004458004
211	0x3d4e61b4	0.050386146
212	0x3cd5b7f3	0.02608869
213	0xbd254321	-0.040347222
214	0x3c11c8ce	0.008897973
215	0xbabea986	-0.0014546372
216	0x3d4d4689	0.050116096
217	0xbd25a3b6	-0.04043933
218	0x3c0dda2a	0.008657971
219	0x3b367a42	0.0027843867
220	0x3d32cf07	0.043654468
221	0x3d76b11b	0.060227495
222	0xbd4a79ef	-0.04943269
223	0xbca9dd4d	-0.020735407
224	0xbb92e851	-0.0044832607
225	0xba2e6434	-0.00066525047
226	0xbcded46e	-0.027200904
227	0xbc2d391b	-0.010572697
228	0xbd0ef7e3	-0.034904372
229	0x3c62df28	0.01384715
230	0xbd035759	-0.032065723
231	0xbc3ef1b7	-0.011654309
232	0xbb3cbff2	-0.0028800932
233	0xbc758780	-0.014985919
234	0x3d698348	0.057009965
235	0xbe0007dc	-0.12502998
236	0x3cacc20c	0.021088623
237	0xbe07ed16	-0.13274035
238	0xbe9fa536	-0.31180733
239	0xbd75dd13	-0.060025286
240	0x3d04421b	0.032289606
241	0xbde3a4cc	-0.11115417
242	0xbbf8e1b1	-0.007595264
243	0xbc2fbdc3	-0.010726395
244	0xbd432a53	-0.047647785
245	0x3c96fbb1	0.018430563
246	0xbca3e8b0	-0.020008415
247	0xbb8911b9	-0.004183021
248	0x3d77fb81	0.060542587
249	0xbd60de8f	-0.05489975
250	0x3cb37183	0.021904713
251	0x3d3f5027	0.0467073
252	0x3ba46243	0.0050165965
253	0xbc8c44db	-0.017122677
254	0xbc2ae319	-0.010430121
255	0xbc4454ab	-0.011983077
