ML/models/synthnav-model-0.pth (torch, 802559 bytes, 11 tensors)

encoder.0.weight f4 [32, 1, 3, 3]
00000000: 38f4 6cbe 68d4 9c3e 49ef 88be bfd3 973e
00000010: 5d91 883d 7d34 9cbe ed40 70be 5fd3 bcbd
00000020: a672 a63e 80dc 4a3e 9b29 a93e 8db0 17be
00000030: 6d4d 9e3e 68f9 ce3b 3a19 ccbd 3165 cdbd
00000040: dcda bb3d 0d2c 033e a685 263e cfbe c0bd
00000050: 23e0 913e cc5f 413e 38cb 913e 5188 5b3e
00000060: 381f db3d 0e1d 6c3e e8a1 67be e7a0 413e
00000070: 0a8f 9aba 566d cebc d0eb 5f3d 0dcf 10bd
00000080: f89f 80be 1075 82be 4cac 033e 46ff bfbe
00000090: 32a3 fa3d b7c9 093e 2589 7f3e 3452 a2be
000000a0: b95e 933e ab31 44be b0e8 bbba b77a 603d
000000b0: b3e8 9fbd dc82 c03b 667a 58be e7a2 5c3c
000000c0: 2a85 923e 0883 a6be bef5 7abe 516b 37be
000000d0: 8ee7 953e fcd4 903d 9b90 873e 4c9b 263d
000000e0: 39d5 693d 7603 32be 26e2 08bc b577 26bd
000000f0: d445 9bbe 3dc3 963e b2af 633d 5f96 a7be
00000100: 4968 663e 6232 60be 70df 5dbd 96cc 903d
00000110: f918 75be 72c5 7d3e 83f4 89be c624 0c3e
00000120: 3e43 1dbe a8d7 1d3e 9b59 9dba 0cf8 9fbe
00000130: 707c e73c 707c 81be c080 74be aa07 763e
00000140: 46d8 5ebe f4ff 3c3e 44d8 89be d040 a1bd
00000150: e095 a5bd ec04 8bbe dbac 8b3e 2496 323e
00000160: fd54 ee3d b63e 883c fe13 d5bd 6bac ed3d
00000170: 3e83 743e 1df5 b33c 3483 863c d0f8 8ebc
00000180: 675e a63e 2e88 a8be dc72 3ebc c372 b5bd
00000190: 3bc1 433e 32db a0be 8eca 26be 6c59 4cbe
000001a0: 17ef 823e 9aff 683e fac3 233e 080c 93be
000001b0: 1210 3c3e 78ad 813e 192a 523e 2582 1cbe
000001c0: 6ef6 97bd 75f9 9d3e 03f3 65be 27c7 e4bd
000001d0: 67ed 973e 0fa8 a33e 8afa a7be 0d3f 1abe
000001e0: f912 2d3d fdd7 993e 7cda 9ebe f5d3 26be
000001f0: d465 f33d 9484 5bbe 9e17 613e 34ce 883e
00000200: 0bc2 4e3e f802 44be aa41 55be 5910 7bbd
00000210: c57b c7bb 3c00 adbd 198f 6cbe 62bf 4fbd
00000220: 25ba 87be c729 80be f1ec 923d 5e19 4e3d
00000230: c988 16be f2b1 013d cafb 81be c936 a83e
00000240: 7e3c 64bd 3790 a53d 9007 1ebd eff6 68bd
00000250: 03cf f7bd d092 bcbc 10dc a83d 3900 b7bd
00000260: 0710 6c3e 5931 693e c596 613e c17e 803e
00000270: bd84 033e 1e1c a1bd 2e81 693e baff 353e
00000280: 9836 59be 4a09 243e 0004 87be e134 053e
00000290: a710 88be 352f ae3d 95ca 4fbd 3ab9 0b3e
000002a0: 8f28 72be c9b7 acbd 5800 7c3e 287d 20be
000002b0: 3587 7a3e 8ff4 b4bd 2ba9 c0bd d6e1 883d
000002c0: fee3 0bbe ffda 21be 9f8d 3a3d 6d91 38be
000002d0: 6d1d fbbd be6e c4bd 9259 573e 246b 563e
000002e0: 3351 923e cee4 453e 7ca9 5ebe d61c 733d
000002f0: 4874 4bbd da3c b63e 66cf dabc 29c1 723e
00000300: 7a46 cd3d 4a08 603e 34eb 103e 0119 b7bd
00000310: 3d87 a73e e78e 883d b41e e13d 9112 8d3e
00000320: d299 993e a630 9b3e b1f5 1e3e 8421 51be
00000330: 91b9 e3bc 8be2 95be b9c7 9abe 09de 473d
00000340: 4c0c 46bd 7ff3 28be c460 b53c 943d 34be
00000350: 4418 1cbc de5b a83e 3977 4ebe 49e2 67be
00000360: 9860 41be ea2d 733e 45d2 9f3e 10b1 a1bd
00000370: 4a88 a8be 653b 42be ac0e 253e 28e4 4e3d
00000380: ae8d 43be a541 6b3e 814b 9f3d e7af 03bd
00000390: 3262 1e3e 4637 a73e ee45 043d c1b8 a63e
000003a0: 7dae 563e ae5c 123e c5c5 32be 7dcb 8a3e
000003b0: cf4f a33e 076f 883e ae71 67be 0d60 a53e
000003c0: 84ed 0c3e 8252 12bc ac1c a03e d2b1 7fbc
000003d0: 1da4 523d 3ea4 b93d e1f4 813e 380c ddbd
000003e0: 83f8 86bc efb7 8c3e 0a27 3ebb 2e6c a7be
000003f0: 3122 e23d e400 b93d 7aab e53d 6ace 2c3e
-0.23140037 0.30630803 -0.2674506 0.29653737 0.06668351 -0.30508795 -0.23462267 -0.09220003
0.32509345 0.19810677 0.33039555 -0.14813443 0.30918446 0.0063163526 -0.09965749 -0.10029066
0.091726035 0.12809773 0.1626192 -0.09411394 0.28491315 0.188842 0.28475356 0.2143872
0.10699314 0.23057958 -0.22620356 0.18909036 -0.0011791897 -0.02519862 0.054668248 -0.03535371
-0.25122046 -0.25479937 0.12858695 -0.37499446 0.12238158 0.13455854 0.2495466 -0.3170334
0.28783205 -0.19159572 -0.0014336314 0.05480453 -0.07808056 0.0058749747 -0.21140441 0.013466573
0.2861722 -0.32521844 -0.24507806 -0.17912032 0.29278225 0.070718735 0.26477513 0.040675446
0.05708811 -0.17384133 -0.008354699 -0.040641505 -0.30326712 0.2944583 0.055587478 -0.32731912
0.22500719 -0.2189422 -0.054168165 0.07070272 -0.23935308 0.2478235 -0.2694436 0.13685903
-0.15357682 0.15414298 -0.0012004854 -0.31243932 0.028257579 -0.2529025 -0.23877239 0.24026361
-0.2176219 0.18457013 -0.2692281 -0.0787369 -0.08085227 -0.27152193 0.27280316 0.17440087
0.11637304 0.016631465 -0.10404204 0.11605152 0.2387819 0.021967465 0.016419984 -0.017452627
0.32493898 -0.32916397 -0.011624064 -0.0885978 0.1911668 -0.31417233 -0.16288206 -0.19955987
0.25573036 0.22753754 0.15992728 -0.28720117 0.18365505 0.2532766 0.20523871 -0.15284021
-0.074200496 0.30854383 -0.22455983 -0.11170798 0.2967331 0.31964156 -0.32808334 -0.15063114
0.04225442 0.30047598 -0.31026065 -0.16291793 0.118846565 -0.21437293 0.21981665 0.2671982
0.20191209 -0.19141757 -0.2082583 -0.061294887 -0.0060877525 -0.0844731 -0.23101462 -0.050719626
-0.26509205 -0.25031874 0.07174099 0.05031716 -0.14700617 0.031663842 -0.25387412 0.32854298
-0.055721752 0.080841474 -0.03858143 -0.05687612 -0.12100031 -0.023019224 0.082450986 -0.08935589
0.23052989 0.22772731 0.2203017 0.25096706 0.12843604 -0.07866691 0.22803184 0.17773333
-0.21212232 0.16019168 -0.2637024 0.13008453 -0.26575205 0.08505098 -0.050730307 0.13644877
-0.23648284 -0.08433492 0.24609506 -0.15672743 0.2446564 -0.08835708 -0.09407266 0.066837
-0.13661191 -0.15806197 0.045545217 -0.18024226 -0.12261472 -0.09591435 0.21030262 0.20939308
0.28577575 0.19325563 -0.2174434 0.059353672 -0.04967144 0.355933 -0.026710223 0.23706497
0.10023208 0.21878162 0.14152223 -0.08940316 0.32720366 0.066678815 0.10992184 0.27553228
0.30000168 0.30310553 0.15523411 -0.20422941 -0.027798446 -0.292744 -0.302305 0.048795734
-0.04835157 -0.16499136 0.022140868 -0.17601615 -0.00952727 0.3288259 -0.20162667 -0.22644915
-0.18884504 0.23747984 0.3121511 -0.078951 -0.3291648 -0.1896797 0.16118878 0.050510556
-0.19097015 0.2297426 0.07778073 -0.032150175 0.15467146 0.32659358 0.032293253 0.3256283
0.20965 0.14293167 -0.17458256 0.27108374 0.31896827 0.26647207 -0.22601959 0.32299843
0.1376248 -0.008930804 0.31271875 -0.0156063605 0.051426042 0.0906453 0.2538214 -0.10793346
-0.016475921 0.2748408 -0.0029014968 -0.32699722 0.11041678 0.09033373 0.11214347 0.16875616

encoder.0.bias f4 [32]
00000000: 2b9f 04bd bb4c 9ebe 5e88 11be 671d fe3e
00000010: 8f09 49be b5bf 7ebe 64de c8bc c386 803d
00000020: 2c78 8abe 8aea db3d d682 61bc 4b37 98be
00000030: c568 5e3e a837 7ebe b7ab 5fbd d7ed 863e
00000040: 2be8 b03e 12ca 71be 264b df3c 6e02 b83e
00000050: 8b0e 153e a75e 74be 5048 aabd df36 443c
00000060: a88d f53c a20e 98be 3813 73be 21da 5dbe
00000070: 610f 863e b4c6 de3b 9282 9fbd 40bf 52be
-0.032378357 -0.30917916 -0.14212176 0.49631807 -0.19632553 -0.24877818 -0.024520107 0.06275704
-0.2704481 0.10738094 -0.013764104 -0.29729685 0.21719654 -0.24825919 -0.05460712 0.26353332
0.3455213 -0.2361224 0.027257513 0.35939354 0.14556329 -0.23864232 -0.08314574 0.011975973
0.029974774 -0.29698664 -0.237378 -0.21665241 0.26183608 0.0067985896 -0.07788576 -0.20580769

encoder.2.weight f4 [64, 32, 3, 3]
00000000: 1a3e 5fbd 3a89 d9bc 072f d3bc 2536 e63c
00000010: 4284 ec3a dbb2 433d 23b3 76bc b5ea b93b
00000020: eeea 8c3c c822 2e3d 6c37 f0bc 0d3b 39bc
00000030: fd27 ccbb 907d 723d c125 1cbd 7a69 58bd
00000040: 0692 0abd b767 733c eb1d 0fbc 4c50 a53b
00000050: 307a 523a f290 2cbd aa0f 8d3d 764c 643d
00000060: 9075 96bc e576 b23c 9cad 09bd 75d0 0bbc
00000070: 6463 22bb 9ee0 dabc 7f43 123d 9ae1 653c
00000080: 0bec 463d 88e0 5e3d 38e1 303c c74f c43c
00000090: ea42 fa3b 4d57 02bd 70f9 ac3b 41ad 103d
000000a0: 809d 073d be7c 4ebd 154c 8abb 5274 5c3d
000000b0: 411c ddbb 221e c03b 34ef 4fbd 0f67 5bbd
000000c0: 3f9f 27bd f917 2e3c 04e6 06bd 6d99 323d
000000d0: 7b17 c93c f551 5ebd 7c25 ed3c 15d5 4c3d
000000e0: 9672 4a3d ceca 693d 6b31 81bc e059 b6bb
000000f0: c5fe 703d e814 fb3c d9df 14bd 41a3 46bd
00000100: 6f4b c3bc f4df 813c e947 213d 47c2 14bd
00000110: 3bda 453d 7c44 83bb 6525 1dbd 3ec9 9bbc
00000120: 9580 f0bc 788a c6ba 1c53 3bbd 4976 b4bc
00000130: 2e83 23bd ddd2 23bd a5f7 093c a95f 53bc
00000140: 2caf 1a3d 10ff c1bc eb6d cd3c c1a3 11bd
00000150: 9faf 28bc 8f89 86b9 eda9 25bd 4858 bd3b
00000160: 0ac2 633d b5d8 07bc 8c48 023d 6c91 e7bc
00000170: fd98 1bbc cb73 553d 757c 253d ef30 3a3d
00000180: 7ecb 543d 4ef6 5f3d c822 703d 7e07 b9bc
00000190: a559 f43c 8f9b bfbc d99a 82bc 89f7 12bd
000001a0: b6ef f83b db6c 91bb 9831 373d 5b8d 8ebc
000001b0: 1634 02bc c544 bcba 82be 5e3d 40ce 603d
000001c0: 217f b23c 2051 40bd 6911 44bc 4192 223d
000001d0: c6a1 da3c a52b 473d 6baa 383b 7d77 5b3c
000001e0: 6b9c 103d ecd5 443d 6c63 1abb 4e87 74bc
000001f0: 5e4e 553d f7cf a4bc 24b9 0bbd 02e4 053d
00000200: a455 203d 5160 833c d434 e43c 9a82 0f3c
00000210: e25d 21bd d8a7 453d 3e9f 1a3c 814e a3bc
00000220: fd58 2b3d a650 01bd 7d9e 2dbd 1df3 013d
00000230: 6fd8 55bd 5145 50bd cb9f f23c 83be 33bd
00000240: 9e58 ffbb cbdd 6d3d e8e8 20bd a73d 463d
00000250: da02 583b 9bd3 8a3c a913 f33c ee01 063d
00000260: cffa e53c 4ac4 11bd 22bb 89bc 3a4a 76ba
00000270: 87a4 f6bc 73d5 9c3c d5e4 89bb 317b 82bc
00000280: 4919 74bc dc74 ee3c ca0a 0b3c 877d 4ebd
00000290: 4ef3 943c 58c0 363d 2ffd cbbc 72f6 e1bc
000002a0: 0f3b 9e3b 0fa7 503c 838e 593c 6872 83bc
000002b0: 5ac8 c43b 8004 233d a515 88bc c41d 263d
000002c0: cd4c b4ba d9fa 57bd 79a6 bd3c 22a8 aa3c
000002d0: 1e32 16bc bced 313d 5af1 f23c e02d 8abc
000002e0: 2337 7abc 1c14 3abd 36bb 983c 9476 3a3c
000002f0: 36c6 143d b605 563d f640 043d 8243 26bd
00000300: ba3f 813a f6ec 3c3d e59c 2ebc ad26 db3c
00000310: 69ef 0d3d ab98 48bd 5fd8 433c 6b8b b23a
00000320: 5dc1 c23c 474b 063d 19a6 ad3c 3f3e b83c
00000330: 882b 3dbb 62ca 3a3c a32f 5d3b 80ca 6439
00000340: 0e94 60bd 2a15 ecbc 2bad c03c a490 3c3d
00000350: 625b 00bd d3bf fabc 2687 523d cc46 6fbd
00000360: 28c5 eabc 7a8c 1f3d 190d 93bb 1fbf 3abd
00000370: 94f4 a0bc 4b60 8f3a ee87 f23c b9a2 a13b
00000380: ecd8 42bb 3b0f 043d d109 d2bc d0a0 e73b
00000390: dcc2 10bd 1640 ddbc 22d2 633b 9286 593d
000003a0: 4284 2b3d 4133 2b3c f80c fe3c 72f7 15bd
000003b0: 956e 063d 8c64 e8bc 27c8 4cbc 0ac3 643d
000003c0: ce4b 413d d36b 393b cba0 58bc 6b87 603d
000003d0: 8353 c5bc 3a3b c9bb 76e7 4d3d 0954 88bc
000003e0: 4dc1 ecbc 7e1f 103d 5694 23bd 5ef5 c83c
000003f0: 0f84 f03c fa45 fd3a 8351 6c3d 7bbd 473d
-0.054502584 -0.026554693 -0.02577926 0.02810199 0.0018044787 0.04777799 -0.015057358 0.005673731
0.017201867 0.04251364 -0.029323302 -0.011305583 -0.006230353 0.059201777 -0.038121942 -0.052834965
-0.033830665 0.0148562705 -0.00873516 0.0050449725 0.00080290716 -0.042130418 0.06887753 0.05573698
-0.018366605 0.021785209 -0.033612832 -0.008533587 -0.002477848 -0.026718434 0.0357089 0.014030838
0.048564952 0.05441335 0.010795884 0.023963822 0.0076373713 -0.031821538 0.0052787587 0.035321478
0.033109188 -0.050411932 -0.0042204955 0.05382187 -0.006747753 0.005862967 -0.05076523 -0.05356508
-0.040923353 0.010625833 -0.032934204 0.04360335 0.02454733 -0.05427738 0.028948538 0.0500079
0.049425684 0.057078175 -0.015770635 -0.005564913 0.058836717 0.030649617 -0.03634629 -0.048495535
-0.02383968 0.01585386 0.03937522 -0.03631809 0.048303824 -0.0040059667 -0.03836574 -0.019016858
-0.029358188 -0.0015147468 -0.045733556 -0.022029059 -0.039920025 -0.039996017 0.008420859 -0.012901225
0.037764713 -0.023681194 0.025076827 -0.03555656 -0.010295778 -0.0002566096 -0.040445257 0.005778346
0.055604972 -0.008291413 0.031807467 -0.028267585 -0.0094969245 0.052112382 0.040401895 0.045456823
0.051951878 0.054678254 0.05862692 -0.02258658 0.029827902 -0.023389606 -0.015942978 -0.0358806
0.007596935 -0.0044380254 0.04472503 -0.017401388 -0.007946989 -0.0014363757 0.0543809 0.054884195
0.021789135 -0.046952367 -0.0119670415 0.03969026 0.026688468 0.048625607 0.002817775 0.013395187
0.03530542 0.048055574 -0.0023557795 -0.014924837 0.05207669 -0.020118697 -0.03411211 0.03268815
0.039144173 0.016037138 0.027857222 0.008759165 -0.039396174 0.04825577 0.00943738 -0.019934895
0.041832913 -0.031571053 -0.042387474 0.03172599 -0.05220836 -0.050847355 0.02961721 -0.043882858
-0.0077925464 0.058072846 -0.039284617 0.04839864 0.0032960684 0.016946604 0.02967246 0.032716684
0.028073696 -0.035587586 -0.016812865 -0.0009395216 -0.03010775 0.01914475 -0.004208187 -0.015927883
-0.014898607 0.029108457 0.008486459 -0.05041268 0.018182423 0.044617027 -0.024901 -0.027583335
0.0048288177 0.012735142 0.013278606 -0.016045764 0.006005329 0.039799213 -0.016611883 0.04055573
-0.0013755799 -0.05272946 0.02315067 0.020832125 -0.009167222 0.04343961 0.029656101 -0.016867578
-0.015271935 -0.045429334 0.018643957 0.01138081 0.03632184 0.05225154 0.032288514 -0.040591724
0.0009860911 0.04612442 -0.010657524 0.02675184 0.034652147 -0.04897372 0.011953442 0.0013621872
0.023773843 0.032786634 0.021197366 0.022490619 -0.0028865058 0.011400791 0.0033750318 0.00021819212
-0.054828696 -0.028818686 0.023520073 0.046036378 -0.03133715 -0.030609047 0.05139842 -0.058417127
-0.028658465 0.03895233 -0.0044876453 -0.045592424 -0.019647874 0.0010938732 0.029605832 0.004932728
-0.0029731346 0.032241087 -0.025639446 0.007068731 -0.035342082 -0.027008098 0.00347627 0.053106852
0.041874178 0.010449232 0.031012043 -0.036612935 0.032820303 -0.028368257 -0.012498892 0.055850066
0.047191434 0.0028293028 -0.01322193 0.054816645 -0.024087673 -0.0061410936 0.050269566 -0.016641634
-0.028900767 0.035186283 -0.039936386 0.024531063 0.029359845 0.0019323223 0.057694923 0.048764687

encoder.2.bias f4 [64]
00000000: 3247 29bd eb86 ad3b 27fe 09bd c33d 343d
00000010: 7efd 8dbd afc2 c63c 013f 023d 355a 193d
00000020: 2c24 b7bb 50d0 c53c 87e1 ea3d 7de3 5dbc
00000030: 1737 77bc 7f89 69bc a6ac 5d3d 9ae7 b63d
00000040: dc50 433d 3282 acbb b091 133e c7a6 063c
00000050: 5830 3639 c49c 6d3c ed68 31bd 1cec 16bd
00000060: bf06 3d3d 3c99 94bd c6e7 32bd d290 23bd
00000070: 5380 06bd 4e9f 4f3d 30d5 0c3b 06be 0dbc
00000080: e214 25bd 4d6d 8b3c b240 dcbb e422 17bb
00000090: 8a6e aa3b 4d22 79bd 708d 443d 5062 4bbd
000000a0: ac75 bd3d 3afb ce3d 55ff dbbc 237e d2bc
000000b0: 2a74 efbd da67 01bd f1dc 4dbd 2f43 063d
000000c0: 18bd 56bd e19f aebc a608 db3c 94f3 793d
000000d0: 4217 f53c 57b9 5d3d 13d2 0bbd bd61 203c
000000e0: c6cb 54bc d3ce e4bb 1a70 373d 550a 383d
000000f0: 0e4e ebbc 4062 803d 1d4b bdbc 2327 753b
-0.041327663 0.0052956245 -0.033689644 0.044004213 -0.069331154 0.024262754 0.031798366 0.037439544
-0.005589029 0.024147183 0.11468797 -0.013543007 -0.015088818 -0.014253973 0.05411973 0.08930893
0.047684535 -0.005264544 0.14411044 0.008218474 0.00017374882 0.014502708 -0.043312956 -0.036846265
0.04614901 -0.0725579 -0.043678068 -0.039933033 -0.032837223 0.050689034 0.0021489374 -0.008651262
-0.04030312 0.017019892 -0.0067215795 -0.0023061568 0.0052011656 -0.060823727 0.047986448 -0.049654305
0.0925096 0.101065114 -0.02685515 -0.025694912 -0.116920784 -0.03159318 -0.050259534 0.032778915
-0.052426428 -0.02131647 0.026737522 0.06102331 0.029918317 0.054131832 -0.03413589 0.009788928
-0.0129880365 -0.006982663 0.044784643 0.04493173 -0.028723743 0.0626874 -0.023107106 0.003740736

encoder.5.weight f4 [128, 64, 3, 3]
00000000: 423f 03bd 0141 23bc fb51 14bd edf5 0a3d
00000010: 392f f7bc ecc9 c83c 19ac b9bc c27b 51bc
00000020: 94ee 783c 19d8 a6bc 5638 20bd 3021 55bc
00000030: 7101 d43c f821 1dbd 578e 0f3c d106 44bc
00000040: 8962 26bd 6ad0 a33c 933a 79ba c3b2 b0bc
00000050: ed1e 133d e209 1abd 274f 3fbc 5147 aa3c
00000060: 3a78 39bb 59d2 043d 52f3 0bbd cbb2 16bc
00000070: c836 3fbc 1a33 7cbc cedd 073d fdf3 9a3c
00000080: ef9c 86bc c701 fa3b 9050 18bc 8a46 6f3b
00000090: 8719 253d 2726 db3c 681e 053d 017a 6c39
000000a0: 197f 0abc b512 83bc bc62 d43c 2909 19ba
000000b0: 6ed4 c2bc c627 45bc 7229 1dbd 7533 c03c
000000c0: 8b70 efbb 5025 0c3c 88d8 fcbb 5cf7 5c3c
000000d0: bdf8 273d 849a b13c 65ed a43a 7bf7 143d
000000e0: 9c12 0ebd f1be 04bd 6709 12bd 6a7d db3b
000000f0: b5e4 21bc 17eb 24bb 7083 083d a55e a9bc
00000100: e271 ab3c 89e6 e7bc a815 813c a043 d6bc
00000110: 1587 123d b20f e9bc 5651 0d3b 17b2 1b3d
00000120: 4153 143d 0ef2 5f3c 08e7 9dbc 4d53 17bc
00000130: bd68 22bd 0778 adbc 75cc a13c cd18 e43c
00000140: cb8f ef3c 8b20 e33c dba3 56bc 377d 17bd
00000150: 22c4 60bc bcbd 0a3d fd0b a33c bb41 5c3b
00000160: 05ab 123d 2afc b7bc 206c c2bc 3711 dfbb
00000170: c2b1 eebc da89 0b3d bcc6 23bc 7636 51bc
00000180: e0c5 0e3d 25af 333c e627 9a3a 49bf d53b
00000190: ae98 523c 814a 143d 3534 e8bb 6f46 d83c
000001a0: 6f21 993c 822c 05bd 1b23 2abd 8e12 243d
000001b0: 3550 96bb ae1a e5bc 442f d0bc 9963 01bd
000001c0: fc64 1abc 1dec 19bd 0e0f 0abd 0b27 ee3c
000001d0: 1011 dabc 7cec ad3c 661f aebc dcd8 39bc
000001e0: cd31 91bb 60bc 15bc 5604 c13c 71bd 20bd
000001f0: a79d 97bb ab77 9cbc c1fa cfba 1bc0 14bd
00000200: 1cce a5b9 32a5 afba 6beb 6dbc 6622 33bc
00000210: 0238 843b 7656 d2bc 239b 7c3b 2322 d4bc
00000220: 19b0 19bd 3498 cf3c 59c3 cdbb c336 0abd
00000230: eb4f d03c 9421 c73b 8b38 21bd baf1 d93c
00000240: e74f 09bd 99bd af3c 5d0e 15bd cba5 503c
00000250: e069 96bc 86f7 063d ae66 87bc ddf0 e03b
00000260: e75a cd3c bbb6 d43c d8eb 99bc 51f4 f3bc
00000270: 37c2 95bc cc0d aa3b 8476 63bb 2441 91bc
00000280: 946f 89bc db5f 85bc be41 ca3c d265 8f3c
00000290: a181 f33c 0c0c c2bc 1829 b53c a25d 0f3c
000002a0: da72 ec3c 1ddc 033d 9c12 cebc c663 14bd
000002b0: 3fb5 88bc 90c0 5d3c 8f89 85bb e5e1 03bd
000002c0: 53c4 04bd 2b32 693c 15d4 043d eca3 633c
000002d0: a2e2 213d b3f8 9e3c d5c1 893c 9a9e 7e3b
000002e0: d3cf 10bd cbde 023d 4e28 bd3c 7a8c 283d
000002f0: 264f 03bc f1b5 173d 509e e7bc 6c30 da3a
00000300: ba90 1ebc 942c bcbc 30cc bcbc e0a5 29bd
00000310: df91 6abb e4d6 a2bc c638 b3bc 7d99 82bc
00000320: 41ed 1bbd eba8 26bd 769f f33b bc95 f93c
00000330: 4037 7f3c 3d40 28bd db29 fa3c 05cf 103d
00000340: cd58 273d 2430 37bb f0f2 fe3c 3360 593c
00000350: 519a b4bc efa7 23bd e18e 133d 52c5 cabb
00000360: 42bd 10bc 5476 01bb 78cb e6bc 2697 2abd
00000370: 5bef 1fbd 636e 513c a0f0 d3bc bcaf 87bc
00000380: e7a6 ceba 62d2 733c 7c08 153d be53 7abc
00000390: d877 3d3c 72b4 b0bc db48 2cbc b527 f13c
000003a0: 02e0 073c 456d 1fbc 3e1b 8c3a 04b1 2b3c
000003b0: cc9b 243d d049 11bb d203 0c3d b40d 653c
000003c0: cafa 123d aff3 cbba 8df0 53bc 18ce 5e3b
000003d0: 22f8 303c 7c5b 5f3c 0471 33ba e5f3 34bc
000003e0: 2ef5 c6bb e568 e33c b7b9 c5bb 816e a2bc
000003f0: 16ba 84bb d271 263b 30e5 063d 5bd1 f8bb
-0.03204275 -0.009964229 -0.036210995 0.03392594 -0.030173885 0.024510346 -0.02266507 -0.012785854
0.0151936 -0.020366715 -0.039116226 -0.013008401 0.025879594 -0.038362473 0.008761964 -0.011964516
-0.040621314 0.01999684 -0.00095073244 -0.021569615 0.035918165 -0.03760708 -0.011676586 0.02078596
-0.002830042 0.032427166 -0.034167595 -0.009197901 -0.011670776 -0.015393043 0.033170514 0.01891517
-0.016432254 0.0076296064 -0.009296551 0.003651055 0.040307548 0.02675159 0.0324997 0.00022552164
-0.008453154 -0.016000131 0.025925986 -0.0005837852 -0.023782935 -0.0120334085 -0.038369603 0.023462037
-0.0073071173 0.008553818 -0.007716242 0.013486709 0.0410087 0.021680124 0.0012582956 0.03636883
-0.034685716 -0.03240866 -0.035653498 0.0066983 -0.009881188 -0.0025164539 0.033328474 -0.020675013
0.020928327 -0.02830817 0.015757397 -0.026155293 0.035773356 -0.028449867 0.0021563373 0.038011637
0.03621221 0.01366855 -0.019275203 -0.009236169 -0.039650667 -0.021175398 0.019750813 0.027843857
0.02924337 0.027725479 -0.01310059 -0.03698465 -0.013718637 0.03387235 0.019903177 0.0033608514
0.03580763 -0.022459108 -0.023733199 -0.006807472 -0.029137496 0.034067012 -0.009996112 -0.012769332
0.034856677 0.010967051 0.0011761158 0.006523047 0.0128537845 0.036203865 -0.0070863017 0.026400773
0.0186927 -0.03251315 -0.041537385 0.040056758 -0.004587198 -0.027966823 -0.025413163 -0.031589124
-0.009423491 -0.03757869 -0.033705764 0.029071352 -0.026619464 0.021230929 -0.021255206 -0.011343207
-0.0044309855 -0.00913915 0.023561638 -0.039243165 -0.004626948 -0.01910003 -0.0015867577 -0.03631602
-0.00031624816 -0.0013400672 -0.01452146 -0.010933494 0.004034997 -0.025675993 0.0038544617 -0.025895184
-0.037521455 0.02534113 -0.006279391 -0.03374363 0.025428733 0.006077001 -0.039360564 0.026604522
-0.033523466 0.021452712 -0.03639065 0.012734841 -0.018361032 0.0329509 -0.016528454 0.0068646506
0.02506776 0.025966039 -0.018789217 -0.029779585 -0.018281085 0.005189633 -0.0034708092 -0.017731257
-0.016776837 -0.016281059 0.024689551 0.017504606 0.029724898 -0.023687385 0.022114322 0.008750351
0.02886336 0.03219234 -0.025155358 -0.036227964 -0.016687987 0.01353468 -0.004075236 -0.03219785
-0.032413792 0.014233152 0.03242882 0.0138940625 0.039522775 0.019405698 0.01681606 0.0038851858
-0.035354447 0.031950753 0.023090508 0.041149594 -0.008014476 0.037038747 -0.028273731 0.0016646511
-0.00967806 -0.022970475 -0.023046583 -0.041417956 -0.0035792512 -0.019877858 -0.021877658 -0.01594233
-0.03806806 -0.040688436 0.0074347807 0.030466907 0.0155771375 -0.041076887 0.030537536 0.03535368
0.04085617 -0.0027952278 0.031121701 0.013267565 -0.02204624 -0.039955076 0.03602493 -0.006188073
-0.008834185 -0.0019754367 -0.028173193 -0.041648053 -0.039046627 0.012782666 -0.025871575 -0.016563289
-0.0015766294 0.014881702 0.036385044 -0.015278755 0.0115642175 -0.021570418 -0.010515417 0.02943788
0.008293154 -0.009730642 0.0010689271 0.0104792155 0.040187642 -0.002216924 0.03418333 0.013980318
0.035883702 -0.0015560294 -0.01293577 0.0033997353 0.010801347 0.013632651 -0.0006845149 -0.011044477
-0.006071708 0.027759979 -0.006034102 -0.019828083 -0.0040505035 0.0025397432 0.032933414 -0.0075933165

encoder.5.bias f4 [128]
00000000: c059 01bc 5235 173d 08df 0e3d 7872 bdbc
00000010: 14db ae3c b0a6 7b3c 09cd 1f3d 1fb7 bcbc
00000020: 5f04 7a3c 8c32 343c a938 9cbb 2e6d 273d
00000030: 33ab b13c ecbf d5bb 36c3 963c 62e0 e0bc
00000040: 8aa0 803c 598d 02bd a3d9 463d 1b34 da3c
00000050: 704b aa3c 3459 1cbd c34f a53c 4736 debc
00000060: e17f ed3c 97f1 2a3b 8d51 b4bc 2678 16bb
00000070: 2662 433c 7a39 0d3c 898c 05bd f33d 2f3d
00000080: 528d 8a3c 7c75 1cbd 483b b73c 1b38 6fbb
00000090: 519a a83c e621 edbc 131f d63b 342f 11ba
000000a0: 0612 c83c 6995 063d e8af 28bc 4019 783c
000000b0: a193 45bc 4ee0 b7bc 92c4 ce3c 7a02 6a3d
000000c0: b10d 053a cb5a 473d 988e ac3c 858c 093d
000000d0: 654a bbbc 1a10 b2bc f98d e83c 9e6f 123c
000000e0: de7a 163c 4485 c73c e65d f0ba e0ba 91bc
000000f0: 9161 cb3c 447a 2d3d fc3d 403b 1212 a33d
00000100: 4c1c e43c df23 7ebb 6bd0 c53b ff0a b63c
00000110: 0a5a 6dbc 6b5d f83a b28f 7f3d b5f8 8d3c
00000120: 9770 693d eeb0 f5bc 18f3 9cbc 1e24 853b
00000130: 9f38 f03c f631 963d c568 7f3d 98cc efbc
00000140: b779 213d ed03 02bd 041b bc3c b735 33bc
00000150: e20a 963c b9b4 883b 64a9 8ebc b059 a8bc
00000160: 2c96 ef3b d73b 063d b6ba 063d 0d78 f4bc
00000170: aa0f 23bd dce1 463c 1b18 d9bc 195d 0a3d
00000180: da48 3b3d 0b38 03bd e5a6 b5bc acd2 60bc
00000190: 2abb 343d accb eb3b fc63 77bc 36e1 3cbb
000001a0: b3b1 253d 15a5 913c fd76 9c3c b4b9 db3b
000001b0: 6fb7 223d d52e 133d 7f90 3bbc 6dc7 003d
000001c0: 5a85 7dbb c71f 9fba 9125 973c 3a0e 21bb
000001d0: bcce 02bd 9e23 d33c e2dd 8a3d e0b9 823d
000001e0: e4e5 75bc ef21 283d 585e 44bc f850 dcbc
000001f0: 90b5 68ba 5168 153d 91e1 0ebd 37d0 d9bb
-0.007894933 0.036916085 0.034880668 -0.023125872 0.021344699 0.015359566 0.039013896 -0.023036538
0.015259831 0.010998379 -0.0047674966 0.040875606 0.02168808 -0.006523123 0.01840363 -0.027450744
0.015701551 -0.03187308 0.0485474 0.026636174 0.020787925 -0.03817101 0.020179635 -0.02712549
0.028991641 0.002608394 -0.022011543 -0.0022959798 0.011925256 0.0086196605 -0.032604728 0.04278369
0.01691309 -0.03819798 0.022367135 -0.0036501947 0.020581396 -0.028946828 0.006534466 -0.0005538345
0.024422657 0.032857332 -0.010295846 0.015142739 -0.012059123 -0.022445824 0.025240216 0.057131268
0.00050755875 0.04867057 0.021064088 0.033581275 -0.022862623 -0.021736193 0.02838801 0.008937744
0.009184567 0.024355538 -0.0018338531 -0.017789304 0.024826797 0.04235293 0.002933382 0.07962431
0.027845524 -0.0038778705 0.0060368082 0.02222204 -0.014486799 0.0018948739 0.062392898 0.017330507
0.05699214 -0.029991593 -0.019158885 0.0040631434 0.029323874 0.07333748 0.062355775 -0.029272363
0.039422717 -0.031742025 0.0229621 -0.0109381 0.018315736 0.0041719344 -0.017414756 -0.020550579
0.007311603 0.03277191 0.032892905 -0.0298424 -0.03980986 0.01213881 -0.026500752 0.03378019
0.045723774 -0.03203587 -0.022174308 -0.013722103 0.044123806 0.0071959104 -0.015099522 -0.002882076
0.04045267 0.017778913 0.019099707 0.006705487 0.039725717 0.035933334 -0.011448025 0.031440187
-0.003868422 -0.0012140208 0.01845053 -0.002457513 -0.03193544 0.02577382 0.06780602 0.06383109
-0.0150084235 0.041047987 -0.011985384 -0.026894078 -0.00088771526 0.036476437 -0.034883086 -0.0066471356

decoder.0.weight f4 [64, 128, 3, 3]
00000000: 2a42 9c3c 5b21 93bc aa64 c0bb 02e1 97bc
00000010: e80b dc3c 41bd a6bc f6e6 2dbc 7c11 35bb
00000020: 46d0 803c f674 61bc 9374 8d3c 662f 863b
00000030: e0d0 723c e251 223c 1dc8 0fbc 01af 88bc
00000040: 2b91 953c 224e a53c 916c 29bc f845 ac3c
00000050: a264 403c 8075 483c 63ec df3c affd bb3c
00000060: 7fc9 313c 38ea 3cbb f936 55bb 4dfb 55bc
00000070: 68c7 163a f927 e23b 0208 563c d194 79bc
00000080: 8570 583c 0704 a4bb 8d0d 083c 7bd5 223c
00000090: dd54 f0bc d9c1 a13c b440 b03b 2bf3 d13c
000000a0: bce8 89bc 0bb6 c5bc 9a67 e93c 0844 e43c
000000b0: ede1 b0bc ed69 e63c c2fb 123c eef6 cdbb
000000c0: 7f91 963c 95ec 69bc 99ee 3d3c 1736 173b
000000d0: fe8f 9abc 8bfb 2438 f684 a93c 8122 c93c
000000e0: 441b 7a3c 61b5 e5bc 9463 053c 9311 7fbc
000000f0: 765a 62bc f735 7b3c 6f2c 97bc ca42 c1bc
00000100: 201c bdbc c88d 73bc 9ee8 94bc 5ade 2abc
00000110: 3ab2 19bc 1cf5 04bc b2d8 c3bc 4cc0 9fbc
00000120: f335 e2bc 1bb7 a6bc 5c03 8eb8 87fe 3cbc
00000130: b840 daba d8e6 7e3a 0188 d83c 51be 29bc
00000140: f5c7 b5bc 0f8e e7bc c29e 583c 4cba 5a3c
00000150: b3e1 dcbb 35e2 a1ba 3679 08bc fbf4 8ebc
00000160: 00a8 cfbc 495a e43b 4c6c b63b 06a9 ae3c
00000170: 6266 9539 4b66 97bc 74f4 873b 4f57 a8bc
00000180: bb0a 6c3c c5a2 bbbc 4895 3abc 2843 8fbc
00000190: 4c4a df3b 3fdc a9bc 702f babb e78b 44bc
000001a0: a802 a4bb 5e55 8b3c f4f5 c83b bbe7 0fbc
000001b0: 8336 fabc 6d08 76bc 8199 3ebc 9608 e5bc
000001c0: 7d2b e93c b816 a33b a019 01bc 76b4 9fbc
000001d0: d093 953c e03e a23c 1ee5 5e3c d6df 843c
000001e0: 5447 3b3b 637f f4bc e2b8 d6bc 2d15 d7bc
000001f0: 6ed5 523a 1e6c b13c f8e6 8fbc 2337 d1bc
00000200: 9706 883c e41a f23c 9631 3b3c 0461 63bb
00000210: 3678 a33c 52a9 7cbc 32af f33c 8382 ab3c
00000220: ebd3 713b e8e3 6f3c 2bc3 0e3c e0c1 863c
00000230: 6a1d f73b 336c af3c 8766 043d 568e a0bc
00000240: 70f2 6e3a f531 983c d646 b93a 98de a63c
00000250: 1eeb e33b 75cb b23c 9cfe b1bc 0b7b d13c
00000260: 8eee be3c f4ad 843c c9c6 7cbc 8f75 d4bc
00000270: 27bc 38bc 7c38 e8bb cdde 84bc d2c2 c53c
00000280: 5328 bdbc d1a1 3b3b 63c0 debc 0613 a4bb
00000290: 4b4f a03c dda5 a0ba 9188 063d ee89 89bc
000002a0: 2ed9 bbbc 8dc0 b93c 0997 2bbc c043 883c
000002b0: dccb 6fba e0ae e83c 8dc4 443c 3f21 c73c
000002c0: eb07 c73c 7c66 533c 7b16 f7bb a0ee ac3c
000002d0: 1cd3 40bb 3fce ce3b 7116 ba3b 50a3 09bc
000002e0: 6c24 d1bc 7e2c a8bc d7b8 873c 9144 d53c
000002f0: 8265 083c 3e0e f0bc e8ef 9fbc b494 55bb
00000300: 1acd c0bb 1a15 893c 7aec 58bc 142d d6bc
00000310: 4b11 87bc 1b1a 4b3c 2310 2cba d59d d5bc
00000320: 3726 4f3b bd9e cfbc 586a 05bc d286 c0bc
00000330: ef92 e23c 0cc9 59bb 89d6 813c 3b3c 8d3a
00000340: 43ed 4a38 893f 853c d5c8 8db8 a6e4 103c
00000350: 6436 b13b 5c4e f8bb 6a24 43bc e551 e83c
00000360: bdaf d33c c0cc 97bc 0b4e fbba 7ea2 4a3c
00000370: 61d7 173c 32e0 d9bc 6bc0 aa3c f5bb 42bb
00000380: e5a8 a03b 440c 8cbc 80f1 b73c e1a9 ab3b
00000390: 926d 033c 3a27 933b 9f9c 43bc d212 583c
000003a0: 7c87 5d3c e45d 61bc 88e6 be3c 39c2 bfba
000003b0: e5e2 f23b 713e 7b3c 9d45 573b 444a fc3b
000003c0: 352c 9ebc 6885 073c f6eb c63c 75db 853c
000003d0: 61f2 453c fe8f 7a3b 07b4 7a3a 25f7 993c
000003e0: 30a7 293c 84ab f7bb e8d2 81bb 9b88 39bb
000003f0: 5caa 143c d065 a03c 49a7 763c 12ac e8bc
0.019074518 -0.017960241 -0.005871375 -0.01853991 0.026861146 -0.020353915 -0.010614147 -0.002762883
0.015724313 -0.013760796 0.017267501 0.004095006 0.0148203075 0.009907218 -0.008775738 -0.01668501
0.018257698 0.020178858 -0.010340826 0.021029457 0.011742743 0.012235045 0.027334398 0.022948114
0.010851263 -0.0028826129 -0.0032533987 -0.013060403 0.000575176 0.006901738 0.013063433 -0.0152332345
0.0132104205 -0.005005363 0.008304012 0.009938593 -0.029337341 0.019745754 0.005378807 0.025628647
-0.01683461 -0.024134656 0.028491784 0.027864471 -0.021592105 0.028126681 0.008971157 -0.00628554
0.018379925 -0.014277597 0.011592531 0.0023073012 -0.018867489 3.9334915e-05 0.020693284 0.024552586
0.01526529 -0.02804059 0.008141417 -0.015568155 -0.013815513 0.01533269 -0.018453805 -0.023591418
-0.0230847 -0.014865346 -0.018177327 -0.010428989 -0.009380871 -0.008115079 -0.02390704 -0.019500874
-0.027613616 -0.020350983 -6.7717134e-05 -0.011535293 -0.0016651368 0.00097237295 0.02643204 -0.010360316
-0.022190074 -0.028265981 0.013221445 0.013350081 -0.0067407726 -0.001235074 -0.00832968 -0.0174508
-0.025348663 0.0069687706 0.005567109 0.021320831 0.00028495776 -0.018481394 0.004149014 -0.020549444
0.014406855 -0.022904763 -0.0113881305 -0.017488077 0.006814277 -0.020734904 -0.0056819245 -0.011996246
-0.0050051995 0.01700848 0.0061328355 -0.008783276 -0.030543571 -0.015016657 -0.011633278 -0.027958196
0.02846312 0.0049770735 -0.007879645 -0.01949523 0.018258959 0.019805372 0.0136044305 0.016220015
0.002857645 -0.029845899 -0.026211206 -0.026255215 0.0008042668 0.021658 -0.01756619 -0.025538987
0.016604705 0.029553838 0.011425396 -0.0034695277 0.019954782 -0.0154212285 0.029746626 0.020936256
0.0036899995 0.014641739 0.008713524 0.016449869 0.007541348 0.021413898 0.03232434 -0.019599121
0.00091151055 0.018578509 0.0014135491 0.020369813 0.0069555184 0.021825531 -0.021727853 0.025571367
0.023307111 0.016196229 -0.015428253 -0.025934963 -0.011275328 -0.0070868116 -0.016219521 0.02414075
-0.023090517 0.0028630386 -0.027191347 -0.0050071506 0.01956906 -0.0012256462 0.032845084 -0.016789403
-0.022930708 0.022674823 -0.010473021 0.016633868 -0.0009147504 0.0284037 0.012009752 0.024307845
0.024295768 0.012902852 -0.0075405217 0.021109879 -0.0029422706 0.0063112075 0.0056789448 -0.008400753
-0.025530063 -0.020529028 0.01656763 0.026033672 0.008324983 -0.029303666 -0.019523576 -0.0032589855
-0.005883825 0.016733695 -0.013239974 -0.026144542 -0.016487738 0.012396361 -0.0006563684 -0.026076237
0.0031608471 -0.025344247 -0.00814303 -0.023501787 0.027657954 -0.0033231406 0.015849369 0.0010775396
4.838152e-05 0.016265647 -6.760812e-05 0.008843577 0.005408095 -0.0075777005 -0.011910537 0.028359363
0.025840634 -0.01853025 -0.0019173039 0.012367843 0.009267659 -0.026596162 0.020843705 -0.0029714082
0.0049029463 -0.017095692 0.022454023 0.005238757 0.008021729 0.00449076 -0.011939197 0.013188081
0.0135210715 -0.013755295 0.023303285 -0.0014630026 0.007412302 0.015334711 0.003284789 0.007699283
-0.019308189 0.008271553 0.024282437 0.016339997 0.012081713 0.0038232799 0.00095635693 0.018794606
0.010354802 -0.007558288 -0.0039619096 -0.0028310183 0.00907382 0.019579798 0.015054532 -0.028402362

decoder.0.bias f4 [64]
00000000: fb1b 6a3d 38ec 63bc c4ab 603d c07b fb3c
00000010: 861b 08bd 9236 97bb 44fd 6fbc c6f4 03bd
00000020: 490e 883b e3f0 023e b28e f73d 74c4 663c
00000030: c04e ad3c 89ca 2a3d 8221 6f3d 5368 8b3c
00000040: eec2 b1bc ee36 903a ddc7 5d3d b550 1abd
00000050: c4f4 0e3e 0487 cc3c db33 363d 8dd0 76bc
00000060: 8bdb 4f3d e786 893d 05e8 abbc 0f1d bb3c
00000070: e5bb c43c 3250 703a 68aa a63b f41a 0b3d
00000080: 988b 9e3d cdef 883b 5a83 cc3c 5f19 30bc
00000090: 1223 b93b a7d7 3abc d527 1d3e 4379 5abb
000000a0: cb65 a13b d820 05bd 025f 043e d0f8 16bd
000000b0: bb00 d13c 07ab ba3d 4826 993d e721 7bbc
000000c0: 9b39 3e3d 8536 cfbc 3d31 e73c 02a9 a4bc
000000d0: 0ecf 7ebc 66d6 053d 169e 543c b34e d9bb
000000e0: d68b c1ba 9d09 383d f4ed 693d 291f 35bb
000000f0: 0978 37bd c340 9f3b 06ec fdba 2a3f a43d
0.05715559 -0.013911299 0.05485131 0.030698657 -0.033229373 -0.0046146596 -0.014647786 -0.032215856
0.0041520935 0.12787203 0.12087764 0.014084924 0.021155715 0.04169706 0.058381565 0.01701752
-0.021699395 0.0011002698 0.054145683 -0.037674624 0.13960558 0.024966724 0.044483047 -0.015064371
0.050746482 0.06715184 -0.020984659 0.022841005 0.024015376 0.00091672235 0.005086232 0.03396125
0.07741469 0.004178977 0.024964977 -0.010748236 0.0056499327 -0.011403955 0.15347226 -0.0033336438
0.0049254647 -0.032502025 0.12926868 -0.03685838 0.025513044 0.09114652 0.07478005 -0.015327907
0.046441656 -0.025294552 0.02822172 -0.02010012 -0.015552295 0.03267517 0.012977144 -0.006631696
-0.0014766406 0.044931043 0.057111695 -0.002763698 -0.04479221 0.004860015 -0.0019372709 0.0801986

decoder.2.weight f4 [64, 32, 4, 4]
00000000: b595 1e3d 5416 b13b 0cb6 81bc 41a1 2dbd
00000010: c62a c9bc 5769 8a3c 59f0 33bc cae2 9dbc
00000020: 474d 953c 6aa2 2fbd 26cc 03bd a4d2 e13c
00000030: 3acf 2cbd aa5f c53c 1366 02bc ed5c 07bd
00000040: f9e8 0ebd 4e0d 00bd 5fb0 ffbb 3a97 f73c
00000050: 46a6 003d 3a77 6bbb 3095 29bd 2527 b93c
00000060: daab 263d 74f5 cebc 38c3 8d3c 1bdd 213d
00000070: 326c b6bc ef85 0c3d a885 22bd a26f 093d
00000080: 595d c63c b267 083d 6b1c c3ba d138 0bbd
00000090: d797 87bc 4355 92bc 0fd4 81bc fdbb cabc
000000a0: effe 733c cae4 1d3d ff3f f33c aed1 973c
000000b0: 932d d3bc 9799 683c 0c9a a33c d86a 2bbd
000000c0: 4bf1 e03c bcad 2eba eb32 293d d712 babc
000000d0: 9a26 e53c d624 423d 87f1 1f3d 263f 86bb
000000e0: dd81 b7bc 6d58 2d3d af66 a53c 0ed7 be3c
000000f0: 7819 53bc 6c6e 073d b09a 4c3d 0263 02bb
00000100: a13b a63b ae72 cfba 6204 af3c 66f7 da3c
00000110: 4ad9 1fbd cffd ad3b 201c d4bc 65b4 273d
00000120: 253c 47bc bab9 c83c 7d0e 64bc 0923 8a3b
00000130: 39b0 ce3b 6236 17bd fa6e 8dba 5663 253c
00000140: 842e 283d 3393 c63c 38ca 1bbd 099a 56bc
00000150: 9970 2abd 67e2 f6bb fd10 9bba 0154 f03c
00000160: a1fa 9c3c 51a0 0bbd ec93 9a3c aadd c73b
00000170: 71c4 843b 35e1 16bd aade c73c 1e88 05bd
00000180: 4146 2fbd f333 08bd 66a7 213d 04fe 32bd
00000190: 406e 15bc fda9 42b9 8c30 14bd 23dd 363c
000001a0: 4c77 a43c 3ce1 d0bc f28b e13b 0777 51ba
000001b0: 6d7b 22bc 77a8 f73c f072 3c3c 9f9a ef3c
000001c0: 49cc 013d 0910 1f3d c10c 223c 1c80 2d3d
000001d0: 7bb7 163d 8125 2abd 50d5 0dbd 1f37 f73c
000001e0: 9925 db3c 3dfa 0f3d b088 47bc 234b 20bd
000001f0: 9264 2ebd 8ced 2c3c dda4 3f3c a509 d63c
00000200: 5880 203c 5ab6 afbc 8b3f cabc 385b 2abd
00000210: 9159 eb3b 3cf9 283c 883b 953c c43f 7ebc
00000220: 13b9 2dbd e779 a83a a4a4 ddbb b964 2a3d
00000230: 6030 043d 5579 6abc c767 09bd ee68 81bc
00000240: 4598 7c3c 8a8d d73c ac36 c13c 7a7c f6bc
00000250: d98b 9e3c 125b 16bc 8eb7 8abc e8cc 953c
00000260: 45aa 93bc 8524 0239 c784 5f3c 1b32 413c
00000270: 31f0 b53c f1d7 e5bc d37e 31bd 527c 163d
00000280: 0fae 96ba 8539 13bd 03e3 2abd c467 2fbc
00000290: 063b 36bd 7287 3a3c 96a3 01bd f44b 6cbc
000002a0: a34f 8dba aa9e a0bc 9f2e 16bd 711e e03c
000002b0: c2a8 c0bb d495 a1bc 0733 ef3c 9c6a 04bb
000002c0: ff35 08bd c1b6 4fbc 9573 10bd 8e84 ec3b
000002d0: edc8 443c 3555 443d e74d f9bb df84 263d
000002e0: 8c19 183d 5a20 063d c542 f0bc 5741 10bd
000002f0: ec59 72bc 1f25 513d a8fb 21bc 7a78 2abc
00000300: 60d7 2abd 10cf e3bc 8d99 f4bc 33c1 efbc
00000310: 0278 973c 67ef f3bb df98 47bc 1131 b33c
00000320: 71c6 0b3c 1c2a 003b 04db d63c 5012 e4bc
00000330: adfa c93a 8185 a13c 44f2 b3bc b68e 9b3c
00000340: 338b 203d c395 5bbc 4046 2f3d 4841 2cbd
00000350: a3be 03bd ad46 4cbc a6d6 1b3b e8b5 d73c
00000360: a2d8 233d df24 fa3b 0472 17bd 573e 43bc
00000370: 0682 a5bb 6470 adbc 427b e9bb c3ba 12bd
00000380: 3fe9 7c3c 957f 1abd 5515 aebb 4a60 8e3c
00000390: 1e6b febb 66b0 013d 11c2 34bd 51ad ab3a
000003a0: 025c 283d ec95 aa3c 77da 7e3c f725 17bc
000003b0: d896 803c 1ec3 553b aa0e 2cbd 503f ae3c
000003c0: bf57 eabc fb28 5dbb 7b84 643c 055c 0c3d
000003d0: 8f4f 993c 33d1 253d c0c5 fabb debe ffbc
000003e0: aec4 073d 2446 1d3d b3f0 a7b9 3b5d 6d3c
000003f0: bd61 263d 07d3 bb3b 6d12 3b3c 09e1 183d
0.03871699 0.005404273 -0.015833877 -0.04239011 -0.024556529 0.016895933 -0.010982596 -0.01927318
0.018225325 -0.0428795 -0.032177113 0.027566262 -0.042189814 0.024093468 -0.007958907 -0.033047605
-0.03489015 -0.03126269 -0.0078030075 0.030223478 0.03140857 -0.003592922 -0.041402042 0.022601673
0.040691234 -0.025263526 0.017305002 0.039517503 -0.022268388 0.034307417 -0.039678246 0.033553727
0.024214434 0.033302017 -0.0014885789 -0.03398973 -0.016551895 -0.017862922 -0.015848188 -0.024747843
0.014892324 0.03854827 0.029693602 0.0185326 -0.025778567 0.014196775 0.019970916 -0.04184994
0.027458807 -0.00066634617 0.041308325 -0.022714062 0.027972508 0.04739841 0.039048698 -0.0040968833
-0.02240079 0.042320658 0.020190565 0.023295905 -0.01288449 0.03306429 0.04995221 -0.001989544
0.0050730263 -0.0015827024 0.021364395 0.026729297 -0.039025582 0.0053097974 -0.025892317 0.040943522
-0.012160336 0.024502624 -0.01391947 0.0042156023 0.0063076285 -0.036917098 -0.001079052 0.010094484
0.041059986 0.024240112 -0.038034648 -0.013098248 -0.041611288 -0.0075343135 -0.0011830624 0.029336931
0.019162478 -0.034088437 0.018869363 0.0060994225 0.004051738 -0.036835868 0.024398167 -0.032600515
-0.04279161 -0.033252668 0.039466284 -0.04369928 -0.009120524 -0.00018564607 -0.03617911 0.011161122
0.020076416 -0.025498025 0.006883138 -0.0007990454 -0.009917122 0.030231697 0.011502013 0.029248534
0.031688962 0.03883365 0.009890736 0.042358503 0.036796074 -0.041539673 -0.03462726 0.030177651
0.026751326 0.035150755 -0.012178585 -0.039134156 -0.04257638 0.010554682 0.011697021 0.026127646
0.009796225 -0.021449257 -0.024688503 -0.0415909 0.007182308 0.010313328 0.018216863 -0.015518133
-0.04241283 0.0012853713 -0.0067640115 0.041599963 0.032272696 -0.014311154 -0.033546235 -0.015797105
0.015417163 0.026312608 0.02358564 -0.030088652 0.019353794 -0.009176986 -0.016933229 0.018286183
-0.018025527 0.0001241137 0.013642496 0.011791731 0.022209259 -0.02805707 -0.04333384 0.036739655
-0.0011495965 -0.035943527 -0.0417204 -0.010705892 -0.044489883 0.011384832 -0.03165015 -0.0144224055
-0.001078118 -0.019606907 -0.036665555 0.027358266 -0.0058794925 -0.019724764 0.029199136 -0.0020205146
-0.03325462 -0.012677849 -0.035266478 0.00721795 0.012010795 0.047932822 -0.0076081636 0.04065406
0.03713374 0.032745697 -0.029328713 -0.035218563 -0.014791947 0.051060792 -0.00988666 -0.0104047
-0.041709304 -0.027808696 -0.029858375 -0.02926693 0.018489841 -0.0074443105 -0.012182443 0.021873983
0.008531199 0.001955635 0.026227482 -0.027840763 0.001540979 0.01971698 -0.021966107 0.018988948
0.03919525 -0.013402405 0.042791605 -0.042054445 -0.032164227 -0.012468022 0.0023779063 0.026331857
0.04000152 0.00763379 -0.03697397 -0.011916718 -0.0050509004 -0.021171756 -0.007125289 -0.03582264
0.01543647 -0.037719328 -0.0053126016 0.017379899 -0.007764234 0.031662367 -0.04413039 0.0013097917
0.04110337 0.020823441 0.015555016 -0.00922536 0.015696928 0.003261752 -0.042006172 0.021270424
-0.028606294 -0.003374635 0.013947601 0.034267444 0.018714694 0.04048271 -0.007652968 -0.031218942
0.033146553 0.03839697 -0.00032032057 0.01448756 0.040620554 0.0057319435 0.011417967 0.037323985

decoder.2.bias f4 [32]
00000000: 81f8 6dbc 31aa d5bb dd21 0dbc 6784 c83e
00000010: 97f3 efbc 08e9 b6bc cabe 24bc 342b 17bb
00000020: 318f 9bbc 79e8 f4bb b1a3 dbbb f258 3e3e
00000030: e72c 693e 4eb4 8ebb 12fe a3bd a30c 0cbd
00000040: c6dd adbc 5c69 2cbc 3813 cabc 705b bb3d
00000050: dd94 debc acf8 b93b c893 aabe d4c1 27bc
00000060: 4b2e 90bc 39f4 20be 732e 643e 9a88 05b9
00000070: 4398 f6bc bc77 183e d425 c0bb f92b 60bc
-0.01452458 -0.0065205325 -0.008614031 0.39163515 -0.029290957 -0.022327915 -0.010055253 -0.0023066523
-0.018989177 -0.007474002 -0.006702863 0.18588617 0.22771035 -0.00435499 -0.080074444 -0.03419174
-0.021223914 -0.0105231665 -0.024667367 0.091483 -0.027170593 0.005675396 -0.33315873 -0.010239083
-0.0176002 -0.15718164 0.22283344 -0.00012734756 -0.0301019 0.14889425 -0.0058638845 -0.013682359

decoder.4.weight f4 [1, 32, 3, 3]
00000000: e43f e23b 8f72 e33b 1d62 1abd 016c 75bc
00000010: 2651 543d 39c1 873b 5132 163d a2d4 89bc
00000020: 2df2 04bd 5246 883c 7d20 ee3c ff57 c5bb
00000030: b9d1 9d3c 6e7c 833c 05c2 1e3d cf7b 92bd
00000040: 63b9 25bd 20f2 0a3c a320 b0bc 000f bebc
00000050: acb9 40bd c5a7 a73b e918 e33c 366a 163d
00000060: 6b99 9c3c a8d5 0b3d 4d88 74bd cfed 963d
00000070: c368 49be dcfe 4f3d c2ef 49be 1a96 39bf
00000080: f4a9 10be 4c11 843d 079b 19be 733a 5b3d
00000090: 540d 1fbd 4f0b 363d a3c7 3e3d 01a9 67bd
000000a0: 7d60 893c f717 103d d92a b8bc f0d6 71bd
000000b0: ae20 1e3d 2abf ed3c 4a12 82bc 620a 0ebd
000000c0: ba59 ccbc 8215 b0bb 97a8 423d 847a afbc
000000d0: 0b44 863b 2fcd fc3c fd5b 67bd 02b3 373d
000000e0: 58a3 04bd 605d 49bd 773b 5a3d 57ba c23b
000000f0: e757 f43c f4a7 74bc bf1c 95bd 2998 a7bd
00000100: f095 3dbc a622 c63c b4bb 2bbd e413 6fbc
00000110: c476 a6bb 4db5 883c 464d df3c 36ab d03b
00000120: 75ea 5ebc 4912 083d 29d1 93bd 1a33 233d
00000130: dfcb 60bc 6cb0 11bc 1b2a 90bc e076 90bc
00000140: 840c 0e3d 3b6b a0bc 2558 e6bc 6807 5dbb
00000150: b2e5 31bd d65c ab3c d4d3 0bbd 2970 003c
00000160: cecb 933b fc4a 22bd 46f3 c23c fdbb 80bd
00000170: 490b 9abb 5571 c73c 5633 353d e7be 70bc
00000180: 380c 593d aec7 9cbc 1df0 12bd 54b8 b63d
00000190: d8c7 a4bd d93d 3d3d 82e6 00bd 0861 85be
000001a0: d7cf 35be f7c4 8b3c a569 e2bd 3058 34bd
000001b0: 0206 0b3b 46b7 fcbc 80a0 e93b 0f98 3dbe
000001c0: 9bc6 debe 40ab b0bd e077 953b c307 68bd
000001d0: 708f cf3d 8dc0 163b 2495 a93c 004a 033c
000001e0: 8809 023d 5371 8d3c a4bb a5bc 3c6c 06bc
000001f0: c7a2 83bc f6b3 84bd 286b 12bc 3a0a 9a3c
00000200: 9b20 adbc d7d4 05bd da2a 52bd 3043 82bc
00000210: aa32 86bb 15ce 9f3a 6cf7 2abd 81c9 02bd
00000220: c54c 193a f002 16bc 7027 b4bc e714 f03c
00000230: 8325 9fbc b3fa 863c b3e0 b93c 81da b23c
00000240: 5e0b e7bb 11d1 dc3b 3dff 3cbd f802 263d
00000250: 6e16 abbc 2240 113d cd9a e53c 6e6a 4dbd
00000260: c987 913c ac1e 65bd 96d2 11bc 7d95 77bd
00000270: f481 3d3d cace 39bd 0f35 45bc 0da6 7b3d
00000280: 66e7 ce3b 1183 573d 1f3e 823c 7821 81bd
00000290: 6181 3d3c f287 663c fec5 3a3d f8c9 153d
000002a0: fb3d a83b 0851 e1bc 0d9c 06bd a382 8f3d
000002b0: d4a2 05be 3b21 84bc d333 b8bc d662 44be
000002c0: 8374 9fbd 47f1 373d aa5d fe3b bb19 2e3d
000002d0: 5c32 2a3c 26af 013d 4947 6d39 d7dd e43c
000002e0: f646 8f3c ba01 c9bc b358 40bd 18fe 173d
000002f0: 1529 4cbd 2f01 d73b f4bf 663d 7217 8ebc
00000300: 2684 fc3c 7382 0abc df01 0bbd d068 9abc
00000310: 8b09 ea3a 217b 0bbd c2b2 ddbc da1c 503d
00000320: 823d 34bd 8d7b 24bd da0d 82bc f493 413c
00000330: 8dbf 23bd 761c 2dbc 1d8b ed3c 39a5 8fbc
00000340: 8d32 943c d8df 35bc 7847 ffbb 10d8 3e3d
00000350: 74c9 973c 6e07 1ebd 7ed7 f03b 5a92 04bb
00000360: 97ad 423d f5bb 2bbd ffde c63b b9c7 34bb
00000370: 66f5 133d 2f9e 643d afbe 6cbd 104f b9bc
00000380: d325 6fbc 50cb 2bba bfe4 debc 66cc 2cbc
00000390: cae8 0ebd f6bf 623c 343e 03bd cf9c 3ebc
000003a0: 4c75 3cbb 2b70 75bc b10b 8b3d 52b9 ebbd
000003b0: 535a ce3c a176 ccbd 4049 dfbe 7cb1 57bd
000003c0: a6a1 6c3d 3ece dbbd 10b1 f4ba 52a6 64bc
000003d0: d74b 5bbd 6c5c 7e3c 4ef7 fabc e768 f1bb
000003e0: 7815 833d 76a0 5fbd c212 ca3c 2b94 763d
000003f0: 2b04 fd3a 68f6 dbbc debc bcbc a382 f8bc
0.006904589 0.0069411467 -0.037691224 -0.014979363 0.0518352 0.004142907 0.03666908 -0.016825024
-0.03245752 0.016635094 0.029068226 -0.006022453 0.019265043 0.016050544 0.03875925 -0.07152521
-0.04046 0.008480579 -0.021499937 -0.023200512 -0.04705207 0.0051164352 0.027721839 0.036722384
0.019116124 0.034139305 -0.0597003 0.07369577 -0.1966887 0.050780162 -0.19720367 -0.7249466
-0.14127332 0.064486116 -0.15000544 0.05352254 -0.03883107 0.04444438 0.046577107 -0.05655766
0.016769642 0.035179105 -0.022481369 -0.05904287 0.038605385 0.029021818 -0.015877862 -0.03467787
-0.024945129 -0.0053736577 0.04752406 -0.021420725 0.004097467 0.030859558 -0.05648421 0.04484845
-0.03238234 -0.049161315 0.053279366 0.0059426236 0.029827071 -0.014932621 -0.072808735 -0.08183319
-0.011571392 0.024186444 -0.041927055 -0.014592145 -0.005080076 0.016688013 0.027258527 0.006368066
-0.013605704 0.033220563 -0.072176285 0.039843656 -0.013720482 -0.00889216 -0.017598202 -0.017634809
0.034679905 -0.019582381 -0.028118202 -0.0033726338 -0.043431945 0.020918291 -0.034137562 0.007839241
0.0045103794 -0.039622292 0.023797642 -0.06285856 -0.0047010523 0.024346033 0.04423841 -0.014693952
0.05299017 -0.019138183 -0.03587352 0.089218765 -0.0804593 0.04620156 -0.03146983 -0.2605059
-0.17755066 0.017061694 -0.11055306 -0.044029415 0.0021213298 -0.03084911 0.007129729 -0.18515037
-0.435109 -0.08626413 0.0045614094 -0.056648027 0.101347804 0.0023002953 0.020700999 0.008013248
0.03174737 0.017265951 -0.020231076 -0.008204516 -0.01606883 -0.06479637 -0.008936681 0.018803705
-0.021133712 -0.032673683 -0.051310398 -0.015901178 -0.004095395 0.0012192155 -0.041739866 -0.03193045
0.00058479264 -0.009155974 -0.021991462 0.029306842 -0.019427067 0.016476965 0.022690153 0.021832706
-0.0070509156 0.00673879 -0.04614185 0.040530175 -0.020884719 0.035461552 0.028027916 -0.050150327
0.017764943 -0.055937454 -0.008900305 -0.060445298 0.04626651 -0.045363225 -0.012036576 0.061437655
0.006314206 0.05261523 0.015898762 -0.06305212 0.011566491 0.014070498 0.045598976 0.036569566
0.005134342 -0.027504459 -0.032863665 0.07007339 -0.13050395 -0.016129127 -0.02248565 -0.19178328
-0.07785895 0.044907834 0.0077626305 0.042505007 0.010387983 0.031661175 0.00022628637 0.027937813
0.017489891 -0.024536956 -0.04695959 0.037107557 -0.049843866 0.0065614204 0.056335405 -0.017345164
0.030824732 -0.008453953 -0.03393733 -0.018848807 0.0017855627 -0.03405297 -0.027062777 0.050808765
-0.04400397 -0.04015689 -0.015875746 0.01181506 -0.0399776 -0.010565868 0.028996998 -0.017534839
0.01809051 -0.011100732 -0.007790502 0.046592772 0.018528678 -0.038581304 0.0073499074 -0.0020228834
0.04752883 -0.041927297 0.0060690637 -0.0027584864 0.036122702 0.055814918 -0.057799038 -0.022620708
-0.01459642 -0.0006553428 -0.027208684 -0.010546779 -0.034889974 0.013839712 -0.032041743 -0.011634066
-0.0028756438 -0.014980356 0.06789339 -0.115099564 0.025189554 -0.09983564 -0.43610573 -0.052659497
0.057771347 -0.10732697 -0.0018668491 -0.0139556695 -0.053539123 0.015524965 -0.030635502 -0.0073672417
0.06400579 -0.054596387 0.024667148 0.060199898 0.001930361 -0.026850894 -0.023039278 -0.03033573
