ML/models/synthnav-model-0.pth (torch, 802559 bytes, 11 tensors)

encoder.0.weight f4 [32, 1, 3, 3]
0	0x3dfe818b	0.12427052
1	0x3e3a1603	0.1817246
2	0xbe00d270	-0.12580276
3	0xbddfc900	-0.109270096
4	0xbc6d7963	-0.014494273
5	0x3e294e90	0.16533875
6	0xbe254f27	-0.16143475
7	0x3ea1caad	0.31599942
8	0x3de714a4	0.11283234
9	0x3e9ae591	0.3025327
10	0x3c10f220	0.00884679
11	0xbcefaf55	-0.02925841
12	0xbe6579fb	-0.22409813
13	0xbe90c8c0	-0.2827816
14	0x3d13a41c	0.03604518
15	0xbea88be0	-0.32919216
16	0xbda90d8a	-0.082545355
17	0xbe32fc60	-0.17479086
18	0xbcee6efb	-0.029105654
19	0xbd98eff7	-0.07467645
20	0xbd8dac0f	-0.06917583
21	0x3ea733df	0.32656762
22	0xbdee3e23	-0.116329454
23	0xbe59ebd9	-0.21281375
24	0x3e8181bb	0.2529429
25	0xbea599df	-0.32343957
26	0xbe923174	-0.28553355
27	0xbea34f5b	-0.3189648
28	0xbdeaaf67	-0.114592366
29	0xbe81ae4a	-0.25328285
30	0x3e83f27c	0.25770938
31	0x3e7aac37	0.24479757
32	0x3d4b35cf	0.049611863
33	0xbde19e74	-0.11016551
34	0x3e4921fa	0.19641867
35	0x3da43df5	0.0801963
36	0x3e82dc0b	0.25558504
37	0x3d264aca	0.04059867
38	0x3eae47d4	0.34039176
39	0xbd7e9a36	-0.062158786
40	0x3e0340b2	0.12817648
41	0xbd823e76	-0.0635957
42	0x3e4966d4	0.19668132
43	0x3db6dfa9	0.089293785
44	0x3df0354a	0.11728914
45	0xbe1012bd	-0.14069648
46	0x3e0721d2	0.13196495
47	0x3e885a70	0.26631498
48	0xbdb800ff	-0.08984565
49	0x3ddbebb4	0.10738316
50	0x3df54756	0.11976497
51	0xbe1981e5	-0.14990957
52	0xbe75e56b	-0.24013297
53	0x3e9cacf4	0.30600703
54	0xbccd9e59	-0.02509992
55	0x3e0cd1b0	0.13751864
56	0xbddb6ddc	-0.107143134
57	0x3d198251	0.037477795
58	0xbdd8d907	-0.1058827
59	0x3e50cd56	0.2039083
60	0x3da02ba7	0.07820826
61	0xbd045b3d	-0.032313574
62	0x3e20855b	0.15675871
63	0x3dd651ce	0.10464822
64	0x3ea10ac5	0.3145353
65	0x3e81faa7	0.25386545
66	0x3ec11cd5	0.3771731
67	0x3e2472a1	0.16059352
68	0x3cc6f23d	0.02428543
69	0x3ac729f3	0.0015194997
70	0x3ea27085	0.3172647
71	0x3cc34b8c	0.023839734
72	0x3e64da77	0.22348963
73	0x3e1ec9f9	0.15506734
74	0xbe6317ec	-0.22177094
75	0x3df3aa54	0.11897722
76	0xbea95bcf	-0.33077857
77	0x3ea20720	0.3164606
78	0xbe162f5f	-0.14666508
79	0xbe1840cd	-0.1486847
80	0xbe83ec43	-0.2576619
81	0xbe59ebfe	-0.2128143
82	0xbe28cf39	-0.16485299
83	0xbe187804	-0.14889532
84	0x3db99fb9	0.09063668
85	0xbc5eddc5	-0.013602679
86	0xbbdde514	-0.006771693
87	0x3dd9fa6f	0.106434695
88	0x3df12827	0.117752366
89	0x3d9a2098	0.07525748
90	0xbd70641c	-0.05868922
91	0xbe4f0239	-0.20215692
92	0xbe0cc7c3	-0.13748078
93	0x3defd30e	0.11710177
94	0x3e99e40d	0.300568
95	0x3ea5f902	0.3241654
96	0x3d90df3d	0.07073829
97	0xbe919770	-0.2843585
98	0x3e01dc4a	0.1268169
99	0x3e1bf4d3	0.15230112
100	0xbe8e211f	-0.27759644
101	0xbe3cff4b	-0.18456762
102	0xbe6292b5	-0.22126277
103	0x3e8ebb7c	0.27877414
104	0xbd98a518	-0.07453364
105	0xbdc59b2c	-0.09648737
106	0xbe855c26	-0.26046866
107	0xbe5f70c1	-0.21820356
108	0xbc930345	-0.017945895
109	0x3e3c2156	0.18372092
110	0xbe1afed3	-0.1513627
111	0xbdc7db80	-0.09758663
112	0xbdbb1736	-0.091352865
113	0xbc4f88aa	-0.012666861
114	0x3e0f0fa2	0.13970807
115	0xbe9720a6	-0.29517096
116	0xbe655fa0	-0.2239976
117	0xbe5484b8	-0.20753753
118	0xbe5b46e6	-0.21413764
119	0xbe418e78	-0.18902004
120	0xbe239feb	-0.15978973
121	0xbe84289f	-0.2581224
122	0x3e58034c	0.21095008
123	0xbc7ab72b	-0.01530246
124	0xbe2aab46	-0.16666898
125	0xbe796878	-0.24356258
126	0x3e36cf5f	0.17852543
127	0x3dc67740	0.09690714
128	0xbda44801	-0.08021546
129	0xbe8ae454	-0.27127326
130	0xbdc287ac	-0.094985336
131	0xbe2de6c5	-0.16982563
132	0xbe03ff68	-0.12890399
133	0xbe0f8ffb	-0.14019768
134	0xbde24713	-0.110487126
135	0x3eb0666a	0.34453136
136	0xbd07903d	-0.03309654
137	0xbc707136	-0.014675429
138	0xbe87b71f	-0.26506898
139	0xbe45ea5a	-0.1932768
140	0x3e9d11c0	0.30677605
141	0x3e978dad	0.29600278
142	0x3ea66f71	0.32506898
143	0x3d8711e3	0.065952085
144	0x3dad2231	0.08453787
145	0xbc7234ab	-0.014783065
146	0x3e2553a3	0.16145186
147	0x3e19dbbe	0.15025231
148	0x3e01bdb5	0.12670024
149	0x3dca98b7	0.09892409
150	0xbd26fd0a	-0.04076866
151	0xbe78589c	-0.24252552
152	0x3e8e686c	0.27814043
153	0x3d21824c	0.0394309
154	0xbea373fa	-0.3192442
155	0xbe6f5a0d	-0.23374195
156	0x3d38c065	0.045105357
157	0x3eab6bb8	0.3348062
158	0xbea8a641	-0.32939342
159	0x3e93f0b3	0.28894576
160	0xbd9c48ac	-0.076310486
161	0x3d29e9c8	0.041482717
162	0xbe31d3f0	-0.17366004
163	0xbced9469	-0.029001432
164	0x3e80713e	0.25086397
165	0xbea46428	-0.32107663
166	0xbe21979f	-0.15780495
167	0xbdd7d876	-0.105393335
168	0x3ccd935f	0.025094686
169	0x3de1ac8d	0.110192396
170	0x3c4dd33b	0.012562568
171	0xbd4f30f4	-0.050583795
172	0xbda06725	-0.07832173
173	0xbe746763	-0.23867564
174	0xbe9a12bb	-0.30092415
175	0xbb7bdc7f	-0.0038430986
176	0xbc9c5982	-0.01908565
177	0xbe222d83	-0.15837674
178	0xbe6b5313	-0.22980909
179	0xbcee12d7	-0.029061718
180	0x3e8652e0	0.26235104
181	0xbd88c54b	-0.06678256
182	0xbe39b37b	-0.18134873
183	0x3e33a509	0.17543425
184	0x3e6295ab	0.22127406
185	0xbeb66f62	-0.35631853
186	0xbe9b5664	-0.30339348
187	0xbbabdb00	-0.0052446127
188	0x3dd2a0c6	0.10284571
189	0x3e64af2a	0.22332445
190	0xbe8a0d9b	-0.26963505
191	0x3e8ee55d	0.27909365
192	0x3e08a5a1	0.13344432
193	0xbdcdad3d	-0.10042808
194	0xbe55ccfa	-0.20878974
195	0x3e3d5c25	0.18492182
196	0xbd559d69	-0.05215207
197	0xbea0b8d2	-0.31391007
198	0xbea38dd8	-0.31944156
199	0x3e89d0d9	0.2691715
200	0xbd0a19df	-0.03371608
201	0xbd9831e7	-0.07431393
202	0xbea4107c	-0.32043827
203	0x3e52c0be	0.20581338
204	0xbd38d07b	-0.045120697
205	0x3cc079d9	0.023495601
206	0xbe384d02	-0.17998126
207	0x3c5be3e0	0.013421029
208	0xbe9a8d92	-0.30186135
209	0xbe5def4e	-0.21673319
210	0xbdff7d30	-0.124750495
211	0xbe488e28	-0.19585478
212	0xbe487030	-0.19574046
213	0xbea276af	-0.31731173
214	0xbe6d8410	-0.23194909
215	0xbdc24b20	-0.09486985
216	0x3e786344	0.24256617
217	0x3e05c98f	0.1306517
218	0x3e93bdbb	0.2885569
219	0xbd25df82	-0.040496357
220	0x3de77ffc	0.11303708
221	0x3e00e4bf	0.1258726
222	0x3eb33ade	0.3500585
223	0xbdba6ec2	-0.091031566
224	0x3ea17679	0.315357
225	0x3e08588a	0.13315025
226	0xbd832e48	-0.06405312
227	0x3e61deac	0.22057599
228	0xbea37454	-0.3192469
229	0x3e1e74c6	0.15474233
230	0x3d0c2a7a	0.034220196
231	0xbe24d635	-0.16097338
232	0xbe42ff96	-0.19042811
233	0xbe6454d5	-0.22297986
234	0x3e198def	0.1499555
235	0x3e173c24	0.14769036
236	0xbe3e902a	-0.18609682
237	0x3e9e4bdc	0.3091725
238	0x3e735e3b	0.23766415
239	0xbe5e4937	-0.21707617
240	0xbd9c808e	-0.07641707
241	0x3e59d8f2	0.21274164
242	0xbe8c1677	-0.2736089
243	0xbe34ba21	-0.17649128
244	0xbc4777f9	-0.0121746
245	0x3de8f575	0.11374942
246	0x3e85b881	0.26117328
247	0x3e9be68f	0.3044934
248	0x3ccfdfd9	0.025375294
249	0x3e8cda33	0.27510223
250	0x3e9643f0	0.29348707
251	0xbe502b93	-0.20329122
252	0xbd5b7867	-0.05358162
253	0xbd936f9a	-0.07199021
254	0xbe521d55	-0.20519002
255	0x3e649a7a	0.22324553

encoder.0.bias f4 [32]
0	0xbb8be32b	-0.004269024
1	0x3d986384	0.07440856
2	0xbe894efb	-0.2681807
3	0xbe69b7d4	-0.22824031
4	0x3e54c686	0.20778856
5	0xbe19b585	-0.1501065
6	0x3d65e16a	0.056123175
7	0x3d31c1f5	0.043397862
8	0xbab0e908	-0.0013497183
9	0xbe3ac5f9	-0.18239583
10	0x3eb81c18	0.35958934
11	0xbe4802dd	-0.19532342
12	0xbe6ded77	-0.23235117
13	0xbe2970be	-0.16546914
14	0x3ee00d6c	0.4376024
15	0xbd862d6e	-0.06551634
16	0x3e300b0a	0.17191711
17	0xbe94d72a	-0.29070407
18	0x3ece31ab	0.4027227
19	0x3dd8407f	0.10559177
20	0xbca501ea	-0.020142514
21	0x3e4f8648	0.20266068
22	0x3e9dc0d3	0.30811176
23	0xbdc3cf8c	-0.09561071
24	0xbe9852bd	-0.29750624
25	0xbdeacc36	-0.114647314
26	0xbe43d2c0	-0.19123363
27	0xbd868d97	-0.06569975
28	0xbd167661	-0.03673399
29	0x3eb55d29	0.35422638
30	0x3e984982	0.29743582
31	0xbe6758fb	-0.22592537

encoder.2.weight f4 [64, 32, 3, 3]
0	0x3d391790	0.045188487
1	0xbc2244d1	-0.009904102
2	0xbcff1058	-0.031135723
3	0x3d3147b3	0.04328127
4	0xbd540273	-0.05176015
5	0xbd1e6be9	-0.03867713
6	0xbd5aca2e	-0.05341547
7	0x3c5a2a35	0.013315727
8	0x3ce868e5	0.02837033
9	0xbce6d685	-0.028178463
10	0xbd507669	-0.050894175
11	0x3d4782b9	0.04870865
12	0x3caa3ad3	0.020780003
13	0xbc86cb85	-0.016454468
14	0x3cfdbc68	0.030973628
15	0xbd6d4c4b	-0.057934087
16	0xbcc0d961	-0.023541154
17	0xbca39470	-0.019968241
18	0xbd334650	-0.043768227
19	0x3cc13849	0.02358641
20	0x3cc1464e	0.023593094
21	0xbcf25a38	-0.029584035
22	0x3bf0a367	0.007343698
23	0x3bda657d	0.0066649304
24	0x3ceae389	0.02867295
25	0xbce1354f	-0.02749124
26	0xbd0d78b5	-0.034538943
27	0x3d2962ac	0.041353866
28	0x3cbfe11e	0.023422774
29	0x3bb9182a	0.0056486325
30	0xbd231d4f	-0.039822873
31	0x3cddec79	0.027090298
32	0xbb696066	-0.0035610436
33	0xbb34cf0d	-0.0027589232
34	0x3d2aa481	0.04166079
35	0x3b705389	0.0036670885
36	0x3d1f0c00	0.038829803
37	0x3c8379e8	0.01604934
38	0x3c849660	0.016184986
39	0x3cabf48b	0.02099063
40	0xbb80b498	-0.0039277785
41	0xbd24d950	-0.040246308
42	0x3c81fa67	0.015866471
43	0x3d3c7ea3	0.046019208
44	0xbbbe075a	-0.005799216
45	0xbcdc4160	-0.026886642
46	0x3d0e7031	0.034774963
47	0x3c89b3c9	0.016809361
48	0x3cbd55d3	0.023112213
49	0xbc4e1977	-0.0125793135
50	0x3c9500b8	0.01818882
51	0xbca40515	-0.020021955
52	0x3cc44ba2	0.023961846
53	0xbc978c81	-0.018499615
54	0x3d33843e	0.043827288
55	0x3d2f431d	0.042788614
56	0xbd0b97b3	-0.03408022
57	0x3d76e327	0.060275223
58	0x3d0920c4	0.033478513
59	0xbb90b644	-0.004416259
60	0x3d592e83	0.053022873
61	0xbcc3392e	-0.023830976
62	0x3a5d9ed5	0.0008454149
63	0x3a6cbdd7	0.0009030974
64	0x3c940cb7	0.01807247
65	0x3cf19585	0.029490242
66	0x3d707654	0.058706596
67	0x3d6435ac	0.055715248
68	0x3d88a602	0.066722885
69	0xbc012a6d	-0.00788365
70	0x3c83cce8	0.016088918
71	0x3d33090b	0.043709796
72	0x39466bbc	0.00018922886
73	0x3cfd20d8	0.03089945
74	0x3aab41f2	0.0013065918
75	0x3d552cf8	0.05204484
76	0x3cc313d4	0.023813166
77	0x3c65422b	0.013992826
78	0x3d173995	0.03692015
79	0x3d46a8df	0.04850089
80	0x3b87521d	0.0041296617
81	0x3cf01287	0.02930571
82	0x3c1555e0	0.0091147125
83	0x3d05c398	0.032657236
84	0x3d375433	0.044758033
85	0xbcafb823	-0.021450108
86	0x3c5195c2	0.012792053
87	0x3d4e82f7	0.050417867
88	0x3d104bc7	0.035228517
89	0xbbaf6588	-0.0053526796
90	0x3d1f7328	0.03892818
91	0xbcbcc4a9	-0.023042994
92	0xbd409bbc	-0.04702352
93	0xbb52ee7f	-0.0032185612
94	0x3d3096ad	0.043112446
95	0x3c642a73	0.013926136
96	0x3d49afad	0.049239803
97	0xbd129312	-0.03578479
98	0xbd1003d2	-0.035159893
99	0xbb498c59	-0.003075382
100	0x3bbb4583	0.0057150736
101	0x3d0c6c2c	0.03428285
102	0x3d39e560	0.045384765
103	0x3c1df7d8	0.00964161
104	0xbc86a007	-0.016433729
105	0x3d0cb5da	0.034353115
106	0x3c5d1d29	0.013495722
107	0xbd4218b1	-0.04738683
108	0xbc2834f9	-0.010266536
109	0xbc8542f5	-0.01626728
110	0x3bcb71c4	0.0062086303
111	0xbd3c1827	-0.04592147
112	0x3d076b13	0.0330611
113	0xbd690fa8	-0.056899697
114	0x3d3b819d	0.045777906
115	0x3ce1c4a8	0.027559593
116	0xb97ffb6f	-0.00024412361
117	0xbd4d67fa	-0.050147988
118	0x3c9a32ed	0.018823111
119	0xbbec30bd	-0.0072079585
120	0x3d4bfa45	0.049799222
121	0x3cf57e40	0.029967427
122	0x3cba79bf	0.022763131
123	0xbacfd664	-0.001585674
124	0x3d208368	0.03918782
125	0x3c23b703	0.009992364
126	0x3c120e52	0.008914547
127	0xbc0113de	-0.007878272
128	0xbd7dbcad	-0.061947513
129	0x3d3f0e67	0.046644595
130	0xbce58574	-0.028017737
131	0x3cf94c2e	0.030431833
132	0xbd21f44c	-0.03953962
133	0x39358c12	0.00017313685
134	0xbd7731cf	-0.060350236
135	0x3c390c5a	0.011294449
136	0x3cb916c9	0.022593873
137	0xbc11b114	-0.008892316
138	0x3d017525	0.03160586
139	0xbcf894d7	-0.03034441
140	0x3c29fa48	0.010374613
141	0x3b9fe278	0.004879292
142	0xbd4e1204	-0.05031015
143	0x3d723adb	0.05913816
144	0x3cf3a505	0.029741773
145	0xbd2c2cf9	-0.042035077
146	0xbd2c3372	-0.04204125
147	0xbcdb92c9	-0.026803391
148	0x3d7dcf17	0.061965074
149	0xbca70c6f	-0.020391671
150	0xbd24530f	-0.040118273
151	0xbceee3dd	-0.029161388
152	0x3d106d6d	0.035260607
153	0xbcbb9582	-0.02289844
154	0xbcbebce7	-0.023283435
155	0x3bce4fcb	0.006296133
156	0x3c1e5d64	0.009665821
157	0xbc7d3b95	-0.0154561
158	0x3d223dce	0.039609723
159	0x3d2c604e	0.04208403
160	0x3ba40f5e	0.0050067147
161	0xbd249318	-0.040179342
162	0x3c4db7dc	0.0125560425
163	0x3a716424	0.00092083425
164	0xbd551417	-0.052021112
165	0x3d0ec734	0.034857944
166	0x3b972586	0.0046126274
167	0xbcde04d6	-0.027101915
168	0x3bfc7af2	0.007705086
169	0x3d350108	0.044190437
170	0xbd625a4b	-0.05526189
171	0xbb31ff7d	-0.002716034
172	0xbcec09cb	-0.028813263
173	0x3d07509a	0.033035852
174	0xbc5dcae0	-0.013537139
175	0xbb131a8d	-0.0022446245
176	0x3cde910c	0.027168773
177	0x398ed618	0.00027243863
178	0x39e58ed4	0.000437847
179	0x3d35ff0d	0.04443269
180	0xbbe683b3	-0.0070347427
181	0x3d1f64fb	0.03891466
182	0xbc444892	-0.011980193
183	0xbce70da7	-0.028204752
184	0xbd2f3f58	-0.04278502
185	0x3cb241c1	0.02175987
186	0x3d20e2f4	0.03927894
187	0xbc470359	-0.012146794
188	0x3d2b8836	0.041877948
189	0x3d40475e	0.04694306
190	0xbd697a41	-0.057001356
191	0xba90b894	-0.0011041337
192	0x3d3697e4	0.044578448
193	0x3d376a2e	0.044778995
194	0x3d0ba24e	0.034090333
195	0xbd818e9d	-0.063260294
196	0x3d12e917	0.035866823
197	0xbcb74870	-0.022373408
198	0x3c172e95	0.009227415
199	0x3d31524d	0.04329138
200	0xbd0d9896	-0.034569345
201	0xbc71beff	-0.01475501
202	0x3d195855	0.037437756
203	0xbce09604	-0.027415283
204	0xbd39469c	-0.045233354
205	0xbd588bd5	-0.05286773
206	0xbd2e1951	-0.042504612
207	0x3c6b09dc	0.014345612
208	0xbd22a1b6	-0.039705
209	0xbd418405	-0.047245044
210	0xbd591451	-0.05299789
211	0xbd349c4e	-0.044094376
212	0xbd40b06b	-0.047043245
213	0xbcd2d21e	-0.025734957
214	0xbcf23329	-0.02956541
215	0x3ce82f36	0.028342824
216	0xbaa0e787	-0.0012276032
217	0x3cf741f9	0.030182825
218	0x3cc730a6	0.02431519
219	0xbb39013f	-0.0028229502
220	0xbcf04b20	-0.029332697
221	0xbd3b392e	-0.045708828
222	0x3d6bfa91	0.057612006
223	0x3d3dc37a	0.046329
224	0x3d613cad	0.054989506
225	0xbd6d27ca	-0.057899274
226	0xbb81476a	-0.003945281
227	0xbd6101ae	-0.054933242
228	0xbd016472	-0.031589933
229	0xbd2d3d3e	-0.042294733
230	0xbd625fe7	-0.05526724
231	0xbcf16e37	-0.0294715
232	0xbcebe5f5	-0.028796175
233	0x3d44c341	0.04803777
234	0xbd5a3ab4	-0.05327864
235	0xbc999df2	-0.018752072
236	0x3c1a9ed0	0.009437278
237	0xbcf93715	-0.030421773
238	0x3cd5536f	0.02604076
239	0x3cb9e9e2	0.022694532
240	0xbbdf0b6d	-0.006806782
241	0x3cfa484b	0.03055205
242	0xbc4c69f3	-0.012476432
243	0x3d48c928	0.049019963
244	0x3d7e6d5f	0.062116023
245	0xbd46e89b	-0.048561674
246	0x3c49cbdc	0.01231667
247	0x3c9f2ce8	0.019430593
248	0x3c148b06	0.009066349
249	0x3d614b91	0.055003706
250	0x3d5723fe	0.05252456
251	0xbcefa84d	-0.029255057
252	0xbc9f4a0a	-0.019444484
253	0x3d53c4e3	0.051701438
254	0xbb61c8b9	-0.0034451915
255	0x3ce3019b	0.027710726

encoder.2.bias f4 [64]
0	0xbc53ea3e	-0.012934266
1	0xbd19581c	-0.037437543
2	0xbce26134	-0.02763424
3	0x3d204e05	0.039136905
4	0xbc43a566	-0.0119412895
5	0x3d9db745	0.077009715
6	0xbbe96b88	-0.0071234144
7	0x3d5107ed	0.05103295
8	0x3d34200e	0.043975882
9	0x3d7473d0	0.05968076
10	0x3cc1a621	0.023638787
11	0xbc2034c0	-0.009778202
12	0x3d352fd8	0.04423508
13	0xbd41ccb1	-0.04731435
14	0xbd9511e0	-0.072788
15	0xbd18655f	-0.03720605
16	0xbcff1f9f	-0.031143008
17	0x3d865916	0.065599605
18	0xbbd35263	-0.0064490302
19	0xbd33f965	-0.043939013
20	0xbd188095	-0.037232
21	0xbd487a31	-0.048944656
22	0xbd3d8978	-0.04627368
23	0x3db6d3ac	0.08927092
24	0x3d56fd3e	0.052487604
25	0x3c021711	0.00794007
26	0x3cb19d45	0.021681437
27	0x3cd6f4ee	0.026239838
28	0x3cd0c576	0.025484782
29	0xbdae0622	-0.084972635
30	0x3bf1e763	0.00738232
31	0x3cfaea77	0.03062938
32	0xbc5ac266	-0.013352012
33	0x39473a82	0.00018999915
34	0x3d9fb5a4	0.07798317
35	0x3d5df3ca	0.054187573
36	0xbc8d8b08	-0.01727821
37	0xbd5e28ba	-0.05423806
38	0x3ca930e2	0.020653192
39	0x3da9e01d	0.08294699
40	0xbcf2a8d4	-0.02962152
41	0x3d42b638	0.04753706
42	0x3cb813de	0.02247041
43	0x3aed893b	0.0018122563
44	0xbc0b5a95	-0.008505483
45	0x3c89962d	0.016795242
46	0x3d1d2b55	0.038371403
47	0x3dbb5828	0.09147674
48	0xbd5b5c05	-0.053554554
49	0xbd5c7b03	-0.05382825
50	0xb98ba9bf	-0.00026638617
51	0xba3dd26e	-0.00072411343
52	0x3c8f1805	0.017467508
53	0xbcd96c65	-0.026540944
54	0x3d871767	0.065962605
55	0x3cc1ed42	0.023672704
56	0x3d0b93ac	0.034076378
57	0x3cafadd8	0.0214452
58	0xbda9273b	-0.08259436
59	0x3d38079b	0.04492913
60	0xbcefb923	-0.029263085
61	0x3d4fb503	0.050709736
62	0x3d3bb59d	0.045827497
63	0xba22d4ed	-0.0006211538

encoder.5.weight f4 [128, 64, 3, 3]
0	0xbcd5cac3	-0.02609766
1	0x3aa656ae	0.0012690627
2	0x3c8d6d9a	0.017264176
3	0x3c4c7e69	0.01248131
4	0xbc97f614	-0.018549956
5	0xbc973621	-0.018458428
6	0xbb4cd090	-0.0031252243
7	0x3c237fa5	0.009979163
8	0x3c92adb5	0.017905096
9	0x3d2a8e65	0.041639704
10	0x3cf7de2d	0.030257309
11	0x3c6805a2	0.014161499
12	0xbc0e3eac	-0.008681934
13	0x3c8a593a	0.01688825
14	0x3c7638da	0.015028203
15	0x3bfd54ff	0.0077310796
16	0xbd0d1148	-0.03444031
17	0x3bb788cb	0.005601024
18	0xbcaf1c43	-0.02137578
19	0xbcdf6799	-0.027271079
20	0x3c98d770	0.018657416
21	0x3c8c9f5a	0.017165828
22	0x3d08ef3d	0.03343128
23	0x3c4022ee	0.011727078
24	0x3cf23713	0.029567277
25	0x3c88c2fa	0.016694535
26	0xbc17b38b	-0.009259115
27	0x3ac42adf	0.001496639
28	0x3d30082d	0.042976547
29	0xbceb045a	-0.028688598
30	0x3c83dd9f	0.016096888
31	0x3c9e3d2a	0.019316275
32	0x3c87d2f4	0.016580082
33	0x3cc10815	0.023563424
34	0xbbeaef3c	-0.0071696322
35	0x3d0be57d	0.034154404
36	0x3d2d8da2	0.0423714
37	0xbc015720	-0.007894307
38	0xbce03608	-0.027369514
39	0xbb8e27cc	-0.0043382403
40	0xbcae592f	-0.02128276
41	0xbd12bbc9	-0.035823617
42	0xbc3ec61c	-0.011643913
43	0xbce2c088	-0.027679697
44	0xbd12b583	-0.035817634
45	0x3cf06965	0.029347131
46	0x3b8eb023	0.004354493
47	0x3d18f937	0.037347045
48	0xbcb9fa76	-0.022702437
49	0x3c6c7754	0.014432747
50	0xbc64239f	-0.013924508
51	0x3ce5290b	0.027973672
52	0x3b00b172	0.0019637016
53	0x3c84fe35	0.016234497
54	0x3cc63919	0.024197148
55	0xbc229243	-0.009922567
56	0xbbb91d5b	-0.0056492514
57	0x3bd2226b	0.0064127943
58	0xbd16cfb7	-0.036819186
59	0x3c1261b4	0.008934427
60	0x3cde29fa	0.027119625
61	0x3cac3aa7	0.021024061
62	0xbc8a3946	-0.016873013
63	0x3d08dc2f	0.03341311
64	0xbbc35853	-0.005961457
65	0x3bfa18eb	0.007632365
66	0x3a629703	0.00086437183
67	0x3ce450d0	0.027870566
68	0xbc7451d4	-0.0149120875
69	0x3d226aff	0.03965282
70	0xbc8d5eac	-0.017257057
71	0xbc841234	-0.016121961
72	0xbcac7203	-0.021050459
73	0x3d01f8fe	0.031731598
74	0x3cfa4c1f	0.030553875
75	0x3d23deba	0.04000733
76	0x3c9e7907	0.01934482
77	0x3ceb2405	0.028703699
78	0x3ca88dfb	0.020575514
79	0x3c5e9beb	0.013586978
80	0xbc9c8858	-0.019107983
81	0x3cba74d5	0.022760788
82	0x3c5adfd9	0.0133590335
83	0x3d1ffafa	0.03905771
84	0x3d29ccac	0.041454956
85	0xbcc4c1e1	-0.02401823
86	0xbcabb50f	-0.020960359
87	0xbc407f70	-0.0117491335
88	0x3baa6858	0.005200427
89	0x3d28150d	0.0410357
90	0xbcefc243	-0.029267436
91	0xbccea25d	-0.025223905
92	0x3d0e721e	0.0347768
93	0xbc155f9d	-0.009117034
94	0x3ba590ec	0.0050526764
95	0x3cfe552b	0.03104647
96	0xbca01c0d	-0.019544626
97	0xbc09b13d	-0.008404073
98	0x3b742f89	0.0037259778
99	0x3c8e23e1	0.017351093
100	0x3d1477cd	0.036247063
101	0x3bd6425b	0.006538672
102	0xbcc89ee8	-0.024489835
103	0x3d0e3ee9	0.034727965
104	0xbc1dacf5	-0.009623756
105	0x3c8cd0d6	0.017189424
106	0xbca08a8f	-0.01959732
107	0x3d21e214	0.039522246
108	0x3cd46b50	0.025930077
109	0x3bf09a36	0.007342602
110	0x3cd3d6fa	0.025859345
111	0x3cd6a542	0.026201848
112	0x3c3bf750	0.011472538
113	0xbc35af50	-0.011089161
114	0x3cb631f8	0.022240624
115	0x3bb6173a	0.005556968
116	0x3d2ec21b	0.042665582
117	0x3d0d2b5b	0.034465175
118	0xbc43e72c	-0.011956971
119	0xbd0c9cad	-0.034329105
120	0x3cf00639	0.029299842
121	0x3c45cfae	0.0120734405
122	0x3c94382c	0.018093191
123	0x3ce6450d	0.028109098
124	0x3c186d76	0.009303441
125	0xbc0b5752	-0.0085047055
126	0x3bdf3751	0.006812014
127	0xbc618b74	-0.013766158
128	0x3c3be1cd	0.011467409
129	0xbcce43f1	-0.025178881
130	0xbc20bd6e	-0.009810789
131	0x3c36bd4d	0.011153531
132	0xbd0e70ef	-0.03477567
133	0x3c59cbea	0.013293246
134	0x3ce7823e	0.028260347
135	0xbcb58c74	-0.0221617
136	0x3d2bdce0	0.04195869
137	0x3d37b58b	0.044850867
138	0xbcf61591	-0.03003958
139	0xbc3150e3	-0.010822508
140	0xbd1b2abf	-0.037882563
141	0x3c87d62b	0.016581615
142	0x3c8aba91	0.016934665
143	0xbc009575	-0.007848133
144	0x3d00492e	0.03131979
145	0x3d0cbd72	0.034360357
146	0x3c8a3ed4	0.016875662
147	0x3cfd9b7d	0.030957932
148	0xbbf56379	-0.0074886647
149	0x3c129f7a	0.008949155
150	0xbc4bad25	-0.012431418
151	0x3cc81022	0.024421755
152	0x3cbc6a95	0.023000041
153	0xb7a6d2ef	-1.9886966e-05
154	0x3d212e4f	0.039350804
155	0x3c7f7a92	0.015593188
156	0xbc9d70a3	-0.019218748
157	0xbc78e6de	-0.015191762
158	0x3d2e4513	0.042546343
159	0x3c6bd9c0	0.014395177
160	0xbcaacb19	-0.020848798
161	0x3c8d8d70	0.017279357
162	0xbc954ac0	-0.01822412
163	0xbc152861	-0.009103865
164	0xbcf54f48	-0.02994503
165	0x3c01d2d5	0.007923801
166	0xbd0a49de	-0.03376185
167	0x3c15ca29	0.009142437
168	0xbb04fadb	-0.0020291123
169	0x3d0c02b9	0.034182284
170	0x3c88d9a9	0.016705351
171	0x3cffa796	0.03120784
172	0x3bf23e0b	0.00739265
173	0xbcdb71c0	-0.026787639
174	0xbc25874a	-0.010103056
175	0xbc4721e7	-0.012154079
176	0xbc5c2334	-0.013436127
177	0x3abb8d5b	0.0014309095
178	0x3cffc13f	0.031220077
179	0x3d1baa2b	0.03800408
180	0x3cb3543d	0.021890754
181	0xbca3e94a	-0.020008702
182	0xbb8a3b07	-0.0042184624
183	0x3cd5807a	0.026062239
184	0xbca1bd2b	-0.019743523
185	0x3d303ab3	0.04302473
186	0x3ca7071d	0.020389134
187	0xbc15a041	-0.009132446
188	0x3d1993fe	0.037494652
189	0x3cbb6d5a	0.022879291
190	0xbd1501a6	-0.036378525
191	0xbc6687d3	-0.014070469
192	0x3c5a27b9	0.013315135
193	0xbcd990ee	-0.026558366
194	0xbd223049	-0.03959683
195	0x3c9e9f84	0.019363172
196	0x3d252323	0.040316712
197	0x3bbe4ae4	0.0058072675
198	0xbceb926a	-0.02875634
199	0xbd01e143	-0.031708967
200	0xbd068a24	-0.032846585
201	0xbd0434cc	-0.032276914
202	0xbd123c10	-0.03570181
203	0x3cec35d7	0.028834267
204	0x3cd32522	0.025774542
205	0x3d1dcfc7	0.03852823
206	0xbd14d68a	-0.036337413
207	0x3c97ed23	0.018545693
208	0x3d228428	0.039676815
209	0x3d068cf5	0.03284927
210	0x3d2a2860	0.04154241
211	0x3d14f981	0.036370758
212	0x3cbdee9a	0.023185063
213	0xbc467124	-0.012111936
214	0x3b5bd593	0.0033544048
215	0xbd02b42a	-0.0319101
216	0x3b56e03c	0.0032787463
217	0x3c43129d	0.011906293
218	0x3bc5be05	0.006034615
219	0x3b8a770c	0.0042256173
220	0xbc3c7408	-0.011502273
221	0xbd1f6019	-0.038910005
222	0x3ba0f4cb	0.004911994
223	0xbb4c99ec	-0.0031219674
224	0x3bee6808	0.007275585
225	0xbcf6726e	-0.030083861
226	0xbc404a7f	-0.011736511
227	0x3ceb69ad	0.028736914
228	0xbd10858a	-0.035283603
229	0x3c6be62d	0.01439814
230	0x3c9b8ee4	0.018989034
231	0x3cee7137	0.02910672
232	0xbcc141a7	-0.023590876
233	0xbd2106af	-0.039313015
234	0x3d1b7e67	0.037962344
235	0x3badc3ab	0.0053028665
236	0x3b9f07d1	0.0048532267
237	0xbcaecb13	-0.021337068
238	0xbc6c157e	-0.014409421
239	0x3c8a5e27	0.016890598
240	0x3d03c254	0.032167748
241	0x3cc6b111	0.024254354
242	0xbd0a3a69	-0.03374711
243	0xbd2322e8	-0.03982821
244	0x3c14960a	0.009068975
245	0xbcff81aa	-0.031189758
246	0xbbdd1030	-0.0067463145
247	0x3d218b9a	0.039439775
248	0x3c8b0896	0.016971868
249	0xbc325b34	-0.010886002
250	0xb92dc5ea	-0.00016572294
251	0xbd1b9c98	-0.037991136
252	0xbd142e3b	-0.0361769
253	0xbceb1d2a	-0.02870043
254	0xbc700c05	-0.014651303
255	0x3cc6731f	0.024224816

encoder.5.bias f4 [128]
0	0x3d312025	0.043243546
1	0xbc7a2661	-0.015267939
2	0x3ca5461c	0.020175032
3	0xbd3e1c88	-0.04641393
4	0x3d03663a	0.032079913
5	0x3c9a18a4	0.018810578
6	0x3d13810e	0.036011748
7	0xbd234254	-0.039858177
8	0x3ca1e36a	0.01976176
9	0x3be3a633	0.0069473027
10	0xbd199b48	-0.037501603
11	0xbcce85be	-0.025210258
12	0x3bb8580d	0.005625731
13	0xbb6e3eaa	-0.0036353269
14	0x3ca0a941	0.019611957
15	0xbbfd4fd5	-0.007730464
16	0x3afdb4fb	0.0019356305
17	0x3d29e922	0.0414821
18	0x3c6b99d4	0.014379937
19	0x3b298e04	0.0025872001
20	0x3cc35d21	0.023848118
21	0x3cbb99a9	0.02290042
22	0x3cc0bb1f	0.023526726
23	0x3d12b5c6	0.035817884
24	0x3ce19479	0.027536618
25	0x3d31e713	0.04343326
26	0x3ac147cc	0.0014746129
27	0xbd0c5133	-0.034257125
28	0x3cf03c07	0.029325498
29	0x3d2d8ed5	0.042372543
30	0x3cfd0863	0.030887788
31	0xbaafa3f9	-0.0013400308
32	0x3a3759f9	0.0006994303
33	0xbc4bd896	-0.012441775
34	0x3cce9dde	0.025221761
35	0x3a8cb1ba	0.0010734119
36	0xbd2f4cee	-0.042797975
37	0xbd045f90	-0.032317698
38	0x3c985998	0.01859741
39	0x3bf29cfe	0.007403969
40	0x3b1ae3c0	0.0023634285
41	0x3c0875ed	0.008328897
42	0x3d2c61c8	0.04208544
43	0xbd010078	-0.031494588
44	0x3ce7e16d	0.028305734
45	0x3d25bcca	0.040463246
46	0x3bbd272e	0.005772493
47	0xbcb632ff	-0.022241114
48	0x3d2f3568	0.04277554
49	0xbc96b90f	-0.01839879
50	0xbd24418f	-0.040101584
51	0xbba28338	-0.00495949
52	0x3d7cc2ae	0.0617091
53	0x3ceaf77e	0.028682467
54	0xbd1b648d	-0.03793769
55	0x3cbfe6b1	0.023425432
56	0x3d0bee0e	0.034162574
57	0x3c9e6989	0.019337432
58	0x3d2b4cfa	0.041821457
59	0x3c7f98a4	0.015600357
60	0x3c2a4063	0.010391328
61	0xbd10ae9f	-0.03532278
62	0xbd1e2877	-0.03861281
63	0xbcd144a3	-0.025545424
64	0x3b6511cb	0.0034953232
65	0xbb30482c	-0.0026898487
66	0xbc1e44b2	-0.009659933
67	0x3bb2b253	0.005453387
68	0x3c851873	0.01624701
69	0x3cc27e51	0.023741873
70	0xba9d8967	-0.0012019099
71	0xbc8cc21c	-0.017182402
72	0x3d203e3d	0.039121855
73	0xbcb37d81	-0.02191043
74	0xbc87c046	-0.016571175
75	0x3d255abd	0.040369738
76	0x3ca7dfdb	0.020492485
77	0x3ca30ee1	0.019904556
78	0xbcafaec2	-0.021445636
79	0x3cac7422	0.02105147
80	0xbcb26abb	-0.021779409
81	0x3d00f419	0.03148279
82	0xbcda3694	-0.026637353
83	0x3ac3572c	0.0014903299
84	0x3c867bdb	0.01641648
85	0x3c4f6541	0.012658418
86	0x3d0a5b7d	0.033778656
87	0x3d111016	0.03541573
88	0x3c1c9d4f	0.00955899
89	0x3c493bec	0.012282353
90	0x3d4d22e5	0.050082106
91	0x3d65240d	0.055942584
92	0x3cc2edf4	0.023795106
93	0xbcf79f66	-0.030227374
94	0xbd05a450	-0.032627404
95	0xbc90b5df	-0.017664848
96	0x3c0a56d2	0.008443551
97	0xbc06fb6e	-0.008238656
98	0xbced5898	-0.028972909
99	0xbcc84165	-0.024445245
100	0xbb36cd03	-0.0027893193
101	0xbd1e64f2	-0.038670488
102	0xbd2e4385	-0.04254486
103	0xbb5befba	-0.0033559636
104	0x3bdf395f	0.006812259
105	0xbd1313e6	-0.03590765
106	0xbc002b07	-0.0078227585
107	0xbc24f701	-0.010068656
108	0x3bfad408	0.0076546706
109	0xbc67932c	-0.01413421
110	0x3cd4385b	0.025905779
111	0xbd02cafa	-0.031931855
112	0x3c8a94a6	0.016916584
113	0x3cd6216f	0.02613899
114	0xbc87ed8e	-0.016592767
115	0xbc4d67ed	-0.012536985
116	0xbc1b8f00	-0.009494543
117	0x3c2692e1	0.010166855
118	0xbb90135b	-0.0043968386
119	0xbc9574cd	-0.018244172
120	0x3adeeb78	0.0017007431
121	0xbaaa3415	-0.0012985492
122	0xbcb02b5d	-0.021505052
123	0xbc6cac31	-0.0144453505
124	0x3d7fa7c9	0.06241587
125	0x3d2bba2c	0.041925594
126	0xbcd3008a	-0.025757093
127	0xbca8b790	-0.020595342

decoder.0.weight f4 [64, 128, 3, 3]
0	0xbd049a4b	-0.032373708
1	0xbd0f6a76	-0.03501364
2	0xbc43d7f6	-0.011953345
3	0x3a20bcf5	0.00061316724
4	0xbc6e0448	-0.014527388
5	0xbc86fa37	-0.016476734
6	0xbb85c2c8	-0.0040820576
7	0xbca883b6	-0.020570617
8	0x3cad2391	0.021135123
9	0xbc966077	-0.018356545
10	0x3d2a7e41	0.04162431
11	0xbc407027	-0.011745489
12	0x3c82ca52	0.015965614
13	0x3d3c0b54	0.04590924
14	0x3a81a5d8	0.0009891344
15	0x3cc22bb6	0.023702484
16	0x3c783ff9	0.015151971
17	0xb995770b	-0.0002850819
18	0x3b02f3a0	0.0019981638
19	0x3c04488b	0.008073936
20	0x3c07d808	0.008291252
21	0x3d00bad5	0.031428177
22	0x3ccca459	0.02498071
23	0x3caa2e00	0.020773888
24	0x3caebf9f	0.021331606
25	0x3cb42228	0.021988943
26	0x3ccfa767	0.025348378
27	0xbbd4156c	-0.0064722802
28	0x3bb5073c	0.005524544
29	0x3c748f68	0.014926769
30	0x3c091772	0.008367406
31	0x3d290081	0.041260246
32	0x3d2748a1	0.04084075
33	0xba6e952a	-0.00091012067
34	0x3d3a15e9	0.04543105
35	0x3d1e0f55	0.03858884
36	0x3caa8211	0.020813974
37	0xbcc5bd95	-0.024138251
38	0x3caf437b	0.021394482
39	0xbbbbcf73	-0.005731517
40	0x3cb26b3f	0.021779655
41	0x3abf3fe1	0.0014591181
42	0xbc973ad3	-0.018460667
43	0xb9ec25bf	-0.0004504155
44	0xbc2f3ab7	-0.010695151
45	0xbc0177ba	-0.00790208
46	0x3c28453a	0.010270411
47	0xbbe355e0	-0.0069377273
48	0x3bce08fb	0.0062876916
49	0xbc985123	-0.018593377
50	0x3cd43525	0.025904248
51	0xbceae169	-0.028671937
52	0x3cacb8a6	0.021084141
53	0x3c3eadd2	0.011638122
54	0xbc6d30c7	-0.014476961
55	0xbc9467bf	-0.018115876
56	0x3bbe0b2e	0.0057996726
57	0xbc8d3d64	-0.017241187
58	0x3c0bdf55	0.008537133
59	0xbc9d4f41	-0.01920283
60	0x3c8a5df2	0.0168905
61	0xbc9a5fd0	-0.018844515
62	0x3b546f3a	0.003241493
63	0x3cbc8c1d	0.02301603
64	0x3c4fe89a	0.012689734
65	0x39f35d9d	0.0004641832
66	0xbb4607d8	-0.0030217078
67	0x3ca7a646	0.020465028
68	0x3ba72899	0.005101275
69	0xbc401c92	-0.011725562
70	0x3c78e312	0.0151908565
71	0xbbd1fb5a	-0.0064081373
72	0x3c94cbef	0.01816365
73	0x3cf15582	0.029459719
74	0xbc9d2c1b	-0.01918607
75	0x3cd464a9	0.025926905
76	0x3cc6a5ef	0.024249045
77	0xbc72489f	-0.014787822
78	0xbcad3d90	-0.02114752
79	0x3c63091c	0.013857152
80	0x3cd0d75f	0.025493322
81	0xbd0b4915	-0.034005243
82	0x3c3cbfb4	0.011520315
83	0xbcd8bff2	-0.026458714
84	0x3ba2951e	0.004961624
85	0xbcfd11c8	-0.030892268
86	0xbbf4f7b3	-0.007475817
87	0xbd2622e5	-0.04056062
88	0xbc42ba40	-0.011885226
89	0xbc0a1a4e	-0.008429123
90	0x3bcf158a	0.0063197063
91	0xbc9c7be2	-0.01910204
92	0xbb94fe44	-0.0045469124
93	0xbcafec08	-0.021474853
94	0x3c4dc246	0.012558525
95	0xbcb4b61f	-0.022059498
96	0xb8ddbf7e	-0.000105737694
97	0x3cd97823	0.026546543
98	0x3c17dfb7	0.009269646
99	0x3c792945	0.015207593
100	0x3ca5bb37	0.020230873
101	0x3d76c385	0.060245056
102	0x3c19fab5	0.009398152
103	0x3d708013	0.05871589
104	0x3d8b7829	0.06810028
105	0x3c98d747	0.01865734
106	0x3d6d1c03	0.057888042
107	0x3caecb4e	0.021337178
108	0xbc264b7d	-0.010149834
109	0xbcc9e105	-0.02464343
110	0x3c510adf	0.0127589395
111	0xbab9b3c1	-0.0014167951
112	0xbc84c60d	-0.01620772
113	0x3c469089	0.012119421
114	0x3c2ebabb	0.010664637
115	0xbd0ad0b0	-0.033890426
116	0x3b2d5584	0.0026448676
117	0x3ca2851a	0.019838858
118	0xbb06bbc7	-0.0020558701
119	0x3c438073	0.01193248
120	0x3c2f3802	0.010694506
121	0x3d360083	0.04443408
122	0x3d542da8	0.051801354
123	0x3bb82412	0.0056195343
124	0x3a9f5fe6	0.0012159317
125	0x3cc04dd5	0.023474613
126	0xbcaa30a2	-0.020775143
127	0xbcd669a8	-0.026173428
128	0x3c8aada3	0.0169285
129	0xbbde0b4f	-0.0067762504
130	0xbb2bcd0d	-0.002621475
131	0x3c98a6d0	0.01863423
132	0x3ca01a89	0.019543903
133	0xbb8547da	-0.0040674033
134	0xbcf0b0d0	-0.029381186
135	0x3cc07b9e	0.023496445
136	0x3cc048d2	0.023472223
137	0x3cb31887	0.021862281
138	0x3c900826	0.01758201
139	0xbb0dc311	-0.0021631161
140	0x3c86de64	0.016463466
141	0xbcde4513	-0.027132547
142	0x3ce53247	0.027978076
143	0x3cd0d70c	0.025493167
144	0xbbd73573	-0.006567651
145	0xbc97dd61	-0.018538179
146	0x3cbf5455	0.023355642
147	0x3c886668	0.016650394
148	0x3bceda66	0.006312656
149	0xbcea5a4f	-0.028607516
150	0xbca42ca8	-0.020040825
151	0xbbd5ae02	-0.0065209875
152	0x3c79bc53	0.015242654
153	0x3cd89c67	0.026441766
154	0x3c5b9c95	0.013404031
155	0xbba55fb8	-0.005046811
156	0x3d1cdd23	0.03829683
157	0x3d217938	0.039422244
158	0xbbcd8814	-0.0062723253
159	0xbb28442f	-0.0025675406
160	0x3d0e2ebe	0.034712546
161	0xbb9c8e18	-0.004777681
162	0x3d063c57	0.03277239
163	0xbbd29e45	-0.0064275586
164	0x3bdd9cff	0.0067631
165	0xbaaf4f11	-0.0013375004
166	0x3cfa7a41	0.030575873
167	0x3d23d8e6	0.040001772
168	0x3ceed5e0	0.029154718
169	0x3cc2b828	0.023769453
170	0xbc0d5c17	-0.008627913
171	0xbc9adc57	-0.018903894
172	0xbc14d17e	-0.00908315
173	0x3af0341c	0.0018326077
174	0x3cd084f8	0.02545403
175	0x3c042120	0.008064538
176	0xbcb13733	-0.021632766
177	0xbca7485e	-0.02042025
178	0xbc36bcbf	-0.011153399
179	0xbcae1277	-0.02124904
180	0x3d143b4d	0.036189366
181	0x3b8e1182	0.004335583
182	0x3c1bf51e	0.00951889
183	0x3c157bf2	0.009123789
184	0x3d2f5b6a	0.04281179
185	0x3cf823d9	0.030290531
186	0x3c267d20	0.010161668
187	0x3cbbc7a4	0.022922345
188	0xba4f848b	-0.0007916174
189	0x3c07f0f3	0.008297193
190	0x3bb40319	0.0054935333
191	0x3cd5c095	0.026092807
192	0x3a0d4473	0.0005388923
193	0xb8ee9e7d	-0.00011378245
194	0xbad6b305	-0.0016380256
195	0xbcd5744e	-0.026056435
196	0x3b120ae7	0.002228433
197	0x3c812762	0.01576585
198	0x3cd9572a	0.02653082
199	0xbca89971	-0.020580979
200	0x3cd55e3e	0.026045915
201	0x3a388a6f	0.0007039671
202	0xbc14d753	-0.00908454
203	0x3b55714b	0.0032568749
204	0x3cd8d0e6	0.026466798
205	0x3bf316ce	0.00741849
206	0x3befc611	0.0073173125
207	0x3b71a95e	0.0036874632
208	0xbc4c3638	-0.012464099
209	0xbcb77b7b	-0.022397747
210	0xbc888434	-0.016664602
211	0xbbbc8894	-0.005753586
212	0xbcb170a3	-0.021660155
213	0xbc4dd2ba	-0.012562448
214	0xbbc5edf9	-0.0060403314
215	0x3b0e8c83	0.0021751232
216	0x3af105d7	0.0018388581
217	0x3b5a6875	0.0033326421
218	0xbc7d10f5	-0.015445937
219	0x3cb7426d	0.022370541
220	0xba6b3a4d	-0.0008973226
221	0xbc15e3e9	-0.009148576
222	0xbce4bf56	-0.027923267
223	0xbc41745d	-0.011807528
224	0xbbe87bd9	-0.007094842
225	0xbccfd949	-0.025372164
226	0xbcc27c81	-0.023741009
227	0x3bc08e0c	0.0058763083
228	0xbc8c7c83	-0.017149216
229	0x3cc044d2	0.023470316
230	0x3c542741	0.012948812
231	0xba7b1cec	-0.00095792
232	0xbc0c6422	-0.008568795
233	0xbce99748	-0.02851452
234	0xbbe952b5	-0.007120455
235	0xbb4f1f9a	-0.003160453
236	0xbb44530a	-0.0029956722
237	0xbc9b0682	-0.018924002
238	0xbc4c0406	-0.012452131
239	0xbba5d6e8	-0.005061019
240	0x3c860a2b	0.01636227
241	0xbc41941e	-0.011815099
242	0x3bc62537	0.006046917
243	0xbc939a6f	-0.018017976
244	0x3b3b0dbb	0.002854212
245	0x3c39d359	0.011341893
246	0xbcbddd80	-0.023176908
247	0xbc7bf2b8	-0.015377693
248	0x3c76f62c	0.01507334
249	0x3cd56068	0.026046947
250	0xbcead208	-0.028664604
251	0xbcd044f4	-0.025423504
252	0x3c00333c	0.007824715
253	0xbc075bcd	-0.008261633
254	0xbd0d491d	-0.034493554
255	0x3c7978ae	0.015226526

decoder.0.bias f4 [64]
0	0x3bb86971	0.005627804
1	0x399c8ad8	0.00029858085
2	0x3c6f0271	0.014587984
3	0xbc15a07f	-0.0091325035
4	0xbd10c8ee	-0.03534787
5	0x3c8b0a2d	0.016972626
6	0xbcddc40b	-0.02707102
7	0x3d23cda6	0.039991044
8	0x3c1988f4	0.009371031
9	0x3c8d60f9	0.017258154
10	0x3d1b3c7c	0.03789948
11	0x3cc42011	0.023941072
12	0xbcd163dd	-0.025560314
13	0xbcd402c0	-0.025880218
14	0x3813c66a	3.523232e-05
15	0x3c98c4bb	0.018648496
16	0xbca9fc86	-0.020750295
17	0xbc1fbd65	-0.009749745
18	0xba5c4773	-0.0008402981
19	0x3c3a76c2	0.011380853
20	0x3cb2510a	0.021767158
21	0xbafe4707	-0.001939983
22	0xbc33c31b	-0.01097181
23	0x3b38fd44	0.002822713
24	0xbc9925a2	-0.018694703
25	0x3be5f767	0.007018018
26	0x3cad3e41	0.021147849
27	0x3cbcc74d	0.023044253
28	0xbb34ea03	-0.0027605302
29	0xbc95f8eb	-0.01830717
30	0x3c39e5a8	0.011346258
31	0xbbd8b05d	-0.006612821
32	0x3bfc471c	0.0076989066
33	0x3c8affc7	0.016967667
34	0x3d0e3b6f	0.03472465
35	0x3d06e648	0.032934457
36	0x3d409682	0.047018535
37	0xbc525e6a	-0.012839893
38	0xbc95f488	-0.018305078
39	0xbc092228	-0.00836996
40	0x3c890747	0.016727103
41	0xbc9d6138	-0.019211397
42	0x3d0a2893	0.0337301
43	0x3c9ac4b2	0.01889262
44	0x3cee2058	0.029068157
45	0xb9906ab5	-0.00027545323
46	0x3d093717	0.033499803
47	0xbbd0e1cb	-0.006374573
48	0xbc2e559e	-0.01064053
49	0x3c76b027	0.015056646
50	0x3d391379	0.045184586
51	0xbcbc64f1	-0.022997351
52	0x3d1bae90	0.038008273
53	0x3c9413b0	0.018075794
54	0xbbc1eef1	-0.0059183766
55	0xbcc9c5c1	-0.02463043
56	0x3c1ecbab	0.009692113
57	0x3d272f0e	0.04081636
58	0x3b273512	0.002551381
59	0xbc1a9ecb	-0.009437273
60	0xbc924588	-0.01785542
61	0x3b8f1af0	0.004367225
62	0x3bb2b1b5	0.0054533132
63	0xbce604c2	-0.02807844

decoder.2.weight f4 [64, 32, 4, 4]
0	0xbc795f7b	-0.015220518
1	0x3d2db523	0.042409074
2	0x3c866a93	0.01640824
3	0x3d01337c	0.03154324
4	0xbb0d4e13	-0.0021561428
5	0xbc8cf8e0	-0.017208517
6	0x3cb7808a	0.02240016
7	0xbc8800fb	-0.01660203
8	0xbcabb713	-0.02096132
9	0xbcb0825e	-0.021546539
10	0x3c30ad7c	0.010783549
11	0xbc19e125	-0.009392058
12	0x3d07e145	0.03317382
13	0xbcb94c21	-0.022619309
14	0x3cf30ba1	0.029668631
15	0x3d18034e	0.037112527
16	0x3cc7e88c	0.02440288
17	0xbbb53d78	-0.0055310093
18	0xbd4bc8d8	-0.049752086
19	0x3b803c88	0.003913466
20	0xbcbe4658	-0.023226902
21	0xbccc118c	-0.02491071
22	0x3c3120bb	0.010811026
23	0xbc99d71c	-0.01877933
24	0x3c8863e0	0.016649187
25	0xbd09d488	-0.03364995
26	0xbc936bc5	-0.017995724
27	0xbd092ac7	-0.03348806
28	0xbcb5c01e	-0.022186335
29	0x3cf48520	0.029848635
30	0x3c113402	0.008862497
31	0x3d132dfe	0.035932533
32	0xbcb457ca	-0.022014517
33	0xbc8858ba	-0.01664387
34	0x3bd1d67d	0.006403743
35	0x3b72e3dd	0.0037062087
36	0x3cb29d50	0.021803528
37	0x3c174444	0.009232584
38	0xbc649033	-0.013950395
39	0x3b9a845c	0.0047154855
40	0xb8e6f1ec	-0.00011012316
41	0x3cf57523	0.029963082
42	0xbb4a79a4	-0.0030895257
43	0x3d025beb	0.03182594
44	0x3cf28519	0.029604482
45	0xbac5fa9f	-0.0015104598
46	0x3a5d7b98	0.0008448898
47	0xbc9b9861	-0.018993558
48	0x3cb44998	0.022007748
49	0xbcb224f2	-0.021746133
50	0x3d106e73	0.035261583
51	0xbce1ef76	-0.027580004
52	0xbb465aec	-0.0030266596
53	0xbcc01bf5	-0.023450831
54	0xbc87ff10	-0.016601115
55	0x3cdbf020	0.026847899
56	0x3d1ce45e	0.038303725
57	0xbc4e08ce	-0.012575341
58	0xbcaa703d	-0.020805473
59	0xbc825678	-0.015910372
60	0x3bab0eb6	0.0052202595
61	0x3c92eab6	0.017934185
62	0xbc54dac5	-0.012991612
63	0x3c4e6774	0.012597907
64	0xbba33f24	-0.004981892
65	0xbc5c82d4	-0.013458926
66	0x3cb09688	0.021556154
67	0xba8752c0	-0.0010324344
68	0x3aef62c2	0.0018263685
69	0xbca50d8f	-0.020148067
70	0xbc20961c	-0.009801414
71	0xbd127ab5	-0.035761554
72	0x3c811b8e	0.01576021
73	0x3d02b69f	0.031912442
74	0xbd0170d5	-0.031601746
75	0x3c8473f2	0.016168568
76	0x3c228c6c	0.0099211745
77	0xbd2b74ee	-0.04185956
78	0xbc8da1e5	-0.017289111
79	0x3cc5eacf	0.024159817
80	0x3d2e703d	0.042587508
81	0xbd209138	-0.03920099
82	0x3c861450	0.016367108
83	0x3cae524b	0.021279475
84	0xbbfe4e05	-0.0077607655
85	0x3c87f241	0.016595008
86	0x3d3f219a	0.046662904
87	0xbc5ae43f	-0.013360082
88	0xbd124d7f	-0.035718437
89	0xbd009f3f	-0.03140187
90	0x3ccf31b5	0.025292257
91	0xbaca664a	-0.0015441861
92	0x3ca1b5a5	0.019739935
93	0x39d165e1	0.00039939492
94	0x3c76ead9	0.0150706405
95	0x3cd2d62e	0.025736894
96	0xbd2d5375	-0.04231592
97	0x3c34c48c	0.011033189
98	0x3ccd555a	0.025065113
99	0xbd17f7e5	-0.037101645
100	0x3bc44dd7	0.0059907245
101	0x3d0a394e	0.033746056
102	0xbc09aa1f	-0.008402376
103	0xbca7abc7	-0.020467652
104	0x3c4c0128	0.012451448
105	0xbc8f87c1	-0.017520787
106	0x3c782c96	0.015147349
107	0xbb14d3c3	-0.0022709228
108	0x3c895bc2	0.016767386
109	0x3b72e101	0.0037060382
110	0xbb6a80eb	-0.0035782408
111	0x3cde26cc	0.02711811
112	0xbd16f437	-0.036853995
113	0x3c1a9e58	0.009437166
114	0x3d111142	0.03541685
115	0x3ccf3c72	0.025297377
116	0x3c8aba0e	0.01693442
117	0xbc322327	-0.010872639
118	0xbcfab745	-0.030604968
119	0x3ba9f81b	0.005187047
120	0x3ca36bd0	0.01994887
121	0x3cf0e311	0.029405149
122	0x3d16a3eb	0.036777418
123	0xbb7fdf37	-0.0039042959
124	0x3b6ee549	0.0036452583
125	0xbc203d13	-0.009780186
126	0x3d13361b	0.03594027
127	0xbca83cf1	-0.020536872
128	0x3d06975b	0.032859188
129	0x3cbb5bf4	0.022870995
130	0x3c0fa983	0.008768442
131	0xbd139785	-0.036033172
132	0x3c33a73e	0.010965167
133	0xbd221c9d	-0.03957807
134	0x3c64a98b	0.013956438
135	0xbbfe2138	-0.007755425
136	0x3c603c45	0.013686244
137	0x3c997903	0.01873446
138	0xbd5cf622	-0.053945668
139	0xbcfbfe4d	-0.030760908
140	0x3b46c82f	0.003033172
141	0xbd2ea247	-0.04263523
142	0x3cbe3fc3	0.023223763
143	0xbb27a84e	-0.0025582495
144	0xbc71aa81	-0.014750124
145	0xbd2c4c04	-0.04206468
146	0x3b8c38c0	0.004279226
147	0xbc096b5c	-0.008387413
148	0xbcdd5ab7	-0.027020795
149	0xbcf39323	-0.029733246
150	0x3c3ca8fa	0.0115148965
151	0xbc6627bf	-0.014047562
152	0xbd110e18	-0.03541383
153	0x3c6b497c	0.014360782
154	0xbcd25376	-0.025674563
155	0x3d2b1cb8	0.041775435
156	0xbce56562	-0.028002445
157	0xbc2c0129	-0.0104983235
158	0xbd0e9d51	-0.034817997
159	0xbca76d15	-0.020437757
160	0xbc3a718d	-0.011379612
161	0xbc700c47	-0.014651365
162	0xbc8474fa	-0.01616906
163	0xbb92d2f0	-0.004480712
164	0xbcb8e095	-0.022568027
165	0xbca6012f	-0.020264236
166	0x3cdfc56f	0.027315823
167	0x3c3c0d16	0.011477729
168	0x3bf6e85c	0.0075350236
169	0x3d1bd8df	0.03804862
170	0x3ce9c53c	0.028536431
171	0xba41d7de	-0.00073945324
172	0x3d1468ed	0.036232878
173	0x3ca5ae36	0.020224672
174	0x3d2842d2	0.04107935
175	0xbcc38772	-0.023868296
176	0xbc8b215a	-0.016983677
177	0x3c597981	0.013273598
178	0xbc48d914	-0.012258787
179	0xbbfdc8df	-0.007744893
180	0x3d3ad106	0.045609497
181	0xbc7f03dd	-0.015564886
182	0x3d3c4fb5	0.045974452
183	0xbccc3d79	-0.024931656
184	0x3cabaf5b	0.02095764
185	0x3d448280	0.047976017
186	0x3cc850df	0.024452625
187	0xbc39b9af	-0.011335774
188	0x3ca97aae	0.020688381
189	0x3d0cc964	0.03437175
190	0x3c6e1192	0.014530556
191	0x3cdafe44	0.026732571
192	0x3c7c86ed	0.015413028
193	0x3d2a0d93	0.04151685
194	0x3c91cb1e	0.01779705
195	0xbd16ab28	-0.03678432
196	0xbbd34679	-0.00644761
197	0xbbeda033	-0.0072517633
198	0x3d4d7360	0.05015886
199	0xbc9b2e49	-0.018942969
200	0x3bb6218a	0.0055581974
201	0xbc8d6ee8	-0.017264798
202	0x3d28a39b	0.04117165
203	0x3d28ea7b	0.041239243
204	0xbcbc0c1d	-0.022954995
205	0xbc032a99	-0.008005762
206	0xbc1d6efe	-0.009608982
207	0xbb3acb1a	-0.0028502406
208	0xbcbf52f3	-0.023354983
209	0x3d1f2946	0.03885772
210	0xbc5efcd1	-0.013610081
211	0xbc0df918	-0.008665346
212	0x3b9e5c3f	0.004832774
213	0xbb401178	-0.0029307287
214	0xbce576b9	-0.028010713
215	0x3c3bfed7	0.011474333
216	0xbca74f93	-0.020423686
217	0xbce71d96	-0.02821235
218	0x3ba26c96	0.004956792
219	0x3c571f6b	0.013130049
220	0xbc748902	-0.014925243
221	0xbc8a1588	-0.01685597
222	0xbb6df59b	-0.0036309722
223	0x3c8a9d9f	0.016920863
224	0x3d004198	0.031312555
225	0x3dc9ae4e	0.09847699
226	0x3db15f26	0.08660726
227	0x3d6d2fe2	0.057906993
228	0x3d0b2cc0	0.033978224
229	0x3ddd6f3a	0.108122304
230	0x3d79cc96	0.060986124
231	0x3db464c8	0.08808285
232	0x3db4d9d2	0.088306084
233	0x3db6cca8	0.08925754
234	0x3da38644	0.079845935
235	0x3d7bf652	0.061514206
236	0x3d5f74e8	0.05455485
237	0x3d97e278	0.07416242
238	0x3d80ddcd	0.06292305
239	0x3c866fdf	0.016410766
240	0x3c974124	0.018463679
241	0x3c610bb4	0.0137357
242	0xbb822641	-0.0039718454
243	0xbcaf39e4	-0.02138991
244	0x3cc10669	0.023562627
245	0x3c88f67d	0.016719097
246	0xbcc815e4	-0.0244245
247	0x3cb58850	0.022159725
248	0x3d0a99d0	0.033838093
249	0x3d2b613f	0.041840788
250	0xbcf8905f	-0.030342279
251	0x3c38fefe	0.011291264
252	0xbc3538cd	-0.011060906
253	0xbcc89864	-0.024486728
254	0xbd1b1358	-0.037860245
255	0xbbb9009a	-0.0056458237

decoder.2.bias f4 [32]
0	0xbc71333f	-0.014721691
1	0xbce70f40	-0.028205514
2	0x3b8bd794	0.0042676423
3	0x3c2435e0	0.01002261
4	0xbd2922b9	-0.04129288
5	0x3bfdc582	0.007744492
6	0xbc993302	-0.01870108
7	0x3d49ac04	0.049236313
8	0x3dbd5cda	0.09246226
9	0x3ba99efd	0.0051764236
10	0xbd2f3157	-0.042771664
11	0x3d8937b7	0.0670008
12	0x3cc92702	0.024554733
13	0x3d4c336e	0.049853735
14	0x3dc575cc	0.096416086
15	0x3cbcdada	0.023053575
16	0x3c8e0c04	0.017339714
17	0xbcb31d36	-0.021864515
18	0x3d211907	0.03933051
19	0x3b8b91bd	0.0042593167
20	0xbc458d8e	-0.012057675
21	0xbbefa1c3	-0.0073129847
22	0x3d1a2084	0.037628666
23	0x3caa058f	0.020754604
24	0x3cdb3106	0.026756775
25	0xbac753b1	-0.0015207437
26	0x3c931c21	0.017957749
27	0xbd5c3006	-0.053756736
28	0x3d3732d4	0.044726208
29	0x3e1015df	0.14070843
30	0x38e985ae	0.000111352056
31	0x3ce0c1b0	0.027436107

decoder.4.weight f4 [1, 32, 3, 3]
0	0xbc645806	-0.013937002
1	0xbd3af3b0	-0.045642555
2	0x3cf19a4f	0.029492525
3	0x3c00f3aa	0.007870594
4	0xbd13ca27	-0.03608146
5	0x3c7ce9fd	0.0154366465
6	0xbc47fe06	-0.01220656
7	0xbd416f7d	-0.047225464
8	0xbd4d32ac	-0.050097153
9	0xbd4ea60e	-0.05045133
10	0xbd1ee360	-0.03879106
11	0xbd149019	-0.036270235
12	0xbd49182b	-0.049095314
13	0xba774b5e	-0.0009433533
14	0xbb47edb1	-0.0030506665
15	0xbd303149	-0.043015752
16	0xbd59aba2	-0.053142197
17	0x3bc5a0fb	0.0060311533
18	0xbc8da571	-0.017290803
19	0xbc8d73da	-0.017267156
20	0x3b0212bd	0.0019847595
21	0x3d6dfb83	0.05810119
22	0x3da9fb7e	0.082999215
23	0xbd121633	-0.035665702
24	0xbbed60bb	-0.007244197
25	0x3d95a6b9	0.073071904
26	0xbc4d44b5	-0.012528588
27	0xbd37f5d1	-0.044912163
28	0xbda10b20	-0.0786345
29	0x3c1eb8dc	0.009687629
30	0xbd160e67	-0.03663483
31	0xbcb41c55	-0.021986166
32	0xbca45d8e	-0.020064142
33	0xbd29cf05	-0.041457195
34	0xbd43ef3e	-0.04783558
35	0xbd810678	-0.06300062
36	0x3acc62c4	0.0015593399
37	0xbd2f7198	-0.04283294
38	0xbd7a5b96	-0.0611225
39	0x3ce101fa	0.027466763
40	0x3be2a5b3	0.0069167255
41	0xbd797b24	-0.06090845
42	0xbb080777	-0.0020756403
43	0x3c802f12	0.015647445
44	0x3c242fc7	0.010021157
45	0x3c21de6d	0.009879691
46	0xbcc02263	-0.023453897
47	0x3d2eb076	0.042648755
48	0x3d871eb4	0.06597653
49	0x3d4a9dd9	0.04946694
50	0x3cabe1ad	0.020981634
51	0xbc9b9198	-0.018990323
52	0x3cd28508	0.0256982
53	0xbce0e5c4	-0.02745331
54	0xbc5935ac	-0.013257425
55	0x3cc821eb	0.024430236
56	0x3ccc4029	0.024932938
57	0x3ca7f018	0.020500228
58	0x3d5d8ab6	0.054087363
59	0xbcc0b654	-0.02352444
60	0x3b09d5c1	0.0021031948
61	0x3cb68e0d	0.022284532
62	0xbd319f42	-0.04336477
63	0xba3be90d	-0.0007168211
64	0x3c283f26	0.010268962
65	0xbc1507d0	-0.009096101
66	0x3d143593	0.036183905
67	0xbceae8aa	-0.028675396
68	0xbd52033c	-0.051272616
69	0xbc75ae51	-0.014995174
70	0x3ce77ae3	0.02825684
71	0xbd844b37	-0.064596586
72	0xbdd41248	-0.10355049
73	0xbd84d05c	-0.06485054
74	0xbcf2958d	-0.029612327
75	0xbd7cf31b	-0.06175528
76	0xbd41741c	-0.04722987
77	0xbdd56118	-0.1041891
78	0xbe0497a0	-0.12948465
79	0xbdac8305	-0.084234275
80	0xbd4b6a7b	-0.049662095
81	0xbd7a0010	-0.061035216
82	0x3d26129d	0.040545095
83	0xbd68d230	-0.056841075
84	0x3d228e78	0.03968665
85	0xbd8d6f0e	-0.069059476
86	0xbd41adb5	-0.0472848
87	0xbd1e35b7	-0.038625445
88	0x3d27e9a7	0.040994313
89	0xbc2cbb3e	-0.010542689
90	0x3cdf83f3	0.027284598
91	0xbcd8f8ca	-0.02648582
92	0x3cd3b20a	0.025841732
93	0xbd06feb3	-0.032957744
94	0xbd50cc39	-0.050976012
95	0x3c9cc94b	0.019138953
96	0xbd3dd10b	-0.046341937
97	0x3c7a8296	0.015289923
98	0x3cd55942	0.026043538
99	0xbc2af079	-0.01043331
100	0x3d3b19ff	0.04567909
101	0x3d9e45a2	0.07728125
102	0x3cbe317b	0.023216954
103	0x3dc6fc11	0.097160466
104	0x3cd2a16f	0.025711743
105	0x391ab61b	0.00014754424
106	0x3d4c555d	0.049886096
107	0x3d45ae70	0.04826206
108	0x3d10fa6e	0.03539508
109	0x3d056642	0.032568224
110	0x3d5950a1	0.05305541
111	0x3d06eff2	0.032943673
112	0x3c34a3d6	0.01102539
113	0x3d39c568	0.045354277
114	0xbcbd07b9	-0.023074972
115	0xbcc18d25	-0.023626873
116	0xbd12ae28	-0.03581062
117	0xbcdff15a	-0.027336765
118	0xbd6999b6	-0.057031356
119	0xbd02acd2	-0.031903096
120	0xbb97257d	-0.0046126232
121	0xbd6d43f2	-0.057926126
122	0xbd90d679	-0.070721574
123	0x3aa4d1dd	0.0012574751
124	0xbd7e171f	-0.06203377
125	0xbca794e5	-0.02045674
126	0x3e5ab35c	0.21357483
127	0x3e54890c	0.20755404
128	0x3e1bf526	0.15230235
129	0x3e6b83cc	0.22999495
130	0x3e6be1f4	0.23035413
131	0x3e6da8a7	0.23208867
132	0x3e2178e4	0.15768772
133	0x3e20e875	0.15713675
134	0x3e1e25a3	0.15444045
135	0x3cdab7e4	0.026699014
136	0xbd720f81	-0.059096817
137	0xbd0e29af	-0.03470772
138	0x3d669e99	0.056303594
139	0x3c118a44	0.008883063
140	0x3b1be03c	0.0023784777
141	0xbcfa5a77	-0.030560715
142	0x3cabfc10	0.020994216
143	0x3d49b346	0.049243234
144	0x3c1ea501	0.009682895
145	0x3e0590bb	0.13043492
146	0x3d9f7e81	0.077878006
147	0x3daf4823	0.08558681
148	0x3d4ece8d	0.05048995
149	0x3e043283	0.12909894
150	0x3c8e79ff	0.017392157
151	0x3df7a955	0.120928444
152	0x3df8a935	0.12141649
153	0x3bdca5c4	0.006733628
154	0x3d51f41b	0.051258188
155	0x3d79402a	0.060852207
156	0x3d26bc1c	0.04070674
157	0x3d65843a	0.056034304
158	0x3bb01af6	0.0053743077
159	0xbc8671ad	-0.016411627
160	0x3c78269b	0.015145923
161	0x3d08531a	0.033282377
162	0xbd03c412	-0.03216941
163	0x3d199dac	0.037503883
164	0x3a9df3b5	0.001205078
165	0xbcdddc3c	-0.027082555
166	0xbd733fc8	-0.059387
167	0x3c8652d6	0.016396921
168	0xbd9a2a6d	-0.07527623
169	0x3d11e3f6	0.03561779
170	0xbd923b92	-0.071402684
171	0x3d1a1771	0.03762001
172	0xbd1c8035	-0.038208205
173	0x3d83a901	0.06428719
174	0xbcae1316	-0.021249335
175	0x3d308cd7	0.043103065
176	0x3d51a5b9	0.051183436
177	0x3cd7a44f	0.026323466
178	0xbc467811	-0.012113587
179	0x3d86c764	0.065809995
180	0xbd52d9e0	-0.051477313
181	0xbd3f8a67	-0.04676285
182	0x3c963efb	0.018340578
183	0x3d312d54	0.04325612
184	0x3cf84963	0.030308431
185	0x3cf14d86	0.029455911
186	0x3d06fa77	0.032953706
187	0xbab9bcf6	-0.0014170695
188	0x3bc84775	0.006112034
189	0x3c4c7f68	0.012481548
190	0xbc50813b	-0.012726123
191	0xbd7458f3	-0.05965514
192	0xbd689b8b	-0.056788962
193	0xbcc9d333	-0.02463684
194	0xbd8dadf2	-0.06917943
195	0x3c8d0131	0.017212482
196	0x3c82531d	0.015908772
197	0xbd7f7914	-0.06237133
198	0x3da3b7a9	0.07994015
199	0x3d9c7db2	0.07641162
200	0x3de4d957	0.11174267
201	0x3e08ccb7	0.13359343
202	0x3e11a453	0.14222841
203	0x3dec7041	0.11544848
204	0x3dbc1502	0.091836944
205	0x3daec0c5	0.085328616
206	0x3dd914a1	0.10599638
207	0x3cfc514d	0.030800486
208	0xbcffa585	-0.031206856
209	0x3c10ea43	0.008844915
210	0x3d3f062c	0.046636745
211	0xba37e378	-0.00070147915
212	0xbcc86301	-0.024461271
213	0x3d01feef	0.031737264
214	0x3d39179e	0.04518854
215	0x3d4948f5	0.049141843
216	0xbc325419	-0.010884308
217	0x3c92e745	0.017932544
218	0x3da5961d	0.080852725
219	0x3cde481e	0.027133998
220	0x3dd17a24	0.102283746
221	0x3da1a7ec	0.07893357
222	0x3cf906e3	0.030398792
223	0x3db12989	0.086505
224	0x3d6006ad	0.054693867
225	0x3df1d5c8	0.11808354
226	0x3d7ef6fb	0.062247258
227	0x3c4f7300	0.0126616955
228	0x3dbf9f10	0.09356511
229	0x3de79f6e	0.11309706
230	0x3db5ff57	0.08886593
231	0x3d672366	0.056430243
232	0x3dec6ac2	0.115438
233	0x3ddf0db9	0.10891289
234	0x3cd4873d	0.025943393
235	0x3d9e2925	0.077226914
236	0xbbe311aa	-0.006929596
237	0x3caf6a61	0.02141303
238	0xbccd377e	-0.025050875
239	0x3d07e522	0.033177502
240	0xbd10a9e0	-0.035318255
241	0x3d278e33	0.040907096
242	0x3ce8b7f6	0.028408032
243	0xbd4884bb	-0.048954707
244	0xbd624c05	-0.05524828
245	0xbd0cc3af	-0.034366306
246	0x3c6043eb	0.013688068
247	0xbc01e5ca	-0.007928321
248	0x3c889dc4	0.016676791
249	0x3d095ec7	0.033537652
250	0xbcd4da06	-0.025982868
251	0x3d55a21b	0.05215655
252	0xbca14a5d	-0.01968878
253	0xbc984c58	-0.018591091
254	0x3bdd6b95	0.0067572095
255	0x3c133e9f	0.008987098
